notebooks/lstm_stock_model.pth (torch, 128213 bytes, 9 tensors)

lstm.weight_ih_l0 f4 [200, 1]
00000000: 31ea 02bd e279 5f3e c7e5 103e 329a acbd
00000010: ad3a 3abd c609 c63d ee60 24be 772f c13d
00000020: 8aad 19bd 80fe 293d c990 88ba 2b5e 5abd
00000030: c901 c2bd ae07 0b3e 92fb be3d 07a9 0c3d
00000040: f077 e83d 4802 623e 6a7b 90bc 8cbd b73d
00000050: a7f4 d33d 570e 933d df8b 94bc 30d2 92bd
00000060: 8208 183e 893c 183e 8718 533e b5f6 4a3e
00000070: b088 66bd 0492 813d 1b80 353e 6eb7 b7bc
00000080: 4964 89bc 8f7e 47bd 4771 933d 78d7 5abd
00000090: 7e9e b83d bf7b 2cbd c3b2 333d a13a ae3b
000000a0: 0589 4c3c cfcb 3cbe 6da9 363e 67e2 b03d
000000b0: e5ba b1bd aa4e 8ebd 60cd 5fbd d457 8abd
000000c0: c0e5 ef3d a626 ef3d 10df 41bd 5cef 7abd
000000d0: f836 5abd 4829 bb3b 3a5b 3ebd e1af c03d
000000e0: 5273 36be 1634 f83c f46c 213d 88e5 f23d
000000f0: e770 11bd 8180 cfbd 1e58 063e 427d 043e
00000100: ed56 1d3e 6aa2 6c3d ddde 5c3d 9ef9 173e
00000110: 7d1c d8bb 936e a1bd 6ee5 f33d a6e1 f4bc
00000120: 7629 debc eb61 18be c156 f03d c6db 85bd
00000130: 58df 643d bdce 393e 56b2 be3d afd4 60bb
00000140: 647b 5abd 89d5 cf3d 5b00 60bd f0fb ff3d
00000150: 6ab5 723d 40e2 a83d 832e a23d 7e80 adbc
00000160: 1374 423e 80a3 253e 7cb4 2f3b 0067 33bd
00000170: 589f 4c3e ce1d bebc 4719 1d3e 6620 aabd
00000180: bed0 95bb 7d01 cdbd deb2 313e bd46 66bd
00000190: 0258 d6bc baf5 4c3e f454 0a3e 7ea2 083e
000001a0: fd79 b8bd c6d7 03be 7ff6 edbd aa0b 22be
000001b0: 5561 02bb 4ae9 3b3e 2a81 bbbd 8feb dbbc
000001c0: 2d37 cebd 7688 fe3d 852e de3c 3a41 a83d
000001d0: 394a 16be 936f 423e 0f97 933d 51e7 993d
000001e0: 5e74 b1bc c234 d1bd 9f78 023a 8bde 45bd
000001f0: 10b8 6fbe b158 b23c 26b6 c1bd cbad 46be
00000200: 27cb 36be 3fe8 263e bbb0 fbbd dcaa f03d
00000210: cc95 55bd 6b28 613e 59c1 2dbe 8a99 073e
00000220: f8e4 073e c989 93bd d69c b03d c3b6 8c3c
00000230: 82e9 c4bd f67d 653d 438e cdbd 6226 3f3e
00000240: 1df4 98bd c76e 19bd 4ad1 abbd f8c6 c9bc
00000250: c6f6 1b3e 02d1 0abe cba2 a3bd f5f9 6b3d
00000260: 4f51 133e a335 30bd 2987 a73d 484e ef3d
00000270: fdf2 5c3c 99d5 09be 1640 2c3e 116d 643e
00000280: d115 e2bb 5171 65bc 31b8 fa3d e362 713d
00000290: 9d7f 55bc d4a4 dcbd 02ce 513e 3f26 d0bc
000002a0: 966c 2bbd 13ac 933c 0320 7bbc dc56 563e
000002b0: 98d5 613d 7070 973d c660 653e ab36 2f3e
000002c0: 28e6 a33d c319 213e 2950 02bd 993b 773c
000002d0: 163c 11bd 22f6 dabd 4456 3d3e ddca abbc
000002e0: 5ce7 19bd 594f 31bd 9633 aa3c 75a7 833d
000002f0: c385 ccbc c14d 0d3e b345 e53d 4c3f 91bd
00000300: 4c87 043e 316e 5839 d2f9 d53d 9ef8 fe3b
00000310: 832b 2ebd 1e55 c7bb fa09 1a3e ea54 b83d
-0.031961624 0.21823838 0.14150153 -0.08427848 -0.045466114 0.09669833 -0.160526 0.09432881
-0.037519015 0.041502476 -0.0010419126 -0.05331246 -0.09472997 0.13577148 0.09325327 0.034340885
0.11351001 0.22071183 -0.017636973 0.089717 0.10349398 0.071804695 -0.018133102 -0.07168996
0.14846995 0.14866842 0.20614825 0.19820674 -0.0562827 0.063266784 0.1772465 -0.022426333
-0.016771453 -0.04870468 0.0719934 -0.053428143 0.09014605 -0.0421102 0.043871652 0.0053170477
0.01248384 -0.18437122 0.17838068 0.08636933 -0.086782254 -0.06948598 -0.05463922 -0.06755033
0.11713743 0.116772935 -0.04733187 -0.061263427 -0.05327508 0.005711708 -0.04647372 0.09408546
-0.17817429 0.030298274 0.039410546 0.11860186 -0.035508063 -0.10131932 0.13119552 0.12938407
0.15365191 0.057772078 0.053923476 0.14841315 -0.006595193 -0.078824185 0.119089946 -0.029892754
-0.02711938 -0.14881103 0.11735297 -0.06536059 0.05587706 0.1814527 0.09311359 -0.0034306457
-0.05334033 0.101481505 -0.05468784 0.12499225 0.05925504 0.08246279 0.07919028 -0.021179434
0.18989591 0.16175652 0.0026810458 -0.0437994 0.1998266 -0.023207571 0.15341674 -0.08306961
-0.004572003 -0.100100495 0.17353389 -0.056219805 -0.026165012 0.20015612 0.1350897 0.13343236
-0.090076424 -0.1287528 -0.11619281 -0.15824762 -0.001989444 0.18350711 -0.091554955 -0.026845722
-0.10069118 0.124283716 0.027121792 0.08215566 -0.14676751 0.18987875 0.072065465 0.07514823
-0.021661934 -0.10215141 0.00049770804 -0.048307937 -0.23410058 0.021770807 -0.0945857 -0.19402234
-0.17850934 0.16299532 -0.12289568 0.11751339 -0.05214481 0.21988074 -0.16968288 0.13242164
0.13270938 -0.07204015 0.08623664 0.017176991 -0.096148506 0.05602833 -0.100369 0.18666986
-0.07468436 -0.03745916 -0.08389528 -0.024631009 0.15230855 -0.13556293 -0.07990035 0.057611424
0.14386486 -0.043019902 0.08180077 0.11684853 0.013485667 -0.13460387 0.16821322 0.2230723
-0.0068995734 -0.0140040675 0.12242163 0.058932196 -0.013030914 -0.10773626 0.20488742 -0.025408862
-0.041851602 0.018026387 -0.015327456 0.20931572 0.05513534 0.073944926 0.22400197 0.17110698
0.08002883 0.15732484 -0.031814728 0.015089893 -0.035457693 -0.10691477 0.18489939 -0.020970756
-0.037574157 -0.043288562 0.020776551 0.06428424 -0.024966126 0.13799192 0.11194935 -0.07092151
0.12942237 0.00020640415 0.1044804 0.0077811023 -0.042521965 -0.006083145 0.15042868 0.09000571

lstm.weight_hh_l0 f4 [200, 50]
00000000: 01ce e0bd 4096 8fbd a344 e33c 5489 f9bb
00000010: 1594 9d3d e9f4 a4bd d695 0cbd 1cc6 9c3d
00000020: 3a4e 733b bebb 303d 98d1 b5bd cb14 9dbd
00000030: adef e73d f272 78bd b387 c7bd a4d7 9f3b
00000040: 72f5 0fbe ca6a 2b3d c7ad 813d 8753 9a3d
00000050: 8547 773d ee68 d6bd 68be 9e3d 6358 043e
00000060: e07a f9bd e68c 19bd a284 0bbe d4fb eabd
00000070: 0221 e83d ea10 0cbd a0e5 853d 0098 bf3c
00000080: f72d 49bd 9a41 edb9 18d1 1bbd 55b0 113e
00000090: 4d61 c4bd f83c afbd 030f ea3d 897d b0bd
000000a0: 0c1f 533d 26a4 483d f9c7 febd 2eee b1bd
000000b0: ae0b 24bd 7c8a 22bc 394a a1bd 9876 85bd
000000c0: cc4f 113e 90db 28be 03a4 453d e93d 84bd
000000d0: 6210 993c 1015 803c 9ff6 363c 8060 19be
000000e0: 4157 cbbd 7f02 923d f553 473d d517 e53d
000000f0: b2e7 9fbb 60e1 4b3d a5bb 1dbd 51d4 f0bc
00000100: 5cb5 bf3b 5ce5 00bc 745c 85bd 97ad 95bd
00000110: aef8 79bc 1695 00be bfcd 22be f4bd 3bbc
00000120: d606 0bbd 7964 84bd 0301 8e3d d37d 2e3d
00000130: a626 59bc 40b9 823d 1c93 0ebe 5186 243e
00000140: d3a7 06be 6195 dfbd a697 c03c 961c ff3c
00000150: 6e35 aabd 0ff0 493d 42a2 15bd 0f16 29bd
00000160: b874 dbbd d22f 97bc 8ee0 353d 411b fe3c
00000170: 76ce 11bd 403d e0bc 204c de3d 2ae5 6cbd
00000180: 05a0 37bc 5f17 26bc e93f c33d df3e 20bd
00000190: 8ced a03d ef7a 373d 2ff5 223e 967c d3bd
000001a0: c512 903d 8a57 da3d 88d4 213e dd91 1bbe
000001b0: 9271 e1bd c80a 663d b3e9 bd3d 3d75 c73d
000001c0: 7ee2 033e 777f 333d d3b6 143d 4634 1f3e
000001d0: 610b 14be 688d 1abd 0142 a73d f0c6 a73d
000001e0: cc7f f73c 8b83 833c 20c4 da3c 40e8 0a3e
000001f0: b7fe 63bb ffc6 563d 5c4d 6b3d d9c1 313b
00000200: a8a2 fa3d 4b8f e23d 633e 0fbe 7002 ce3c
00000210: bd93 683d d26d 973d d0ce 08be 21c1 903d
00000220: fdf0 eb3d 537a 9a3d 7a61 b73d f0ab 6cbd
00000230: ec66 303d c50c 48be 5e9f 113d 35ad 04bc
00000240: 43ba 173d b032 043e 57bb d93d ef70 0bbe
00000250: 4a49 eb3d db2d e53c ca4b 953d b1ed 09bd
00000260: e2e1 b23d 138d 98bd 48bc 443d 2b69 95bd
00000270: f17f ef3c 6f37 003d d1f1 71bd 4e81 a53c
00000280: 8691 253e ce95 67bd 04fc 453d aeca 293d
00000290: 0b20 913c ffb1 fabd 94dd ccbd c5a7 0d3d
000002a0: 4b6f 063d f7a3 13bd 246e b9bd 043f e73d
000002b0: 4d32 13be 5cd6 0cbd b9fe 45be b996 ea3b
000002c0: de4e c5bd 4a6c a73d 9d3f babd 1325 ffbd
000002d0: 6069 3d3a a3da 28be f1ba 003e 12ed 39bd
000002e0: 779c 76bd 13d8 f53d 4e5c 993c 1dbc de3c
000002f0: 8db0 09be 4558 b5bd 4570 903d f9c5 d2bd
00000300: ebe4 cdbd b7e2 00bd d827 1abd 9a6f a0bd
00000310: 9082 21be 5d47 e8bd 8e2e 483b 507c 96bd
00000320: cb34 153d b82e 263e 87ce 583d fa3d 64bd
00000330: af4d 71bd 9197 55be 807a c13c 649c 2abe
00000340: af4f a6bc 472c 54bc c6fd 8bbd 71a7 d83d
00000350: f90f e63d 24cf 94bd 0981 50bd fb1c 263e
00000360: 9b17 01be fbb7 ba3a 011c bcbc daa6 873c
00000370: 9627 813d 7bbe 15be 0c1f 133e 9228 9b3b
00000380: 6c86 67bd 27a2 3d3d 9cb0 fabc 4423 55bd
00000390: c161 2fbd a0cd 5ebd cc49 dcbd 2d89 de3d
000003a0: 8148 d4bd a05a 98bb abfd 04be 1897 203e
000003b0: 3cf4 7abd a60a 5bbc cf2a 99bc cc44 693c
000003c0: 9284 72bc 356b 5dbd 9102 48bd a9e4 c53d
000003d0: fd22 af3d bffe 333d 74dd 18be 39cb c3bd
000003e0: a164 a2bd 4dd3 a43d df37 453d a8dd 02bd
000003f0: 9481 12bd 4197 db3d bb12 03bd c1c5 d03d
-0.10976792 -0.0701108 0.02774269 -0.0076152477 0.0769426 -0.080545254 -0.034322582 0.07654974
0.0037125484 0.043147795 -0.088778675 -0.076699816 0.113250114 -0.060656495 -0.097426794 0.0048780013
-0.14058474 0.04184989 0.063319735 0.07535463 0.06037094 -0.104692325 0.07751161 0.12924342
-0.1218164 -0.037487887 -0.13624814 -0.11473814 0.11334421 -0.034195818 0.06537938 0.023387909
-0.0491161 -0.0004525304 -0.038041204 0.14227422 -0.09588871 -0.08556551 0.114286445 -0.08617694
0.05154328 0.04898467 -0.124404855 -0.08688007 -0.0400502 -0.009920713 -0.07875485 -0.065167606
0.14190596 -0.16490006 0.048252117 -0.06457121 0.01868457 0.015635043 0.0111671975 -0.14978218
-0.09928752 0.07129382 0.048664052 0.11186186 -0.004879915 0.04977548 -0.03850903 -0.029398115
0.005850477 -0.007867184 -0.06511775 -0.073085 -0.015257044 -0.12556872 -0.15898798 -0.011458863
-0.033942066 -0.06464476 0.06933787 0.042600464 -0.013253843 0.0638299 -0.13923305 0.16066863
-0.13149957 -0.10917164 0.023509812 0.03114156 -0.08310972 0.049301203 -0.036531694 -0.041280802
-0.10715622 -0.01845542 0.044403605 0.031018855 -0.035597287 -0.027372956 0.108543634 -0.057835735
-0.011207585 -0.010137408 0.09533674 -0.03912246 0.078578085 0.044794973 0.15913843 -0.10326497
0.0703483 0.10661228 0.1580373 -0.15192361 -0.1100799 0.056162626 0.0927309 0.09739158
0.12879369 0.04382273 0.036307167 0.15547284 -0.14457466 -0.03773251 0.08166886 0.08192241
0.030212305 0.016053936 0.026704848 0.13565159 -0.0034789273 0.05243587 0.057446823 0.00271236
0.122380555 0.11062487 -0.13988642 0.025147647 0.05678152 0.073939934 -0.13360143 0.070680864
0.11520574 0.07542863 0.08954139 -0.05778116 0.043066904 -0.19536121 0.035552375 -0.008097936
0.037042867 0.12909961 0.10631435 -0.136173 0.11488588 0.027975967 0.07289846 -0.033673946
0.0873449 -0.07448783 0.04803112 -0.0729545 0.029235812 0.031302866 -0.059068505 0.020203259
0.16168794 -0.05653935 0.048336044 0.041453056 0.017715475 -0.12240981 -0.100032 0.034583826
0.03282098 -0.03604504 -0.09054211 0.11291316 -0.14374657 -0.034384117 -0.1933545 0.007159081
-0.09634183 0.081749514 -0.090941645 -0.12458243 0.000722548 -0.16489653 0.12571312 -0.045392103
-0.06020781 0.120041035 0.018720772 0.027189309 -0.13446255 -0.08854727 0.07052664 -0.102916665
-0.10053428 -0.031466212 -0.037635654 -0.07833786 -0.15772462 -0.113417365 0.0030545327 -0.073479295
0.0364273 0.1622876 0.052931335 -0.055723168 -0.058911975 -0.20858599 0.023617983 -0.16661221
-0.020301668 -0.01295001 -0.06835513 0.10578812 0.11233515 -0.072660714 -0.050904308 0.16221993
-0.12606661 0.0014245504 -0.022962572 0.016559053 0.063063785 -0.14623444 0.14367312 0.004735061
-0.05652468 0.04629722 -0.030601792 -0.052035585 -0.042817835 -0.054395318 -0.10756263 0.10866008
-0.103653915 -0.004649475 -0.12987392 0.15682638 -0.061268076 -0.013369238 -0.01869717 0.014237594
-0.014802115 -0.05405732 -0.048830573 0.09662754 0.08551595 0.043944117 -0.14928228 -0.09560246
-0.0792935 0.08048115 0.048148986 -0.03194967 -0.035768107 0.10722209 -0.032000285 0.101939686

lstm.bias_ih_l0 f4 [200]
00000000: af5e 90bd 0e1e a8bd 8b28 0f3d f0ce 9e3d
00000010: 9c43 ac3d ef7d 293e 1d3f 02be a46f d33d
00000020: 2dd4 283d 5946 44bd 677b 0f3c 673b 773d
00000030: 2932 98bd 28fd 233e 7a2a 0cbe 2b4c bcbd
00000040: ae38 8e3d f26f 473c 19a7 ab3d 1576 c23c
00000050: d126 40bd 971c 243e 5928 08bd bb04 c63b
00000060: ae67 223e 0d1e 6c3d 546a 0a3d 4649 7abd
00000070: 278a e43d 2c9d 703d 4cf4 613c 839d 78bd
00000080: 484b 97bd 4ebc bf3c 9d60 263e 53ee ecbc
00000090: 5240 cfbc 9297 e2bc 33f8 b23d 7c89 80bd
000000a0: 1b4c f2bc 95da c4bd ff7e 0a3e 10ce d73c
000000b0: 90ad ff3d 56a1 87bc ba64 41bd 61df 0a3d
000000c0: ca1a 9cbd 262f ed3b 4328 a5ba 5ac8 fc3d
000000d0: fa0f e7bd 00f4 703d b205 89bd 5db2 7d3d
000000e0: 3e12 673c 9bb8 0e3d fd88 253d 318a 1d3e
000000f0: a463 543c bce7 14be c026 563c ac9e f03d
00000100: 63b5 f03c ff5c 2b3e bc77 103e 1407 b73d
00000110: e4a8 3d3d 62e7 a9bc 6ca1 cc3d 5d34 a93d
00000120: 1ab0 923b 1f18 703d 9aab 1f3e 1ab1 08be
00000130: 4d97 9f3d 62fc 3e3d 54ed 04be 2326 e0bd
00000140: 5e3a 1e3e a1cd 02be 3b56 e9bd a2f8 66bc
00000150: a461 303e 412a 0cbd 91ca b7bd 78f1 bebd
00000160: dcf1 41bd ef7f b53d 39b9 58bd cbf1 043d
00000170: 63ae 893c 005f e13d 722e a13d 0c1e e23c
00000180: 41d0 833d efa8 993d 8f46 213e 0cb9 9bbd
00000190: caf0 0d3e 6202 e53c 4149 ddbd 14c2 f9bc
000001a0: accf f4bd f59c 20bd b289 4b3d 62e1 fe3d
000001b0: 3567 8d3d 5afd db3d 8f36 a43d 0b9f d93d
000001c0: d1cd 97bc f3d6 c6bd ee8a fd3b 84a5 87bd
000001d0: 5b17 8d3d d9e5 f03d ed4c ae3d 1e18 463d
000001e0: be67 0dbe dd3f bdbd 7bac 3bbd ba87 21bc
000001f0: e047 9e3d 6392 8a3d c30b acbc 8916 02be
00000200: 9fb7 50bd 5a82 2f3d 5891 77bd c73e cfbd
00000210: 836f 183e 0a13 f2bd 9871 fcbc ed9d c8bd
00000220: bcf9 9f3d d851 4e3c 9a42 03be bdfe 0fbe
00000230: 9931 1cbd 6a92 27bb 3dbc fc3c e171 143e
00000240: 9d0c 7abd a483 a83d 1087 f03c 628f 3dbd
00000250: 4f8f 87bd debf 453d 78c8 06bd 2512 173e
00000260: 1d46 e8bc 3e99 4abd 6f05 8dbc b69c bf3c
00000270: 677f 9f3d 32da 033e 7077 edbd cc65 9dbc
00000280: 84fb 843c e155 06be ff2e 2c3c 602e 42bd
00000290: 6b11 9bbd 5431 9039 822f b5bd 3807 31bd
000002a0: a06f 76bd aeb2 b83c 3954 183e 7cd9 353d
000002b0: 38dc 8fbd be17 bfbb b73c 32bd 22eb d6bd
000002c0: 270b 7d3c 8703 ea3d f516 eb3d 131b a4bd
000002d0: 5e32 b63d f023 883d 50bc cf3d e1d4 de3c
000002e0: 63a4 5b3d 5249 c5bd b703 42bd abdf 083e
000002f0: 79d2 fb3d 18ff 1c3e c3d4 e43c b4d3 7fbd
00000300: a9f7 aa3d dfa3 9d3d 534a e2bd 8139 98bd
00000310: f0d4 723d 6c5b 7fbd ec37 d7bd f94d 063e
-0.070493095 -0.082088575 0.034950774 0.07754314 0.08411333 0.16551946 -0.12719388 0.10324028
0.04121797 -0.04791865 0.008757449 0.060359385 -0.07431442 0.1601454 -0.13688079 -0.091942154
0.069444045 0.012172686 0.08381481 0.023737947 -0.04691202 0.16026531 -0.033241604 0.0060430444
0.15859863 0.057645846 0.03379281 -0.061105035 0.11159163 0.05874364 0.013791155 -0.06069709
-0.07387406 0.02340522 0.16247793 -0.028922236 -0.025299225 -0.027660165 0.087387465 -0.06276223
-0.029577306 -0.09612004 0.13525008 0.026343375 0.12484276 -0.016556423 -0.0472152 0.033904437
-0.07622297 0.0072382865 -0.00126005 0.123429015 -0.11282344 0.058826447 -0.066905394 0.06193768
0.01410347 0.034844022 0.040413845 0.15384747 0.012963209 -0.14541525 0.013070762 0.11749014
0.029383367 0.16734694 0.14108175 0.08936897 0.046303645 -0.020740215 0.09991726 0.08261941
0.0044765593 0.058616754 0.15592805 -0.13348809 0.0779253 0.04662741 -0.12981158 -0.10944774
0.15451953 -0.12773754 -0.113934 -0.014097365 0.17224747 -0.034219984 -0.08974183 -0.093234
-0.047349796 0.08862292 -0.052911017 0.032457154 0.016806787 0.11004448 0.07870187 0.027602218
0.06436206 0.07502925 0.15749572 -0.07603654 0.13861385 0.027955238 -0.10804988 -0.030488051
-0.11953673 -0.039212186 0.049691863 0.12445332 0.06904451 0.10741682 0.08018219 0.10626038
-0.018530758 -0.09708967 0.007737509 -0.066233665 0.0688922 0.1176259 0.08510766 0.048362844
-0.13809106 -0.092406966 -0.045818787 -0.00985902 0.07728553 0.06766202 -0.021001702 -0.12703909
-0.050956365 0.042848922 -0.060441345 -0.10119396 0.14886288 -0.11820038 -0.030815884 -0.09795747
0.07811305 0.012592755 -0.12818375 -0.14062019 -0.038133238 -0.0025569447 0.030851478 0.14496566
-0.061047185 0.082282335 0.029361278 -0.04627932 -0.06619131 0.048278682 -0.032906026 0.14753015
-0.028353745 -0.04946255 -0.017214505 0.023390155 0.07787972 0.12876204 -0.115950465 -0.01921358
0.016233213 -0.13118698 0.010509252 -0.047407508 -0.075716816 0.00027502573 -0.08846952 -0.043219775
-0.060165048 0.022546139 0.14875878 0.044396862 -0.07024425 -0.0058316877 -0.043514933 -0.10494067
0.015444553 0.11426454 0.11478988 -0.080129765 0.088963255 0.066474795 0.1014334 0.027201118
0.05362357 -0.09633125 -0.047366824 0.13366573 0.12296004 0.15331686 0.027933484 -0.062457755
0.08348019 0.076972716 -0.110493325 -0.07432843 0.059285104 -0.062343046 -0.10508713 0.13115682

lstm.bias_hh_l0 f4 [200]
00000000: 5ae4 ec3b 6ff6 4fbd 7a06 353e 86f5 173e
00000010: 2ae9 d53d 4ea0 913d 3034 5cbd d001 163e
00000020: 31a4 0e3e 383f 263e 2101 ba3d 92c1 fe3d
00000030: f933 fe3d 6abd 2a3e 1a70 1abd b98e 323d
00000040: 9245 27bd c129 083e c12c b93d 6fe8 973b
00000050: e02f 003e fe7a a5bd 6d9a e73d 1c82 13be
00000060: c60e ed3c a206 e7bd 50e0 6bbd 33a5 e73d
00000070: 7ba0 49bd 5352 e83d 4fd2 103e 8678 e1bd
00000080: dbc6 46bd bd68 1c3e 919d e33d d53f 6e3c
00000090: 58c4 aabd b810 843d 78bb 063e d599 00be
000000a0: 0719 07bc 9349 c1bd e080 cdbd d09b 033d
000000b0: 09ed 223d 9707 dd3d 4b08 d8bc 83a0 893d
000000c0: 8df5 163e 9656 3a3e 0792 88bd 22a9 eb3d
000000d0: b527 8f3c 43e1 223e 6b62 eebd 2824 b2bd
000000e0: 6b70 4e3d ca66 5cbc 653a 063e 467b 303e
000000f0: 7306 2ebd 04ce c8bd 64a2 18bd ea2d d1bb
00000100: b40d ebbd e89b dd3d 7464 183e ea82 323e
00000110: 1d1f 723d 90d8 a8bd 17b1 693c 719a 5dbd
00000120: 8a81 1cbe c5de 05be 81be 1abd 55c9 b1bd
00000130: 2bf8 8a3d 26b3 a2bd 61c2 083e 4715 6ebd
00000140: 7590 a6bd 49bd ecbd ccc1 0d3d b1c0 063e
00000150: 6c79 9cbc 2fe8 01bd c693 133e 257b 603d
00000160: 11ec c3bc ffb0 14bc 62fb a9bd d8f3 3ebd
00000170: 3768 923d 0c40 83ba 1d25 703d 2d31 02bd
00000180: d679 de3d ab62 26bd 8330 d63c 61af 213e
00000190: f8a2 dd3d e443 a13b 8a5b c13c bb25 a73d
000001a0: aa2d c8bd 03da dd3c 040c 6fbd e693 933c
000001b0: dde3 e83c 36a1 813c 49e8 883d 2b9d 22bc
000001c0: 0947 df3d f5ed 283d fb91 08bc 487b 123d
000001d0: 0d8d debd 97c5 f0bd 6200 5ebb df2d 9cbd
000001e0: 2645 c23d 91a7 c33c d15b 7c3d 46b7 ee3d
000001f0: 4163 3dbd 51cd d73d 4853 bcbd efd5 8ebd
00000200: a6b3 b63b 4476 e0bd 5c0c 3a3c 7565 b1bd
00000210: 4574 b53c 14d3 f93d 5049 2dbb df54 013e
00000220: 5e3c 0c3c a5ef d2bc 6744 10be b803 063d
00000230: bb79 183d 3f70 1fbe 6f2e 02be 2f26 e8bc
00000240: 613a 093e 832f 6d3d cf78 3ebd d018 b8bc
00000250: 3f40 ba3d d282 2d3d d041 093e 11d4 253e
00000260: 5c38 6b3d 8892 ed3d 4c9b 4f3d e63c 633d
00000270: c1f8 dc3d efd3 d43d 9ba2 bbbd cd1a 153e
00000280: ab60 78bd 8788 dc3d a2fa f9bd e815 e53d
00000290: bc23 a53d 368a 4f3d 6bf3 12bc 20df 03bd
000002a0: c05c efbd 00f1 e9bc a6c0 e13d 8980 b8bd
000002b0: 6a72 a03b b472 49bd 2ce2 313e 7a81 f3bd
000002c0: 0752 193e 6dc6 ef3d 4f9a f63c 5d46 d43b
000002d0: b98e 043e a8da 743d ee27 e3bd 28f8 0d3e
000002e0: 780d 1b3e a5ed 263e 363e 79bd 6068 e4bd
000002f0: fc3b b23d 1378 6abd 8e19 3ebd e1a9 193b
00000300: 4b8f d8bd ad6a 0f3e d2cd 06bd 64a6 25bd
00000310: 5165 ea3c 3a8a b23d 830f cfbd 8dde 4d3e
0.00722937 -0.050772127 0.17678252 0.14839754 0.10444863 0.07110654 -0.053760707 0.14649129
0.13929822 0.16235054 0.090822466 0.12439264 0.12412257 0.16673818 -0.037704565 0.043593142
-0.04083783 0.13297178 0.09041739 0.0046358625 0.12518263 -0.080800995 0.11308751 -0.14405102
0.028937709 -0.11280562 -0.057586968 0.11310806 -0.04922531 0.11343827 0.14142726 -0.11009316
-0.048529487 0.1527433 0.11114038 0.014541586 -0.08338231 0.06448501 0.13157451 -0.12558682
-0.008245713 -0.09437861 -0.100343466 0.032131016 0.039776836 0.10792463 -0.026371142 0.06720068
0.14742108 0.18197092 -0.066684775 0.11506869 0.017474988 0.15906243 -0.116398655 -0.086983025
0.05040018 -0.013452241 0.13108213 0.17234525 -0.04248662 -0.09804919 -0.037264243 -0.006383647
-0.11477223 0.108207524 0.1488207 0.17432752 0.059111703 -0.08244431 0.014263413 -0.054102365
-0.1528379 -0.13073261 -0.037779335 -0.08680979 0.067856155 -0.07944326 0.133554 -0.05812576
-0.08133022 -0.11559541 0.034608647 0.13159443 -0.019100867 -0.03171557 0.1441184 0.05480494
-0.023916276 -0.009075402 -0.082999006 -0.046619266 0.07148784 -0.0010013594 0.058629144 -0.03178518
0.10863082 -0.04062144 0.026146179 0.15789558 0.108220994 0.0049214233 0.02360322 0.081614934
-0.09774335 0.027081495 -0.05836107 0.01801486 0.028428966 0.015823942 0.0668493 -0.009925167
0.10902221 0.04124256 -0.008335586 0.0357621 -0.10866747 -0.11756437 -0.003387474 -0.07625937
0.09485845 0.023883613 0.061611 0.116560504 -0.046237234 0.10537208 -0.09195572 -0.06974398
0.005575615 -0.109600574 0.011355486 -0.086619295 0.022150168 0.12198463 -0.0026441403 0.12630032
0.0085593145 -0.025749037 -0.14088593 0.03271839 0.037225466 -0.15570162 -0.12713026 -0.02833852
0.13401176 0.05790664 -0.04650193 -0.022472769 0.09094285 0.042361088 0.13404012 0.16194178
0.057426795 0.11600214 0.050685212 0.055478 0.107896335 0.103919856 -0.09161874 0.14561005
-0.060639065 0.10768228 -0.122060075 0.11185819 0.080634564 0.050668918 -0.008969168 -0.03219521
-0.116876125 -0.0285573 0.11023073 -0.09008891 0.0048964517 -0.049181655 0.17371434 -0.1188993
0.14972697 0.117077686 0.030102877 0.0064781145 0.1294507 0.05977884 -0.110916 0.13864195
0.15141857 0.16301592 -0.060850345 -0.111527205 0.08702847 -0.057243418 -0.04641109 0.0023447203
-0.10574206 0.14005537 -0.03291113 -0.040441886 0.028612765 0.08717771 -0.101103805 0.20104428

lstm.weight_ih_l1 f4 [200, 50]
00000000: 0f1d dcbb 9499 293e a910 8fbd acf8 f13d
00000010: 2410 963d e966 40bc b75b 65bd d9ff eabb
00000020: c354 d13d ee4f dc3c a743 8abd fb0a f4bd
00000030: 51b4 01be c35a 433e 0f22 093e 9ccd f63c
00000040: 76bf bbbd c84e b23d 9796 ccbc 298a f9bd
00000050: 45ec b8bd 7b43 603b 4ed4 ca3d 78c8 7a3d
00000060: bda8 d2bd e5a2 7cbb 9024 07be 2899 853d
00000070: 82fa 6bbc 57fc a23d 4584 68bd 14ed 563c
00000080: 4533 e53d 41f0 843c acf2 503d 3a3e 84bd
00000090: 375b d3bd 49cc 15bc aa1e ac3d b982 76bd
000000a0: 7e6f 18be 1ff2 b4bc 93f4 213d 0210 ce3d
000000b0: 3a85 a2bc 0091 b43d ba39 aebc b9a5 2cbd
000000c0: b56d a0bd eb27 8cbd f172 c6bd f5ad 0ebe
000000d0: 26ad 3abd 7551 f2bb 77df 753d 8e78 2c3e
000000e0: d032 39bd bbbc de3d 2020 d93c 93ec b0bd
000000f0: 1d05 273d ee81 d4bd e582 81bd f2ca d13d
00000100: 9d2e 2bbb 57d2 a2bc f98d 25bd 4807 08bd
00000110: 99e9 aa3d 35a2 b0bd 0ca8 a33d fc4b bc3d
00000120: 9239 1a3d b39d 183d b482 0cbd a383 04be
00000130: 872c a03d ad23 27bd 1023 e1bc a4f7 df3c
00000140: 5fc6 a7bd 4edd 863c 58cd c33d a0a3 d5bc
00000150: 2b5d 263e 6f07 91bc ce5d 863d 7807 0d3d
00000160: 134e 333d 2de6 aaba 3a40 0f3e a8ff 2ebd
00000170: 5b5b a8bd b93a 523d 1fb0 09be da33 953c
00000180: 070d bcbd 8322 08bd 16e9 75bd 3526 f53d
00000190: 4b30 d83c 33c6 913a badc abbb d568 9d3c
000001a0: 8b8a 473c d447 1bbe 3f4c a13d 5401 aabc
000001b0: f244 db3d ff91 843d 60f2 dfbd 26c7 6abc
000001c0: 1aca b73b 4f8d 833d 7bdb e1bc 98a9 2d3d
000001d0: 24b2 5b3d 519d 203d 1087 f2bd 23ad 153c
000001e0: 840c acbd d347 a03a f566 c73b 25ea a6bd
000001f0: 70de c2ba a5c7 e53d 3a83 49bd 06cb 0c3d
00000200: c542 d63d 6169 02be 5b83 843d 6f8f 8fbc
00000210: fe07 b13b 775b bfbd c202 f2bd 6004 dd3c
00000220: a0fd e43d 247d aa3d 2f15 1c3d cf5e 953d
00000230: bf47 29be cb8d e23d 3340 1fbd bd2a 5dbb
00000240: 3405 86bd 44d8 193c 2761 3fbd bc11 a4bd
00000250: 2f64 9fbc 1086 69be 4e1f 8abd db78 f13d
00000260: fb8e 1ebd acee d63d 3ee4 fd3d 39fa b4bd
00000270: c775 f2bd 2dbe 4f3c 7aa8 03bd 8dc4 4abb
00000280: 8b2a bdbd d402 edbd 83dd 76bd 09aa 7a3c
00000290: 4db7 1c3d 8fc3 c7bd eb23 943d 2efc 05bd
000002a0: 3695 893d c6ea 643d 7a50 bc3d 72f0 1cbe
000002b0: a924 03be a392 f33c 2bdc 11be 6207 b8bd
000002c0: 9639 0dbe d5d1 11be 9e95 53bc a778 073d
000002d0: 6ce1 78bd 1c8d 38bd 0d23 cbbd 4227 113e
000002e0: 0bc9 28be 117d ed3c 2c3a e0bd 936c c33d
000002f0: cd74 d6bc e93d d5bd 15f2 4fbd d187 8a3d
00000300: e22b edbc 709c c2bd 29d7 b2bd 4c98 8dbd
00000310: 9e7b 98bc c749 06be 3812 02bc 73ac 0ebe
00000320: 9974 debd 9501 00be 574b 393c 20d5 dd3d
00000330: 2491 a63d ff64 cf3d 2f94 dc3d 4a3e 533b
00000340: b27e 963d a425 83bd 7334 03bd 3a7a b43d
00000350: f84e 143c eb74 053e 4564 1fbd bcf4 b43d
00000360: d594 903c 5706 b5bd 780e e63d a426 483d
00000370: 8c6f 7dbd 1637 393d 9207 12be 31b4 95bd
00000380: e5f7 1f3e 0f78 83bc 5538 fa3d 31aa 4ebd
00000390: 87d1 25bd 7d52 cabb 4edf 043e aba7 eb3d
000003a0: 7eb6 e5bd e5cd 9e3d 2b2a 143e 6741 2cbd
000003b0: b4dc 90bd 8691 bfbd c82e a73d f898 1b3e
000003c0: 0b5e 96bd b61e 083d a1ed c9bd 9e52 21be
000003d0: 204a ae3d d107 5c3c fedc e0bd 2700 323d
000003e0: e9ca 8dbc 70f8 2bbc f17a 17bc aec3 0ebd
000003f0: 94d3 b73c 6fd0 8c3d 42d7 b9bd 31f7 7cbd
-0.0067173312 0.16562492 -0.069855995 0.118150085 0.07327297 -0.011743286 -0.05599567 -0.0071716127
0.10221245 0.026893582 -0.06751185 -0.11916157 -0.12666442 0.19077592 0.13391899 0.030127339
-0.09167378 0.087064326 -0.02497415 -0.12184555 -0.0902944 0.003421991 0.09903775 0.06122634
-0.102860905 -0.003854924 -0.13197541 0.06523353 -0.014402987 0.07958286 -0.056766767 0.013118047
0.111914195 0.016227843 0.05101268 -0.06457181 -0.10320132 -0.009142944 0.08404286 -0.06018326
-0.14886281 -0.022088109 0.039539885 0.10061647 -0.019838918 0.08816719 -0.02126776 -0.042150233
-0.07833425 -0.06843551 -0.09689892 -0.13933547 -0.045575283 -0.0073949643 0.060027566 0.16842863
-0.045214474 0.10875841 0.026504576 -0.08638873 0.04077636 -0.103763446 -0.06323794 0.10243787
-0.0026120313 -0.019875688 -0.0404186 -0.03321007 0.083453365 -0.086246885 0.07991037 0.0919418
0.03765256 0.03725977 -0.034304336 -0.1294084 0.07820993 -0.040805507 -0.02748254 0.027339764
-0.08192133 0.016462948 0.095606506 -0.026078999 0.16246478 -0.01770374 0.065608606 0.03443095
0.04377563 -0.0013038568 0.13989344 -0.04272428 -0.0822055 0.051325534 -0.13446091 0.018213201
-0.09182172 -0.033236038 -0.06003674 0.11970178 0.026390215 0.001112169 -0.0052448185 0.019215027
0.012179027 -0.15164119 0.07875871 -0.020752586 0.1070651 0.06473159 -0.10934901 -0.014329707
0.005608809 0.06423437 -0.027570477 0.042398065 0.053636685 0.03921253 -0.118421674 0.009135517
-0.08400825 0.0012228437 0.0060852715 -0.08150128 -0.0014867317 0.1121972 -0.049197413 0.034373306
0.10461954 -0.12735511 0.064703666 -0.01752445 0.005402564 -0.093436174 -0.11816932 0.026979625
0.11181188 0.0832465 0.03810614 0.07293474 -0.16531275 0.11062201 -0.038879585 -0.0033747398
-0.06543961 0.009389941 -0.04672351 -0.08011195 -0.019456951 -0.22805047 -0.06744252 0.117906295
-0.038710576 0.10494742 0.12397049 -0.08836789 -0.118388705 0.012679619 -0.032143094 -0.0030939907
-0.0923663 -0.11572805 -0.060269844 0.015299329 0.038260747 -0.09754097 0.07233413 -0.0327112
0.06717913 0.05588796 0.09195037 -0.15326098 -0.12806953 0.029733008 -0.14244144 -0.08985783
-0.13791499 -0.14240201 -0.0129140895 0.033074047 -0.060761854 -0.045056447 -0.09918795 0.14175132
-0.16482942 0.0289903 -0.109485954 0.09542193 -0.026178742 -0.10412199 -0.050767977 0.06764186
-0.028951589 -0.09502494 -0.08732445 -0.06913814 -0.018613633 -0.13114081 -0.007938914 -0.13932972
-0.10862083 -0.12500603 0.011309466 0.10831666 0.08133152 0.10126685 0.10770451 0.0032233172
0.07348384 -0.06403664 -0.03203244 0.08812375 0.009052031 0.13032882 -0.038913984 0.08835742
0.017649094 -0.088391 0.112332284 0.048864976 -0.061873958 0.04521855 -0.142607 -0.073097594
0.15621908 -0.01604846 0.12217776 -0.050455276 -0.040483024 -0.006174384 0.12975809 0.115065895
-0.11216448 0.07754115 0.14469211 -0.04205456 -0.07073346 -0.09353928 0.0816322 0.15195072
-0.07342156 0.033232413 -0.09859777 -0.15754172 0.08510232 0.013429598 -0.10979651 0.043457177
-0.01730867 -0.010496244 -0.00924562 -0.034854583 0.022439755 0.06875693 -0.0907426 -0.061759178

lstm.weight_hh_l1 f4 [200, 50]
00000000: 1e0b d8bd d7fd d3bd bf51 92bd e8cc 0cbe
00000010: f80d 91bd 21df 40bd bfa1 ef3c f431 edbd
00000020: da07 01ba a6f7 4e3c 5ef9 d33b 2e02 ffbd
00000030: 3c51 703c 2fc3 d93d be54 83bd 3b4a 8f3d
00000040: 1927 443d 02dd 0ebd e4e7 1bbd 441b e83d
00000050: f55e 60bd dc7b 6a3d f69d f3bc e344 383d
00000060: 36d3 113b 8feb 963a 95ec 0bbb b8eb 123e
00000070: 46e1 cdbc 6b06 453d 34c3 95bd 15c2 0cbe
00000080: a609 073e 3514 09bd 93a5 15be 6e68 a0bd
00000090: 4a65 e7bd df6a 123e 4eb5 b93d 0632 013e
000000a0: a7bb 0e3d d16f 9c3c 3026 63bc 1e92 b4bd
000000b0: cb89 563c be91 353d 6623 a23d 7ac1 0d3e
000000c0: c329 ebbd d09d 393d f4e1 cfbd fa86 c53c
000000d0: 7d8d 113e 5591 babd 25f6 f9bd e325 d13d
000000e0: a9bd 7ebd 1ec7 fc3d b466 ea3d d4c0 af3c
000000f0: 8d89 073e 1b07 d2bd 0037 033e 2da1 a3bd
00000100: e187 a5bd 8b3d 0c3e 3fae aabd 077b ddbd
00000110: c9cc 83bb 2048 15bc f3eb 9a3d 1f98 033e
00000120: 2063 133e 2748 953b 02ec 2abd 6752 10be
00000130: ac00 f03d a8ea 95bd d70f 013e d91b a23d
00000140: bcb8 3f3b daea 2b3c 889c 89bd 35b3 17be
00000150: 3640 563d 42f7 04be 75e7 08be 631c 9f3d
00000160: 4470 0dbe f4f8 153e 7f9c e0bd 8c0f fe3c
00000170: 2dcd e5bd 411e 64bd 2fe8 87bc 9439 c93d
00000180: 985a aebd 437b 6cbd 012f e83c 9850 8b3c
00000190: c04f 893b 8805 983d 5843 1b3e 1c56 09bc
000001a0: 2218 5c3d 716f f13d fa4c f13d 9555 eb3d
000001b0: c9b6 0cbc 95fc e8bb cca1 a6bd de82 953c
000001c0: e39e 043e 80ac b2bd 673c b3bd 9dae 7abd
000001d0: e81b aebd 5ef1 e03d 9ce8 5fbd 838d ddbb
000001e0: 2536 d6bd 687d cdbc b06f a43d a421 cc3d
000001f0: c220 9bbd 22d5 343d 1774 da3d 1246 15be
00000200: 7cb9 42bd dbc8 debd c06b 99bc 1280 dd3c
00000210: c713 51bc 656b 933d 1a8a 053e f067 883c
00000220: 0f77 42bd 1354 de3d b1fc 89bc 7d85 4d3d
00000230: 65c8 90bd 2ee6 f1bd a601 7bbd 6a6a a3bd
00000240: f974 c63d b5ab 24bd 30b7 023e edf6 193d
00000250: 41c1 84bd 41fa 563d c2c2 a5bd fe0a e5bc
00000260: 5128 abbd 0b6c c43d fa60 e43d 89c2 c1bd
00000270: 0707 dc3c 4e23 203d 9e58 42bc 3063 c1bd
00000280: 31f3 08be 5457 a73d d4fd 03be cfb1 cb3d
00000290: b6d9 293c a851 bf3c e3d4 883d 397c 00bc
000002a0: f53b eabd 92be ec3d a5cb 0bbe 6076 a13d
000002b0: 37a4 953c 5468 393d 18ed 8c3d b87f 0dbd
000002c0: 6ffb d83d 96ec b3bd 1294 87bd c6e8 a1bd
000002d0: 0200 e6bd c263 983b fae7 a63d 7955 d9bc
000002e0: 8a94 f93d 8bac b43c 1438 f93c 6bb0 f1bd
000002f0: de73 bbbd b84a ee3d 6b2f 7e3d 664f 663d
00000300: 4797 743d 5048 da3d 2af8 04be 5f30 b7bc
00000310: 9b57 86bc 989b 88bd 1b53 c7bc 0c6b 39bd
00000320: 80df e7bc e10f ebbd 4d14 aa3d 4b4c 903d
00000330: 33b1 09be 954a f3bc a3db f23d f96c 36bd
00000340: cc2d 04bd dd5c b0bd a1b7 03be 80fb 30bd
00000350: 0161 c5bd b584 ed3b 9d8c 503d b725 f2bc
00000360: 4112 713b 084e 88b9 857a 0abe 93f7 07bd
00000370: 3d5e 823d 96d1 043e 4b48 c93d 7a1c 53bd
00000380: be92 13be 4ef8 e5bd 774e e6bd 95bb 383c
00000390: 368e b8bd 4da5 c1bc e7b3 5d3d 4ac5 493c
000003a0: d0a2 153e f8c9 ba3d 4ea9 45bc e834 2a3d
000003b0: a400 e13d 9599 d43d 743a 943d 5768 d1bd
000003c0: 929c d1bc c2f9 f5bd 28f1 f9bd 1305 8a3d
000003d0: 811f fdbd 85ba 0bbe bff1 aebd c7a8 79bd
000003e0: 46f9 c5bd 14fa 973d 0106 1bbc 5d69 f6bc
000003f0: 223f 853d 3e93 a6bc 3452 833d 8709 db3d
-0.105489954 -0.103511505 -0.07144498 -0.1375004 -0.070827425 -0.047087792 0.029251931 -0.115817934
-0.00049221294 0.012632286 0.006468936 -0.124515876 0.014667805 0.106329314 -0.06412648 0.0699658
0.04788885 -0.03487874 -0.038062945 0.113333255 -0.054778058 0.057247028 -0.029738408 0.04498757
0.0022251136 0.0011514294 -0.002135073 0.14347732 -0.025131833 0.048101824 -0.07312623 -0.13745911
0.13187274 -0.033466537 -0.14613943 -0.078324184 -0.11298616 0.1429858 0.09067784 0.12616739
0.034846928 0.019096287 -0.013864085 -0.08816932 0.013094376 0.044328444 0.07916908 0.13843337
-0.11482575 0.045316517 -0.10150519 0.024112213 0.1421413 -0.09109751 -0.122051515 0.102123044
-0.062192593 0.12342666 0.1144537 0.021454252 0.13236065 -0.102552615 0.1281395 -0.07989726
-0.080825575 0.13695352 -0.08334016 -0.10814481 -0.004022215 -0.009111434 0.07564535 0.12850998
0.14393282 0.0045557204 -0.04172898 -0.14093934 0.11718878 -0.07320148 0.12603699 0.07915468
0.0029254397 0.010493005 -0.06719309 -0.14814456 0.05230733 -0.12984946 -0.13369544 0.07769086
-0.13812357 0.1464575 -0.10967349 0.031013273 -0.11220775 -0.055692915 -0.016590206 0.09825435
-0.08513373 -0.05773474 0.028342726 0.017006204 0.004190415 0.0742293 0.15162408 -0.0083823465
0.053733952 0.11788834 0.1178226 0.11490933 -0.008588501 -0.0071101882 -0.08136329 0.018250879
0.12951235 -0.08724308 -0.08751755 -0.06120168 -0.085014164 0.10983537 -0.054665193 -0.0067612543
-0.10459546 -0.025084212 0.08029115 0.09967354 -0.075746074 0.04414857 0.10666674 -0.14577511
-0.047540173 -0.10878154 -0.018728137 0.027038608 -0.012761063 0.07198218 0.13040963 0.016651124
-0.047476824 0.1085588 -0.016844125 0.050176132 -0.07069472 -0.118114814 -0.06128087 -0.07979281
0.096902795 -0.040202815 0.12765193 0.037589002 -0.06482173 0.052484754 -0.08093788 -0.027959343
-0.08357299 0.0959092 0.11151309 -0.09460933 0.02685882 0.03909617 -0.011861948 -0.09442747
-0.1337402 0.081709534 -0.12889796 0.09946024 0.010366848 0.023354366 0.0668123 -0.007842117
-0.11437217 0.11559786 -0.13651903 0.07883906 0.01826678 0.04526551 0.068811595 -0.03454563
0.10594832 -0.087853596 -0.06620039 -0.07905726 -0.1123047 0.004650564 0.08149715 -0.026530014
0.12186535 0.022054931 0.030422248 -0.11801227 -0.09152959 0.11635345 0.06205694 0.056228064
0.05971458 0.10658324 -0.12985292 -0.022361932 -0.016399195 -0.06670302 -0.02433162 -0.045268103
-0.028304815 -0.11477638 0.08304653 0.07045802 -0.13446502 -0.02969865 0.11858299 -0.04453752
-0.032270238 -0.08611462 -0.12863018 -0.0432086 -0.09637643 0.007248486 0.05091535 -0.029559
0.0036784562 -0.0002599808 -0.135233 -0.03319509 0.06365631 0.12970576 0.09828242 -0.05154083
-0.14411446 -0.11229001 -0.11245435 0.011275192 -0.090114996 -0.023638392 0.054126646 0.012315104
0.1461289 0.09120554 -0.012064291 0.04155436 0.1098645 0.10380856 0.072377115 -0.10224979
-0.025587354 -0.12010528 -0.122042 0.06739249 -0.123595245 -0.1364537 -0.08542203 -0.060951974
-0.09666686 0.074207455 -0.009461881 -0.030079538 0.06506182 -0.020333882 0.064121634 0.106951766

lstm.bias_ih_l1 f4 [200]
00000000: 0a97 df3d 62cd febd 751b b73c 22ce 4b3d
00000010: 73ac c73c 0ca4 3dbd 786b 99bd 7a34 6a3d
00000020: b847 753b 0c3d 053e 8a4c 84bd f816 1d3d
00000030: 676b c0bd 93ed d9bd 9e68 e9bc a5e0 8c3c
00000040: 561f 8a3d 2839 163e bf22 a8bd 9620 adbd
00000050: 3396 1ebd 828b a23d a54a c73c 4e5e 003e
00000060: 32cb 823a 515a 1bbe 0d70 09be 61e5 35bc
00000070: 30e8 8e3c 459b aebd c841 9ebd 8d89 c4bd
00000080: dea7 983d b814 6dbd 19f7 5dbd b1da 323d
00000090: d7db f83d 246e efbc ef19 86bb e0b8 d7bd
000000a0: 760c 68bd c9b0 02be 07d9 b5bd c0c0 6b3d
000000b0: 06a0 d63c bdb4 f6ba 3e46 9cbd 804d 83bc
000000c0: d3f1 82bd a1f8 0dbe 64be 673c d3e0 41bc
000000d0: 5c47 553d d4c1 d6bd ffd2 31bd 2a5a e8bb
000000e0: 44cf de3d a61d 62bd c9fa 813c fe24 c7bd
000000f0: be83 113e 34be 88bd d19b ffbd 3f6b 6c3d
00000100: d31a 16be 7b3f a53d 0414 b53d 8051 ecbd
00000110: 6421 e7bc d388 ebbc c960 8cbd 95fe 083e
00000120: 3777 a03b 3b4a dabd 8db9 10bc fa80 b1bd
00000130: 3d7e d6bd f9fb bdbd eeac bcbd 1d73 debc
00000140: f051 99bd 6364 a6bb 7d4b a3bd 2f9c 883d
00000150: 3cb9 f7bd cde3 0d3e bd1c c8b8 af43 f03d
00000160: 9cac 9bbc 7eef 0c3d 0383 93bd 1a96 bb3d
00000170: 0c02 d23d d123 1c3d 68a9 873d 7ba6 7e3d
00000180: 0cdf e9bd be0c e9bd b13d 043e 777e d2bd
00000190: 46ca 253d 7ccc 4abb d93d 6e3c 798f ddbd
000001a0: 6587 a13d f17b 63bc e31f dd3d fac0 c6bd
000001b0: 9cbd d83d bbb3 a83d 3b5c df3d 39aa bc3c
000001c0: adfe 633c 10d6 f5bd 5a01 ec3d 296c d2bd
000001d0: 28b1 4ebd 8985 a23d 75c3 f73c b5ae 733d
000001e0: 4e2d 33bd 945f b1bc 90da 883c e8a5 91bd
000001f0: 35ef 273c 25c5 4c3d a1f6 d2bd 2840 f33d
00000200: 882c 8abd e963 8ebd d1c7 abbd d2bf 53bd
00000210: 99dd 36bd 29f5 c73d 6451 c23d c4ff 763b
00000220: a8f9 92bd 925a ed3c abb7 6abd bd67 81bd
00000230: b1b8 5d3d 061b 90bd e445 153e f33e 11be
00000240: b1b3 f6bc 7682 b3bc ea0a 4cbc 69e8 97bd
00000250: 75a1 de3c dd20 cebd 0c1d a1ba 6ca9 e8bc
00000260: 9154 e2bc 61e1 063e fef6 f63b 332b 1fbc
00000270: a8a6 aa3c 7ed3 50bd a3a8 fa3d f67b 233a
00000280: db10 74bd 73ab 223d 758e 85bd da13 17bd
00000290: a4d6 e63d 6bd3 3dbd aaf6 82bd e3df 043e
000002a0: 86a0 1a3d 4dd5 f1bd 8486 bdbc 58fe da3d
000002b0: 842c 1b3a 5d90 0b3e 08ed 83bd 87b8 f73d
000002c0: 3c06 bf3c 2cfe 1bbd f05d 1e3e 4bb9 9bbd
000002d0: a716 a13d dcdc a3bd b55d 703d 8473 afbc
000002e0: 5368 8cbd 863e b8bd 6dc7 bd3d 17dd 933d
000002f0: 1ee2 7fbd 42b8 aebc 8fa1 bb3d ade4 46bd
00000300: fd7c 86bd b649 45bd 284e 3c3d 6661 5c3d
00000310: 3790 153e d465 913d d524 5fbd e1de e73d
0.1091748 -0.124415174 0.02235196 0.04975713 0.024374222 -0.046299025 -0.07491201 0.05717895
0.003742678 0.13011569 -0.06459911 0.038351983 -0.09395485 -0.10641017 -0.028492268 0.017196963
0.06744258 0.14670241 -0.08209752 -0.08453481 -0.03871746 0.07936765 0.024327585 0.12535974
0.000997877 -0.15171172 -0.1342165 -0.0111020515 0.0174447 -0.08525709 -0.077273905 -0.09596548
0.07453893 -0.057881087 -0.05419073 0.04366559 0.12151306 -0.029227324 -0.004092447 -0.10533309
-0.05665251 -0.1276275 -0.08879285 0.057556868 0.026199352 -0.0018822175 -0.07630585 -0.016028166
-0.063937806 -0.13864376 0.014144514 -0.011833387 0.052070007 -0.104861885 -0.043414112 -0.0070908265
0.108793765 -0.055204056 0.015866654 -0.097238526 0.14210412 -0.06676903 -0.124808915 0.057719465
-0.1465867 0.080687486 0.08841708 -0.115389824 -0.028214164 -0.028751766 -0.06854398 0.13378365
0.004897024 -0.106586896 -0.008833301 -0.086671785 -0.10473297 -0.092765756 -0.09212671 -0.0271545
-0.074863315 -0.005077885 -0.079733826 0.06670415 -0.120958775 0.1385643 -9.542096e-05 0.117316596
-0.019003205 0.034408085 -0.07202723 0.09159489 0.10254297 0.038120095 0.066241086 0.062170487
-0.11419496 -0.113793835 0.12914158 -0.102780275 0.040476106 -0.0030944636 0.014541113 -0.10818381
0.078871526 -0.01388453 0.107970975 -0.09704776 0.1058304 0.08237406 0.109062634 0.023030387
0.0139157 -0.1200372 0.11523695 -0.10274536 -0.050461918 0.07935626 0.030244568 0.059492785
-0.043744378 -0.02165202 0.016705781 -0.07111722 0.0102499025 0.0499927 -0.10300947 0.11877471
-0.06746775 -0.0695265 -0.08387721 -0.051696606 -0.044644926 0.097635575 0.0948818 0.003768907
-0.071765244 0.028973851 -0.057304066 -0.06318615 0.054131214 -0.07036404 0.14577442 -0.1418417
-0.03011498 -0.021912795 -0.012453774 -0.074173756 0.027176598 -0.10064862 -0.0012291982 -0.0284011
-0.027628215 0.13171913 0.007536768 -0.009714889 0.020831421 -0.050982945 0.12239196 0.0006236428
-0.059586387 0.039714288 -0.06521312 -0.036884166 0.11271408 -0.046344202 -0.06394704 0.12976031
0.037750743 -0.11808262 -0.023135431 0.106930435 0.0005919414 0.13629289 -0.064416945 0.12095743
0.023318402 -0.038084194 0.15465522 -0.07603701 0.07865649 -0.0800111 0.058683116 -0.021417387
-0.06855836 -0.089963004 0.09266553 0.07219904 -0.0624715 -0.021328095 0.09161674 -0.048557926
-0.065668084 -0.048166 0.045972973 0.053803824 0.14605795 0.070995 -0.054478485 0.11321808

lstm.bias_hh_l1 f4 [200]
00000000: 5186 0ebd 5da8 82bc 0975 903d c340 93bd
00000010: 9677 cabc 9db0 1bbd 3381 46bd 39ae 9cbd
00000020: f633 ea3c 6fbd 4a3d b3e3 80bd df1f 893d
00000030: a197 6fbb ab4f 283d 9431 3b3d f35d 0d3e
00000040: d403 f93d dc1f b63c ce8c 6bbd a79a 2f3c
00000050: 9e28 ddbd 99bd 193d 2f88 a93d c25b a93d
00000060: 7e47 883d 5570 053d 533e 09bd e645 f03d
00000070: 88a2 a53d d600 93bd bb6b 593d e772 973d
00000080: 76f6 043e 600e 753d 5f1e 593d bd66 21bd
00000090: a278 f63d 81c1 a0bc 7ede 6ebd 8861 0f3e
000000a0: 6c97 9a3d 69b6 fe3d 705f 1a3d 7301 213e
000000b0: f0a3 633d 8be7 ccbc 3187 babc 8cd0 fb3d
000000c0: d394 e8bd 7f7b 99bc 979f 863d df36 e5bc
000000d0: fce3 913d b0a8 d1bd e7b5 ebbd 3795 39bd
000000e0: eb65 43bd 7583 7ebd df02 383d dd64 39bd
000000f0: 5811 cabb bea6 1abe 90c4 bd3d 26b1 1b3d
00000100: c30f b73d b787 acbd ad94 6a3d f47e 59bd
00000110: 3bff 1bbd 769f 8f3d b9bd a13c d351 06be
00000120: 05c5 603c 1bc5 163e d526 943d 1b6e 21bd
00000130: 7180 a2bc 4ddc e23d b91f ccbc b393 d73d
00000140: ded7 183e 6d8c a3bd bc68 16bd 05f3 cb3d
00000150: 82cb ebbd 1a74 a2bd 30c0 ffbc 1576 ab3d
00000160: a20b dc3d f63f 313d 7172 36bd 5438 a8bd
00000170: 58a1 c63d 0862 88bd bc7e c6bd 7f29 0d3e
00000180: 5a73 153d 76f3 6f3c 86f2 b0bd e5ca f83d
00000190: d988 263c 0f2b 213d 2eaa 5abd e340 f63d
000001a0: 95ce 873d 85ea 933d 8baf 2fbd e1f6 99bc
000001b0: 709e 9f3d d117 8e3d c483 063e 4919 683c
000001c0: 4a24 003d f53a 85ba b047 843d 9801 873c
000001d0: d62c ccbd c59d debd 54e6 243d 5cae 0c3e
000001e0: 27f7 d93d 5821 abbd e014 a63c 4c48 87bd
000001f0: 98e5 1c3e 51be 333c bdd2 373d e41e 15be
00000200: 25de 553d 8083 30bd 9ffc 16be 73bc 14be
00000210: 09b2 dabd cd18 c93d c670 9d3d 1a0b 803d
00000220: ba2a c5bd 039f bbbd c05b d73d beee bb3d
00000230: a572 04bd 1d76 42bd 05e6 bebc 01ae f33d
00000240: a38d b03d dc3a ad3d a7f4 ce3d 497a 83bd
00000250: ab59 09be 3bc2 3bbc 84d5 aabd 0186 003e
00000260: db3e 053d 802f 1ebd 787b a3bd 7f3d d2bd
00000270: 2e83 a3bd 3cd2 f1bb b2d7 67bd b64c babd
00000280: be32 90bd 8a62 cc3d 86c6 cd3d 3640 c63d
00000290: e959 05be 5cdd c13d db6b 653c 51eb 013e
000002a0: de82 55bd 438d 0abe a8d4 393c 999e 91bd
000002b0: 3c27 1f3d a415 f6bc 1f9d e4bc ffcd c73d
000002c0: 79b6 4ebd 0ae4 ce3d 2fb3 2fbd 99cc fdbd
000002d0: d3d4 933d b231 55bc 3afd 68bb a151 9cbd
000002e0: 54fa f23d 5614 843d e162 d93d bdd8 91bd
000002f0: eac2 a9bd 5db5 d83d 9142 e5bd 7965 0e3d
00000300: e1a4 703c f490 f03d 767c ec3b 0823 85bd
00000310: 0683 febc 56b3 1e3e e7e2 37bd 7c74 a1bc
-0.034796063 -0.015949422 0.07053573 -0.07190087 -0.024715226 -0.03801023 -0.048463058 -0.07650418
0.02858923 0.049497064 -0.0629343 0.06695532 -0.0036558884 0.041091602 0.04570158 0.1380537
0.12158933 0.022231989 -0.05750733 0.010718024 -0.10798763 0.03753433 0.08277928 0.082694545
0.06654261 0.03257783 -0.033506703 0.11732082 0.08087641 -0.07177894 0.053081255 0.07394963
0.12984642 0.059828162 0.05300748 -0.03940462 0.12034728 -0.01962352 -0.058317654 0.14002049
0.07548413 0.12437136 0.037688673 0.15723209 0.055576265 -0.025012752 -0.022769542 0.122956365
-0.11356511 -0.018735645 0.06573408 -0.027980266 0.07123563 -0.10237253 -0.115093045 -0.045308318
-0.04770462 -0.062137086 0.044924613 -0.045262206 -0.0061666183 -0.1510267 0.09266007 0.03801074
0.08938553 -0.08424323 0.057270695 -0.053099588 -0.038085204 0.07012837 0.019743787 -0.13117151
0.013718848 0.14723627 0.07233969 -0.039411645 -0.019836636 0.11077175 -0.02491747 0.10526218
0.14926097 -0.079857685 -0.036720976 0.09958462 -0.115134254 -0.07932301 -0.031219572 0.08372132
0.10744406 0.04327389 -0.044542734 -0.08213869 0.09698743 -0.06659323 -0.096921414 0.13785361
0.03648696 0.014645448 -0.08640008 0.12148074 0.010164463 0.039347704 -0.053384952 0.12024095
0.06631199 0.072224654 -0.04289202 -0.018794479 0.077938914 0.06938136 0.13136202 0.014166185
0.031284608 -0.0010164665 0.06458986 0.016480252 -0.09969489 -0.10869936 0.04025872 0.13738388
0.10642844 -0.08355969 0.020273626 -0.066055864 0.15321958 0.010970668 0.04487871 -0.14562565
0.052213807 -0.04309416 -0.14744805 -0.14525013 -0.10678489 0.098191835 0.076875255 0.062521175
-0.0962729 -0.091611885 0.10515547 0.09176396 -0.032335896 -0.047475923 -0.023303041 0.11898423
0.08620765 0.08458492 0.101052575 -0.064198084 -0.13413112 -0.011459882 -0.08341506 0.12551118
0.032530647 -0.03861952 -0.07982534 -0.10265636 -0.07984005 -0.007379798 -0.056602187 -0.09096663
-0.07040928 0.09979732 0.10047631 0.09680216 -0.13022579 0.09466049 0.0140027655 0.12687422
-0.052126758 -0.1353045 0.011342205 -0.07110328 0.038855776 -0.030039616 -0.027906952 0.097560875
-0.05046699 0.10102089 -0.042895492 -0.123925395 0.072183274 -0.013012337 -0.0035551325 -0.07632757
0.118641526 0.06449191 0.10614563 -0.07121418 -0.0828913 0.10581467 -0.11194337 0.03476474
0.014687748 0.117463976 0.0072169853 -0.06500822 -0.031068336 0.15498099 -0.044894125 -0.019708864

fc.weight f4 [1, 50]
00000000: 7f37 ed3d 4d40 86bc 2e5c 013e dbc0 a5bd
00000010: 7ba7 cebd 3274 fabc f44c 093e 84d7 f43d
00000020: a3fc 6d3c 942e 763c 578e 483d 1ba6 ccbc
00000030: 89c2 b73d a368 073e 0ba6 d3bd 54fe f83d
00000040: cf3e ffbd ed47 e33d f953 a93d 8e85 b73c
00000050: d491 84bd 48c6 4e3c 8cd0 1f3e 6a2a cfbd
00000060: 755f 003c 9774 53bd 66dd fc3d e860 a5bc
00000070: 5fd4 14be 2afd fb3d 8ccb 1dbe 9f98 5abd
00000080: 52d4 01be f37b 8dbd 3486 223e a60e ff3d
00000090: 5c79 33bd b46f a43d db9f c5bc 855f bd3d
000000a0: bd43 ec3d 9754 2b3d cbe8 bd3d f21a 01be
000000b0: 1f7a 9abb 6150 bc3d 18a8 033d 981f 14be
000000c0: 6d7e 11be f964 e13d
0.11582851 -0.016388083 0.1263282 -0.08093425 -0.10090538 -0.030572984 0.13408262 0.11955169
0.014525565 0.0150257535 0.04896387 -0.024981549 0.089726515 0.1322351 -0.103344046 0.12157884
-0.12463152 0.11097703 0.0826797 0.022402551 -0.06473127 0.012620516 0.15606898 -0.10115512
0.007835259 -0.05162486 0.12346916 -0.02018781 -0.14534138 0.123041466 -0.15409678 -0.053368207
-0.1267865 -0.06908407 0.15871507 0.12453966 -0.04381691 0.08029118 -0.024124077 0.092467345
0.115363576 0.041828718 0.09272917 -0.12607935 -0.004714265 0.091950186 0.03214273 -0.14465177
-0.14208384 0.11005587
