models/lstm_stock_model.pth (torch, 128213 bytes, 9 tensors)

lstm.weight_ih_l0 f4 [200, 1]
000000 4e e9 03 3e 71 74 2d 3e b7 5d 46 3e 57 a9 2e 3e
       0.12881967 0.1693895 0.19371687 0.17056786
000010 3b 20 ec 3c 33 19 10 3b d1 da 58 3d a0 4a d4 3c
       0.028823962 0.0021987676 0.052943055 0.02591449
000020 99 72 4b bd ca 85 28 3e 0c 68 4a bd c8 0b 87 3c
       -0.049669836 0.16457286 -0.049415633 0.01648511
000030 8d 1b 3e 3e e1 d0 88 3c 74 cf 4a 3e 5f 06 51 bc
       0.18565197 0.016701164 0.198057 -0.012757867
000040 7b 00 22 3e 6f 14 03 bd e3 a1 90 bd 7a 00 94 3c
       0.15820496 -0.03200191 -0.070621274 0.018066633
000050 7d d4 63 3d 67 ac 16 3e 4b 3c de bd 66 98 01 3e
       0.055622566 0.14714204 -0.10851344 0.12655792
000060 08 41 d3 bd 09 cc e3 3d 87 38 48 bd 54 2d ef ba
       -0.10315138 0.11122901 -0.048882034 -0.0018247762
000070 a4 b2 21 3c 5b af b7 3d 61 70 a9 bd cd 6d 31 3e
       0.009869251 0.08968993 -0.08273388 0.17327042
000080 71 11 d9 3c ae 5e aa 3b 75 cd 59 3e 65 c6 f8 3d
       0.026497575 0.005199275 0.21269782 0.12147216
000090 96 ee 23 3d f2 1e f6 3d a5 34 dd bb 7a e7 74 3c
       0.040022455 0.12017621 -0.0067506605 0.014947766
0000a0 a9 a8 34 3e 8e db 56 3d c6 27 de bc b0 69 bb bc
       0.17642464 0.052455477 -0.027118575 -0.022877544
0000b0 72 83 ad 3c dd f1 1a bd c9 b7 a3 3d e8 ef 46 3e
       0.021180842 -0.037828315 0.079940386 0.19427454
0000c0 eb a2 30 bc d7 63 eb 3d 01 40 43 3e 05 82 37 bb
       -0.01078103 0.11493652 0.19067384 -0.0028001082
0000d0 61 e0 19 3e 77 7c cd 3d b6 d4 7c 3c 1d e1 9c 3d
       0.15027 0.100335054 0.015431574 0.076601245
0000e0 ae bf 0e bd db cc 84 bd 8a 25 2a 3e d1 2d 4c 3e
       -0.03485077 -0.064843856 0.16615883 0.19939353
0000f0 e5 dc 3d bd d9 7e b4 3d f5 50 86 bb 38 b8 2b bc
       -0.04635324 0.08813257 -0.0040990063 -0.010480933
000100 17 2c 62 bd 1f 69 ae 3c 8a 75 78 3c 3b 38 0e 3d
       -0.05521783 0.02129036 0.015164742 0.034721594
000110 d7 54 5f bd 52 b3 e4 3d 88 db 3a bd fb 4c 31 3d
       -0.05452427 0.11167015 -0.045619518 0.043286305
000120 9d 58 28 3c 9f ab 09 3d f4 35 ff 3d 47 41 95 bc
       0.010275033 0.033610936 0.124614626 -0.018219603
000130 46 66 c5 3d 70 ba 1b 3e d9 e2 80 3d ab c3 0e be
       0.09638648 0.15207839 0.06293268 -0.13941829
000140 8d 6a 71 bc 39 20 2b 3e 35 b3 8f 3c 66 ff 18 bd
       -0.014734876 0.1671151 0.017541507 -0.037352942
000150 c9 e9 b1 3c 9b 85 8b 3b 8e de bd 3d b0 50 fe bb
       0.021717923 0.0042578704 0.092709646 -0.0077610835
000160 d8 37 7b bd 76 ac 28 3e 2b ec 4d 3d 1a 1f 8c bb
       -0.061332554 0.16472039 0.050274055 -0.0042761685
000170 d1 06 fd bd 38 f6 e6 bd 40 60 4a 3d ef 1c 1c 3e
       -0.12354816 -0.11277431 0.049408197 0.15245412
000180 20 1f a4 3d 28 50 44 bd 0d 2d 91 bd 77 43 db 3c
       0.08013749 -0.047928005 -0.07088671 0.026765568
000190 a1 87 53 3e ef 24 4d 3d a1 2b 84 3d ab cb 82 3d
       0.20657207 0.05008405 0.06453634 0.06386503
0001a0 31 af 0b 3e f6 8e 9e 3c be e7 1f 3d f2 c3 5d bd
       0.13641049 0.019355278 0.039039366 -0.054141946
0001b0 25 85 57 bd 94 ba d1 3d e7 d4 bb bd d5 12 5b be
       -0.05261721 0.10240665 -0.09171467 -0.21393903
0001c0 45 a2 cf 3d ae a1 8d bd df bb e6 3d 5b e5 29 be
       0.10138372 -0.069156036 0.11266302 -0.16591398
0001d0 4e 2b 24 3d 66 9d 13 be 2b 58 f3 bd 95 bf 48 3e
       0.04008036 -0.14415511 -0.11882051 0.19604333
0001e0 9c 51 a8 3d c5 37 1e be 59 0d d2 3d c4 a6 27 be
       0.08218691 -0.15450962 0.10256452 -0.1637221
0001f0 eb 0b 0b be a3 4c 7b 3d 5c c8 c4 bc 83 7f 65 bd
       -0.13578765 0.061352383 -0.02402132 -0.056029808
000200 fb ee 30 3e 73 27 61 bd b5 cd e8 3d 4b 51 37 be
       0.17278664 -0.054969262 0.113673605 -0.17902105
000210 2a 9d 32 3e 1f db 01 bd 9e 22 38 3e 2a f1 34 3e
       0.17442766 -0.03170311 0.17981955 0.17670122
000220 c7 75 fe bd 8a 8b 52 bd 3d ef 32 be 26 f8 14 3e
       -0.12424808 -0.051402606 -0.17474075 0.14547786
000230 07 3e 88 3d d7 4d 19 3e e6 09 3f 3e fd 38 f0 3d
       0.06652456 0.149711 0.1865612 0.1172962
000240 e8 2c 2e 3e 5f b7 10 be 9d f6 de 3d 65 e4 97 3d
       0.17009318 -0.1413245 0.108868815 0.0741661
000250 68 ab e0 3d de f6 66 3c ef 2a 16 3d aa 3d 59 3e
       0.10970193 0.014096944 0.03666204 0.21214929
000260 3c a0 85 bd 4a 64 c7 3c 7b f1 c9 3d 92 59 97 bd
       -0.06524703 0.024339814 0.09860512 -0.07390131
000270 71 fd ca 3c 20 00 29 bd a7 58 ce 3c 07 cf 32 3e
       0.024779053 -0.041259885 0.025188757 0.17461787
000280 a4 1c b3 3d 4f 8a 34 bd 02 51 1d 3e 16 42 d0 3d
       0.08745697 -0.044077214 0.15362933 0.10168855
000290 ff 3a c5 3c 64 70 da 3c e1 95 b8 3d d8 04 1f 3e
       0.024075983 0.02666492 0.09012962 0.15529191
0002a0 89 2a 92 bd 73 5f 9a 3d ae b2 67 bd 1a b9 ef 3d
       -0.07137019 0.07537737 -0.056566887 0.11705227
0002b0 76 5d ac bd 87 d5 2a 3e 3d 66 ca bd 50 f1 c2 bd
       -0.08416264 0.16683017 -0.09882782 -0.09518683
0002c0 8f 3b e7 bd 35 d2 7b 3d 77 5c 18 3e 18 fc d7 bd
       -0.11290657 0.061479766 0.14879023 -0.1054613
0002d0 2b 14 6c 3b 7b 22 ed 3d fe 2d 43 3e a9 09 a5 3c
       0.0036022763 0.11578842 0.19060513 0.020146208
0002e0 1c 4c a6 bc d6 4f e2 3d 07 0f 57 bd 90 6b 6c bc
       -0.020299964 0.11050384 -0.052504566 -0.014429942
0002f0 d0 98 d7 3d ea c9 3f 3e 25 c3 0b 3d 22 c8 02 3e
       0.105271935 0.18729368 0.03412165 0.12771657
000300 1a a4 6a bd cc 4d ff bd 41 e4 09 3e 84 0c 9e 3d
       -0.057285406 -0.124660105 0.13465978 0.07717231
000310 28 e8 18 3e 70 f2 3a 3e 6a af 32 be 0f 0b 08 3e
       0.1493231 0.18256545 -0.17449728 0.13285469

lstm.weight_hh_l0 f4 [200, 50]
000000 f4 1d 0f bd 9b ed 02 3e 32 af f9 bc 74 98 11 3e
       -0.034940675 0.12785952 -0.030479047 0.14218313
000010 e2 06 8c 3d 8a d1 a0 3c 09 07 0b 3c be a5 71 bc
       0.0683725 0.019631166 0.008485564 -0.014748989
000020 14 0a 51 bd 15 99 7d 3c 2d be a8 3c 79 0a 59 3c
       -0.051035002 0.015478392 0.020598495 0.013247126
000030 2a 86 13 3e 15 27 44 be 68 8a a9 3d 3d c9 0d be
       0.14406648 -0.19155534 0.08278352 -0.13846298
000040 e9 16 d5 3c 83 85 fd bc a1 10 15 be f1 8d 30 3e
       0.026011901 -0.030947452 -0.14557125 0.17241646
000050 fc 98 8d bd 73 ff b4 3d 76 fa f7 3d 0c 5f 7e 3d
       -0.06913945 0.088377856 0.121083185 0.062102363
000060 bf 9e af bd ae 33 49 3d 35 79 3f be 4b c0 2f 3e
       -0.085752 0.04912155 -0.1869858 0.17163198
000070 df 0d 14 3e 58 1b fc 3d 0e 84 d6 3d 6d 45 30 be
       0.14458416 0.12309903 0.10474406 -0.17213984
000080 fc b2 d5 bc a9 5d 94 bd 17 57 9c 3d 2f 0e 41 bd
       -0.026086323 -0.07244427 0.076337986 -0.047132667
000090 0c 6e 81 bd db 51 1d be f6 b1 d9 bd 3e a0 ed 3b
       -0.06319818 -0.15363257 -0.106296465 0.0072517684
0000a0 4b 53 f2 3d 89 b9 01 3e 44 3e 8b bd 55 c4 78 bd
       0.11832293 0.12668432 -0.067989856 -0.06073411
0000b0 29 dd 16 3e 57 8e be bc 43 a9 17 3e 6c ac 03 3e
       0.14732803 -0.023261232 0.14810662 0.12858742
0000c0 d2 11 91 bd d2 89 38 be a2 c5 82 bd d2 89 07 bd
       -0.07083477 -0.18021324 -0.06385352 -0.03309042
0000d0 9b 3c d3 bd 29 25 2f 3d 96 6f 1b 3e ee 5d 51 3d
       -0.10314294 0.042760048 0.15179285 0.05111497
0000e0 a5 10 91 bd 82 ca be bd c9 ba 99 bd dc 75 ce bd
       -0.07083253 -0.09315969 -0.075063296 -0.10081074
0000f0 68 fc 30 be 80 b6 d8 bd 31 97 40 bd 46 fa 65 3c
       -0.17283785 -0.10581684 -0.047019187 0.014036721
000100 8b 49 00 be f8 8c 1b be e6 56 af 3b a8 2a 06 be
       -0.12528054 -0.15190494 0.0053509353 -0.1310221
000110 29 71 cb 3d 71 79 90 3d 20 f8 42 3d 63 48 58 be
       0.09933693 0.07054413 0.04759991 -0.21121363
000120 30 eb 32 3d cd b7 12 be 32 8e 02 be 08 91 3e 3d
       0.043681324 -0.14327927 -0.12749556 0.04652503
000130 1d 3f b2 bc 7f 1e be bd 66 9f 19 3c 3b 7c fb bd
       -0.02175861 -0.092831604 0.009376382 -0.122795545
000140 60 3d ff 3d 44 2f bb 3d 95 a1 b5 3c af 90 4f 3d
       0.12462878 0.091398746 0.022171775 0.05067509
000150 5c 0b 33 bd d9 46 1e 3d 64 c9 4c 3b d2 e2 2e be
       -0.043712005 0.038641784 0.0031247968 -0.17078713
000160 9f 6f 49 3d 15 bd da 3d 11 1e 9a bd 21 9c 1c 3b
       0.049178716 0.10680596 -0.07525266 0.002389677
000170 71 16 5c 3e bb 2c 45 3c c2 e5 fc bc 97 04 26 be
       0.21492936 0.01203459 -0.030871276 -0.16212688
000180 30 9c 29 bc f1 4e 3d 3e 69 42 0b 3e 9f 00 65 bd
       -0.010352179 0.18487145 0.13599552 -0.055908795
000190 d6 ca f1 3d be 32 45 bd 68 57 95 3c db 38 14 3e
       0.11806266 -0.048144095 0.018230155 0.14474814
0001a0 1e c6 d3 bd 85 76 08 be d6 8a 48 3d e5 09 07 be
       -0.10340522 -0.13326462 0.04896053 -0.13187368
0001b0 ec 0d 06 3e b8 2f 46 bd b4 8c 9a bd 99 8d 22 be
       0.13091248 -0.048385352 -0.07546368 -0.15874328
0001c0 97 8b cb 3d 4d de 25 3c d3 52 00 bc dc f0 14 be
       0.09938734 0.010123801 -0.007832247 -0.14545006
0001d0 a5 c4 04 3e d5 ed b8 3b 71 41 0f bd 58 8c 9e bc
       0.12965639 0.005643586 -0.03497452 -0.01935403
0001e0 77 d1 d7 3d b6 77 c6 bd 35 f3 46 bc fe 60 63 3d
       0.10537999 -0.09690802 -0.012142946 0.05551242
0001f0 31 3b 05 be c2 23 ff bc 2a 09 96 3d 49 fa c1 bd
       -0.13010861 -0.03114498 0.07325967 -0.09471566
000200 26 1f fb 3c 3a a9 02 3e 82 cc 74 bd 98 84 03 bd
       0.030654501 0.12759867 -0.059765346 -0.032108873
000210 53 52 66 3d ad 0d cb 3d a7 d4 c8 3d 1a ca cf 3d
       0.056230854 0.09914718 0.09806185 0.1014597
000220 2c 42 0c be 0c 39 18 3d e6 f7 4d 3d 7f 20 36 3d
       -0.13697118 0.03716378 0.050285242 0.044464584
000230 32 55 f0 3d 49 19 16 3e b0 2c fc bc 31 37 20 3d
       0.11735 0.14658083 -0.030783027 0.039115135
000240 f6 8f 7a 3d 9e f5 d0 bd 85 0b fa bd b8 f8 e5 bb
       0.061172448 -0.10203098 -0.122092284 -0.007018175
000250 75 c4 b9 3d f9 26 76 bd 62 5c 03 3e b6 40 a2 3d
       0.09070674 -0.06009576 0.1282821 0.07922499
000260 47 51 9f bd c1 f4 16 3d 9e c0 16 3e 2f 63 50 3d
       -0.07779174 0.03685451 0.14721915 0.05087584
000270 06 bd 67 bd 29 49 24 bd 9d 1d 09 3e fd 0a cd bd
       -0.05657675 -0.040108833 0.13390203 -0.100118615
000280 c8 60 41 3d 69 ce c1 3d b9 9b b5 bd f7 a1 e8 3d
       0.04721144 0.09463198 -0.08867592 0.11359017
000290 75 91 50 3c 52 e8 59 3d a0 2e be 3d 9a da ec bd
       0.012729992 0.053200074 0.09286237 -0.115651324
0002a0 09 25 07 be f6 45 9a bd 02 9a ce bd 4a e4 7d bd
       -0.13197722 -0.07532875 -0.100879684 -0.06198529
0002b0 b8 88 61 3c 17 9d d0 bd 48 5c aa 3d a9 07 bf 3d
       0.013765506 -0.101862125 0.083183825 0.09327633
0002c0 f5 c0 e3 3d ba 98 0d b9 97 78 42 3e aa 94 2c bd
       0.11120788 -0.00013503703 0.18991314 -0.042133965
0002d0 38 89 b4 3d 3e d5 3f bd 5c 6f c2 3c 3d 85 ba bd
       0.08815235 -0.046834223 0.02373474 -0.091074444
0002e0 b4 4c be 3b 9a 18 84 bb 3e 44 c2 3d 06 65 85 3d
       0.0058074836 -0.004031253 0.094856724 0.06513409
0002f0 a9 5f bc 3d fd 50 02 3d 05 5d 14 bd b6 ca 85 3d
       0.09197933 0.031815518 -0.036221523 0.06532805
000300 08 cc a5 3d f3 70 8b 3d 28 da 14 3e 15 a2 a6 bd
       0.080955565 0.06808653 0.14536345 -0.081363834
000310 f3 75 d5 3c d1 70 48 bd 21 42 e0 bd 0e d2 a7 bc
       0.02605722 -0.048935715 -0.10950113 -0.020485904
000320 85 de 9c bd 6d 0c 5b bd b0 06 a0 bd cb 9a 89 3d
       -0.0765963 -0.053478647 -0.078137755 0.067189775
000330 79 4e 51 b8 9f 8d 5b bc c0 2e e7 3d 02 49 21 bd
       -4.9902566e-05 -0.013400464 0.11288214 -0.039376266
000340 dd ac bd 3d 43 0d e2 bb 73 4b b6 bc f2 5b 8e 3d
       0.09261487 -0.0068985536 -0.022252774 0.06951131
000350 dc bf 47 3d e1 9a cc bb 54 c8 01 3e 63 f5 52 bd
       0.048766956 -0.006244049 0.12674075 -0.05150355
000360 ac be f5 3d 66 90 a9 3d f3 b0 2a be 93 81 56 3d
       0.119992584 0.08279495 -0.16669063 0.052369665
000370 7f eb e1 bc 23 dc da 3c 80 5d 8c bc 8e 39 bd bd
       -0.027578114 0.026716297 -0.017134428 -0.09239493
000380 79 f1 25 3e 75 d3 d5 3d ab e5 8d bd a8 02 a9 3d
       0.16205396 0.10440723 -0.06928571 0.0825246
000390 2b 0f 73 3d 6a e1 c4 bd 9d 64 6e 3d 84 10 99 bd
       0.059340637 -0.09613307 0.05820142 -0.07473853
0003a0 3b 3a 8c 3b 52 45 7c 3c d8 6f fb 3b f3 14 d5 bd
       0.0042794026 0.015397387 0.007673245 -0.10404386
0003b0 10 77 67 bd db 4e 4a 3d 01 77 43 3d 15 95 f0 3c
       -0.05651003 0.04939161 0.047720913 0.029367963
0003c0 4c 91 15 3e 41 33 6a bd 0c bf 13 bd cf 8a d6 3d
       0.14606208 -0.057177786 -0.03607087 0.104756944
0003d0 af c5 bd 3d 87 e5 9d 3d 5a 85 c0 3d e5 fd ea 3d
       0.09266221 0.077097945 0.09400435 0.11474208
0003e0 57 2b db bd ff 30 e9 bd 1a c6 d7 3c de f5 b2 3d
       -0.10701626 -0.113862984 0.02633958 0.08738302
0003f0 2d c3 fc bd f0 c2 cc bb b8 f8 c8 3d 31 de d9 3d
       -0.12341914 -0.0062488243 0.09813064 0.10638083

lstm.bias_ih_l0 f4 [200]
000000 29 81 24 3e ab 63 f1 bd 22 dd fe bc 19 6a 69 3d
       0.16064896 -0.11786588 -0.031111304 0.05698595
000010 91 b6 59 3d ea 67 ef 3d 1b 04 94 bd 69 38 19 3e
       0.053152625 0.11689742 -0.072273456 0.14962925
000020 a8 d9 0f 3e 00 29 15 3e 05 e8 2a 3d f8 7b 70 bd
       0.14047873 0.14566422 0.041725177 -0.058711976
000030 f0 2e 76 bd b4 d2 72 bd 1e 40 48 3c aa 72 6b bd
       -0.060103357 -0.059282973 0.012222318 -0.0574824
000040 31 d3 ef bd f6 00 1e 3e 72 85 30 bd f4 84 cc bd
       -0.117102034 0.15430054 -0.043096013 -0.09986296
000050 e7 2c 99 bd aa 66 b9 3d 9d de 0c bd e3 37 bb 3b
       -0.074792676 0.09052785 -0.034391988 0.0057134493
000060 6a 04 47 3d 98 35 ce 3c e3 ad 8e bd 7d b2 a0 3d
       0.048588194 0.02517204 -0.0696676 0.07846544
000070 75 95 2c bd 40 41 eb 3c 7c 7e 0b 3d 9d c6 b0 3d
       -0.04213472 0.028717637 0.03405617 0.086316325
000080 91 96 93 3d 96 e4 1a be 86 30 d0 3d 19 ad af 3d
       0.07206453 -0.15126261 0.10165505 0.08577938
000090 b0 5c 73 3d b9 70 e2 3c 59 33 06 3d 9e b3 28 3e
       0.059414566 0.027641641 0.032763813 0.16474769
0000a0 69 45 9a bd c9 84 06 bd 04 47 96 3c 8d bc ec bb
       -0.0753277 -0.032841478 0.01834441 -0.0072246254
0000b0 00 e0 69 3d f1 e5 9c 3d a6 a1 3f 3d 23 b6 bc bd
       0.05709839 0.07661045 0.04678502 -0.09214427
0000c0 6b ef 7f bd 98 d5 02 3d fc ad 84 3d 27 40 ef bc
       -0.062484186 0.03194198 0.064784974 -0.029205395
0000d0 9a 7c fd 3d 8d 34 0f 3e ba e2 e3 bb 48 e3 1c 3d
       0.123772815 0.1398489 -0.006954518 0.03830269
0000e0 85 b9 02 be d0 a1 43 bd c6 a5 78 bd 1d ce 29 bd
       -0.12766083 -0.04776174 -0.06070497 -0.04145633
0000f0 bb 27 f3 3d d2 91 95 3d b9 9d 99 3c 51 ac 8f 3d
       0.11872812 0.07303204 0.018751966 0.070152886
000100 f3 13 06 bd 48 3c 4b bd 17 8c 0b 3e ed a3 fe 3d
       -0.03273387 -0.049618036 0.13627659 0.1243361
000110 7f fa 5f 3d a4 f4 96 bd 9a 51 c6 3d fe 40 95 bd
       0.05468225 -0.0737088 0.09683533 -0.07287787
000120 b2 3f 08 be 1f 79 b1 3d 43 46 42 bd 4e 99 02 be
       -0.13305548 0.0866568 -0.047430288 -0.12753794
000130 9d 2c ec bd 04 61 f1 3c d4 db cc 3c 8d 0e 8a bd
       -0.11531947 0.029465206 0.025007166 -0.067410566
000140 1f f8 b0 3d 87 ed 20 3d f4 1c b7 3d e6 33 31 bd
       0.08641075 0.039289024 0.08941069 -0.043262385
000150 b0 ed 3b 3d 93 61 27 bd 45 2f f8 bd e5 bc 88 3d
       0.045880973 -0.04086454 -0.12118391 0.06676654
000160 7f 7f c5 bc 3b ad 50 3d d7 5f 54 3d a1 ce d8 3c
       -0.024108646 0.050946455 0.051849212 0.026465716
000170 79 aa 66 bd a7 88 de 3d 12 04 ca bc f9 7e 0b 3e
       -0.05631492 0.10865908 -0.024660144 0.13622655
000180 c3 07 8a bd 99 d5 e4 3d 80 06 02 be fd 19 18 bd
       -0.06739762 0.11173553 -0.12697792 -0.03713416
000190 e6 8b 8a 3d 44 23 3b 3d 9c 5c c1 3d d0 d9 4c 3b
       0.06764965 0.04568793 0.09441492 0.0031257756
0001a0 cb 63 cf bd 00 10 10 3e 1b c7 a9 bd a6 b3 e0 3c
       -0.10126456 0.14068604 -0.082899295 0.027429413
0001b0 45 26 3f 3d 55 4d cd bc 8f 32 1f bc 8f 1c e4 3d
       0.046667356 -0.025061289 -0.009716644 0.111382596
0001c0 19 2c c8 3d f1 57 3d bd 46 14 70 3d c4 08 0e bd
       0.09774036 -0.046226446 0.058613084 -0.03467633
0001d0 d2 75 04 3e dc 6e dc bd 38 4e a3 bd 6c 20 b1 3c
       0.1293557 -0.10763332 -0.079739034 0.021621905
0001e0 85 5e b7 bd a4 30 58 bc 1e 93 92 3d 09 44 26 3d
       -0.08953575 -0.013195191 0.071569666 0.040592227
0001f0 5b 32 16 3e f8 d3 08 3a 0e 4e 85 bd 62 b8 90 bd
       0.14667647 0.0005219574 -0.065090284 -0.07066418
000200 fc d4 76 3a 2f 51 67 3c 5b 91 c6 bd 23 6a 99 bd
       0.00094158924 0.014118477 -0.09695693 -0.07490947
000210 e4 8f 97 bd 6b eb ef bd 6a 9c 9f 3d ca 86 3e 3d
       -0.07400492 -0.11714824 0.077935055 0.046515264
000220 df 7a 06 be 31 b2 a0 bd 87 5a d2 3d cd e8 6a bc
       -0.13132809 -0.07846487 0.10271173 -0.014337731
000230 af 13 0b 3d 98 00 75 3d 8f 1a f4 bd 43 5e f4 bd
       0.03395432 0.05981502 -0.11919128 -0.119320415
000240 f3 9a 49 3c 4a b9 af bd f3 ca 8b 3d 81 35 bc bd
       0.012305009 -0.08580263 0.06825819 -0.091898926
000250 90 93 7c bc 44 8f aa bd 67 e8 a3 bd 44 33 a5 3c
       -0.015416041 -0.08328107 -0.080033116 0.020166047
000260 d4 44 a5 3c cd 26 f4 bd 37 54 20 3e 4c 7a 9f 3d
       0.020174421 -0.11921463 0.15657125 0.07786998
000270 c3 ea 41 bc bd c0 d8 3d 66 31 9c 3a db 01 13 3e
       -0.011835757 0.10583637 0.0011916577 0.14356177
000280 a2 0b 91 bc d2 fb 9d bd e7 04 56 3c a1 21 9c 3d
       -0.017705742 -0.077140465 0.013062692 0.07623602
000290 43 c3 aa 39 c3 a0 e2 bd 8a fa ba bd bb 46 ca bd
       0.00032570408 -0.11065819 -0.09129818 -0.09876772
0002a0 be 1a bf 3d 5c 4c 16 bc a5 6a a7 bd af c1 ff bc
       0.093312725 -0.009173479 -0.08174638 -0.031220285
0002b0 48 1e 1b bd dd e6 57 bd 6f b6 dc 3d 04 44 85 3d
       -0.037870675 -0.052710403 0.10776984 0.065071136
0002c0 43 bd cf 3d a3 4c 07 bd ce c6 ea bc d6 d1 4c bb
       0.10143521 -0.03303207 -0.02865925 -0.0031253002
0002d0 f4 84 d5 bc 02 51 98 3c 10 3d 8d bd 39 53 16 ba
       -0.026064374 0.018593315 -0.068964124 -0.0005734447
0002e0 95 9d ec 3c ca 18 46 bc 82 42 58 3d c3 5e a5 bd
       0.028883735 -0.012090871 0.0527978 -0.08074715
0002f0 78 ed 2e 3e 15 2f 8b bd b9 7b 11 3e 86 ef c0 bd
       0.17082775 -0.067960896 0.14207353 -0.094206855
000300 82 b1 79 bd ea 9a 73 3d 8b 69 41 3d 59 8a 83 3d
       -0.0609603 0.05947391 0.047219794 0.06422872
000310 38 35 07 bb af bd 5f 3d 60 5e e4 bd 7e f0 cb bd
       -0.0020631086 0.054624256 -0.11150813 -0.099579796

lstm.bias_hh_l0 f4 [200]
000000 6b eb 65 3d 5f cd e3 bd bb 81 a2 3d 7c f7 b4 bd
       0.056132715 -0.11123156 0.079349004 -0.088362664
000010 b3 ee e9 3d b9 aa 20 3c 0a 01 00 3d 1e 3e 67 bd
       0.114224814 0.009806328 0.03125099 -0.056455724
000020 34 91 6a 3d cc b0 a5 bd 01 8c 41 3d e8 70 05 3e
       0.057267383 -0.08090362 0.04725266 0.13031352
000030 f5 16 35 39 05 09 f0 3d d4 83 d0 3c 2b 0f 94 3b
       0.00017270057 0.1172047 0.025453486 0.0045184097
000040 ce 2f 0c 3e e9 bf ab bc fa 3f 8f 3c 93 08 0b 3e
       0.13690111 -0.020965533 0.017486561 0.1357749
000050 0b de 99 bd b0 8c 1d bc 3a ef d0 bd ef 38 3c 3d
       -0.075130545 -0.009616062 -0.10201879 0.045952734
000060 c5 c2 06 3e 1a e9 ff bd d2 ed f3 bc 32 4e bd bc
       0.13160236 -0.124956325 -0.029776487 -0.023108575
000070 0f e9 17 3e fe 9b d4 bc 22 e7 09 3d 98 73 05 3e
       0.14834999 -0.02595329 0.03366769 0.13032377
000080 5f d3 f1 bc 50 9d b1 3c ba 2c 05 3e 9f ea a7 38
       -0.029519735 0.021681458 0.13005343 8.006882e-05
000090 66 05 e1 bd 43 ec eb bd 0e 95 8a 3d 52 fe 1e 3e
       -0.10987358 -0.11519673 0.06766711 0.15526703
0000a0 a4 5c 87 bd 5b af ac 3c 1d 85 8f 3d e6 a7 b4 3d
       -0.06609467 0.02107971 0.07007811 0.088210866
0000b0 0c c2 45 3d f6 c2 06 3d 0e af b7 bd ea 00 d4 3d
       0.04828076 0.032900773 -0.08968936 0.10351737
0000c0 b3 be 7f bd 76 d5 00 3e d3 c7 d2 3d 86 36 80 3d
       -0.062437724 0.12581429 0.1029202 0.062603995
0000d0 fc 6d c4 bd 41 d9 c9 bd 39 ec 12 3e ef f3 c6 bc
       -0.0959129 -0.09855891 0.14347924 -0.024286238
0000e0 c3 ea 77 bd 9c c3 f4 3d fd ed 1f bd 13 0e ee bd
       -0.06052662 0.11951372 -0.039045323 -0.11623778
0000f0 48 d8 44 3e cc 91 4c bc 33 0b 0d 3e 47 2c b5 bd
       0.1922313 -0.012485933 0.13773803 -0.08846336
000100 f9 29 11 3e 9f 1c af 3d 1a 6d c9 bd 1e 26 69 3d
       0.14176168 0.08550381 -0.098352626 0.056921117
000110 4b f0 70 3d f2 f9 10 bd a8 74 f4 bd f6 04 a0 bd
       0.05882291 -0.035394616 -0.11936313 -0.07813446
000120 87 be 98 bc 40 2c 3a bd 1d 99 65 bd c9 c1 ad bd
       -0.018645538 -0.045452356 -0.056054223 -0.08484227
000130 c5 8c f1 3d 21 95 20 3d 40 7a 63 bb 15 b0 93 3d
       0.11794428 0.03920472 -0.0034710318 0.07211319
000140 f1 2e 20 bd ef 0f 7b bd cc 33 e1 3d 62 a7 c2 bd
       -0.039107267 -0.061294492 0.109962076 -0.09504582
000150 fd 6c e4 bd 0c 5c 6d bc 95 f5 20 3d 8d f7 a3 3d
       -0.111536 -0.014487278 0.039296705 0.08006201
000160 24 df 63 3d 3a 8e 00 bd db 3a 9d 3d 1e de dc bd
       0.055632725 -0.031385638 0.076772414 -0.10784553
000170 e7 53 3c bd b8 b7 04 3e 1d f8 0b 3e 59 58 20 3c
       -0.045978453 0.12960708 0.13668866 0.009786689
000180 e2 54 ac 3c f2 d3 54 3b ab 78 92 bd 60 68 bc 3d
       0.021036569 0.0032474962 -0.07151922 0.091995955
000190 85 29 77 3b 79 ab 84 3d 0d af 07 bc 5e 01 99 3d
       0.0037713957 0.06478018 -0.008281481 0.07470964
0001a0 ea 4c e3 bb 91 40 5e 3d 0b b2 f0 3c 79 33 e0 3d
       -0.006936659 0.054260794 0.029381773 0.10947318
0001b0 d9 fc 32 bd 66 e5 d7 3d 7a 9d 04 3e 79 20 d8 bc
       -0.043698166 0.10541801 0.12950698 -0.026382672
0001c0 10 6a fa 3d 4e 42 9e bd a0 74 02 bd 30 90 97 bd
       0.12227261 -0.0772749 -0.031849504 -0.074005485
0001d0 54 c9 a7 3d b0 31 9b bc 29 9f 4c 3c 64 c9 cf 3c
       0.08192697 -0.018944591 0.012489119 0.025364585
0001e0 0b 7c ad bd b6 66 a6 3d 99 6a 41 bb 42 4b b1 3b
       -0.08470925 0.08125059 -0.0029513 0.0054105828
0001f0 be cb a6 bc 97 c4 90 3d 01 8b 7b bc ec 2e d2 3d
       -0.020360824 0.070687465 -0.015352965 0.10262856
000200 18 0a 56 bd 84 a0 9f 3d b4 8d 10 3e 47 4c 24 3d
       -0.05225572 0.07794288 0.14116555 0.040111806
000210 5e 06 b4 3d 8d b1 fe bd 22 db a1 bd ac 70 e8 3c
       0.08790277 -0.12436209 -0.079031244 0.028374039
000220 a5 4b d4 bd 63 41 bb 3d 0d 89 c8 bd e8 18 25 3d
       -0.103659905 0.09143331 -0.09791765 0.040306956
000230 f6 ff c5 3d b9 77 c9 bd fd ea d4 bc 29 bb cb 3c
       0.09667961 -0.098372884 -0.025990957 0.024869518
000240 8a 3a c8 bc 04 55 f5 3d 96 33 d6 3c 67 d6 ef 3d
       -0.024441976 0.11979106 0.026147645 0.11710816
000250 1f 89 fc bc 99 1f 22 3c 9e 88 30 3e 60 5b cd bd
       -0.030827103 0.009895229 0.17239615 -0.10027194
000260 e7 1c 9b bd bd ea 11 3e f6 d2 9c bd 7d e8 11 3e
       -0.07573872 0.14249702 -0.07657425 0.14248843
000270 7f 2a d7 bc c5 db b5 bd 00 92 da bd dc 36 b4 3d
       -0.02626538 -0.08879808 -0.106723785 0.08799526
000280 55 e3 eb 3d 99 4a 0f 3e eb 53 3d 3c c9 43 83 bd
       0.115179695 0.139933 0.011555652 -0.06409413
000290 a9 ba b3 3d ae bc 27 3d a5 4e 38 3c 5c 39 18 3e
       0.08775837 0.040951423 0.011249219 0.14865631
0002a0 ba b1 c5 3d 1e f8 90 3d cc 37 1c 3d 3b 04 ca 3d
       0.09653039 0.070785746 0.03813915 0.09864088
0002b0 a3 1c 7e bd df ff ed 38 fb 4d 99 bd a4 74 09 be
       -0.06203903 0.000113487 -0.07485577 -0.13423401
0002c0 71 2d e5 3d c9 01 64 bd bf 26 af bd c4 90 0b be
       0.11190308 -0.055665765 -0.08552312 -0.13629442
0002d0 41 c0 2b bd 40 81 79 3d b6 78 21 3e ae d4 ea 3d
       -0.041931394 0.060914278 0.15768704 0.11466347
0002e0 bd 0c 19 bd 02 8f 13 3e 89 45 e3 3d 14 df b9 bd
       -0.037365664 0.14410022 0.11097247 -0.09075752
0002f0 0c be 22 3e be 9f 7f bd 9d 88 d1 bd 4c 6f d4 bd
       0.1589281 -0.0624082 -0.10231135 -0.10372791
000300 63 d2 01 3d 95 72 09 bd e9 1b 59 3d 04 c9 16 bd
       0.03169478 -0.03355654 0.053005133 -0.036812797
000310 ae f9 4a bd 23 1a e7 3d 31 e9 a0 bb ed 54 6e 3d
       -0.04955452 0.11284282 -0.004910611 0.05818646

lstm.weight_ih_l1 f4 [200, 50]
000000 5a 9b 91 bc 88 93 8f bd 80 83 99 bd 85 a1 b1 3d
       -0.017774273 -0.07010561 -0.07495785 0.086733855
000010 9e 91 30 bc 4d 4e 4d 3d 6f 50 59 3d 1b 64 f7 3c
       -0.010776905 0.0501235 0.053055223 0.030199101
000020 44 4c be 3d ba 39 d3 bd a6 92 e0 3d 9c fe df bd
       0.0929189 -0.10313745 0.10965471 -0.10937235
000030 22 d4 58 3b 47 66 c7 bd f0 84 7a bd 6f 80 d9 bd
       0.0033085425 -0.09736305 -0.061161935 -0.106202
000040 24 c0 7c 3c 6e 5b 0b be 9c ae e7 3d 4f 99 5b 3c
       0.015426669 -0.13609096 0.11312601 0.013403251
000050 bc 23 85 3d f2 16 3f 3c 0e 7f ef 3b 50 88 1d 3d
       0.065009564 0.011663185 0.0073088473 0.038460076
000060 a6 ee 16 bd 80 b5 3b bd 30 85 3d bd cf 79 cf 3c
       -0.036848687 -0.04582739 -0.046269596 0.025326638
000070 be 3e aa 3d 5a c3 a2 3d 8f b3 27 bd 8a 4e a1 bd
       0.083127484 0.079474166 -0.040942725 -0.07876308
000080 ad cd cd 3d 87 23 ce 3d c9 c4 9e 3c e1 9e 13 3e
       0.10048995 0.1006537 0.019380944 0.14416076
000090 b4 43 e1 bd 6e a5 9c 3c 2a ee 9c 3d 84 c8 69 3d
       -0.109992415 0.019121852 0.07662614 0.057075992
0000a0 79 0f 2a bd bc 7f 8e bd cd 52 ff 3d e2 f8 c4 3d
       -0.041518662 -0.06957957 0.12466965 0.09617783
0000b0 f5 d4 1b 3e 7b 1a 15 be 15 f1 f6 3d cf d8 46 bd
       0.15217955 -0.14560883 0.120577015 -0.04854661
0000c0 7a 04 dd 3d 8e 8a ce bd 44 d8 3d 3d 83 2a 66 3d
       0.107918695 -0.10085021 0.046348825 0.056192886
0000d0 2e 23 89 bc 10 4d 36 3d de 36 13 3e 73 ce 1e 3d
       -0.016740408 0.044507086 0.14376399 0.038771104
0000e0 5b 78 b2 3d ce 8b f9 bd 1c fb 8f bd f6 3a c5 bd
       0.08714362 -0.12184869 -0.07030317 -0.096303865
0000f0 3b 13 44 bd 88 af 2c bd aa 63 c9 3c 00 99 0c 3e
       -0.047869902 -0.042159587 0.024583656 0.1373024
000100 90 59 d5 3b 14 7d 96 bc 5d 97 92 bd 1e 55 8d 3d
       0.006510921 -0.018370189 -0.071577765 0.069010004
000110 0b 0d 98 bd 81 82 d9 bd a3 85 10 3e 62 c3 a3 3c
       -0.07424363 -0.10620595 0.14113478 0.019990627
000120 36 85 16 be 73 a5 8b 3c 61 06 0f be af 82 bc bd
       -0.14699253 0.017046666 -0.13967277 -0.092046134
000130 5a 1d b0 b8 dd 1a c3 3d 29 cd 39 bc 1c 25 fb bd
       -8.397801e-05 0.09526608 -0.011340418 -0.122629374
000140 25 13 b5 3d f2 9e 79 bd 8c 32 c6 3d 51 79 44 bd
       0.08841542 -0.060942598 0.0967761 -0.04796726
000150 7f f2 a2 bc 94 55 eb bd 65 81 c2 bd 62 d8 50 bd
       -0.019891022 -0.11490932 -0.09497336 -0.05098761
000160 74 b4 a6 3c 6d a6 bb 3d 8b 8e 12 bd 69 c1 09 3e
       0.020349719 0.091626026 -0.03578047 0.13452686
000170 10 6f ff bc 67 b2 87 3c fe 7b 97 bb 31 3a 8c bd
       -0.031180888 0.016564561 -0.0046229353 -0.06847037
000180 10 4b 54 bc ea e1 ca 3d a3 5b fd bd db 48 df 3c
       -0.012957349 0.09906371 -0.12370994 0.02725642
000190 4a da 34 3e ac 49 87 3d c0 76 8f 3c 9c 6c fa 3d
       0.17661396 0.06605849 0.01751268 0.12227747
0001a0 37 fd 1d 3e d9 f9 9e bd aa 67 e0 3c 0d cb fe 3d
       0.15428625 -0.077624984 0.02739318 0.124410726
0001b0 6a 55 82 bd 02 ef df 3d 1e bf 0e bd d1 98 15 be
       -0.06363948 0.10934259 -0.034850232 -0.14609076
0001c0 a2 e2 b1 3d 24 a5 17 3d 21 75 d7 3c 29 2f 4e 3b
       0.08685805 0.037022725 0.026300969 0.0031461215
0001d0 b0 ac 12 3c 2e a1 ef 3d 39 a1 f9 3c bb 6a 3a 3d
       0.008952305 0.117006645 0.030472385 0.045511942
0001e0 fc de 10 3e 4d c2 66 be fb 56 9a bd 5a 1a fd bc
       0.14147562 -0.22535057 -0.075361215 -0.030896354
0001f0 07 84 45 3d f4 70 bc bd db 0d ee bd 80 92 ef bd
       0.048221614 -0.092012316 -0.116237365 -0.116978645
000200 e2 82 0f 3e ce f0 fd bd c4 10 96 3c b6 85 12 bd
       0.14014772 -0.123994455 0.018318541 -0.035772048
000210 cb 82 06 3e 36 01 f2 bd a5 b1 37 3e ce bd 33 bb
       0.13135831 -0.11816637 0.1793886 -0.0027426365
000220 44 83 e5 bd a9 2b 28 be 1f 10 89 bd 4f 9d f2 3d
       -0.112066776 -0.16422905 -0.06692528 0.118464105
000230 f8 d7 b5 bc b2 77 9b bc 8f bc c9 3d a6 e6 0a 3e
       -0.022197708 -0.018977974 0.09850418 0.13564548
000240 cb 04 63 3e 76 1a da 3c 57 66 8f bd d2 64 e6 3d
       0.22169797 0.026623946 -0.07001942 0.11249699
000250 ad ab 20 3e 59 5d 3d 3c 08 7a 6c 3d 88 38 06 3e
       0.15690489 0.0115579 0.057733566 0.13107502
000260 eb 6c ee bd e9 79 b2 3c 78 3f d5 3c c5 92 b3 bd
       -0.11641868 0.021786647 0.02603124 -0.087682284
000270 81 4e ab bd be f5 eb 3d 62 99 26 3d fa 6f c6 bb
       -0.08364583 0.11521481 0.04067362 -0.006055829
000280 a7 e8 0b 3d c1 de e1 3d ef ff db 3d ef fb a1 3d
       0.03415742 0.11028815 0.10742175 0.07909381
000290 8a 7b be 3d 72 56 cf bd 46 5f bd bc 9b c1 b9 bc
       0.09300907 -0.1012391 -0.023116719 -0.022675326
0002a0 29 8d b0 3d a9 6d 85 3c a7 63 cc bd b6 4b 54 bd
       0.08620674 0.016287642 -0.09979945 -0.051830016
0002b0 37 ea be bd 22 29 30 bd 49 a3 95 bd 9e 8c 30 bd
       -0.09322017 -0.043007977 -0.07306535 -0.043102853
0002c0 4c 73 29 3c 29 7a 92 3d ac d1 fc bd 23 4f 0d be
       0.01034243 0.071522065 -0.12344679 -0.1379972
0002d0 5c 17 71 bd c7 5e a4 3c b6 ee 73 bd 92 f8 bc 3d
       -0.058860168 0.020064725 -0.059553824 0.092270985
0002e0 be a4 c3 bd de 79 7a bd b1 13 62 3c 01 b4 9d 3d
       -0.095529065 -0.061151378 0.01379864 0.07700349
0002f0 15 81 aa bb cb 89 d2 bd fd 68 db bd 93 25 c8 bd
       -0.005203376 -0.10280188 -0.10713384 -0.09772792
000300 eb bb 8d 3d 17 8f 1c bd 31 01 19 be da d4 11 3e
       0.06920608 -0.0382224 -0.1494186 0.14241353
000310 d9 cb a0 3d b7 5c c6 3d 7b 7a 88 bc 8c 31 f0 bd
       0.07851381 0.09685653 -0.016659966 -0.117282
000320 9f e7 83 bd 53 fa d6 bc 02 80 93 bd f7 73 df bc
       -0.064406626 -0.02624241 -0.0720215 -0.027276976
000330 1a 2e cb 3c 5d ff 0e be b9 18 9a 3d 73 fb 24 bd
       0.024802256 -0.13964601 0.07524247 -0.040278863
000340 be a5 f2 3d a0 cc 35 bd 70 7c d3 bc 2b a6 92 3d
       0.11848019 -0.0443846 -0.025816172 0.071606
000350 a8 58 bc 3d 6d 71 60 bd a5 8a d1 3d 45 b1 25 3d
       0.09196597 -0.05479567 0.102315225 0.04045226
000360 89 96 8b 3d fe 50 ab bd 3b b3 01 3e 9d 32 9a bd
       0.06815822 -0.083650574 0.12666027 -0.07529185
000370 96 79 45 3d 5f ee e3 3d 64 92 a9 3d 12 10 b2 3d
       0.048211657 0.1112945 0.08279875 0.086944714
000380 bb 2d 97 3d f1 ae e8 bd 39 bf dd bd 80 3c 09 be
       0.07381769 -0.113614924 -0.108274885 -0.13401985
000390 4a ce a0 bd 9c 8b af 3d cd 33 91 3d 3e 9e dc bd
       -0.078518465 0.0857155 0.07089958 -0.1077237
0003a0 17 17 fa bd 19 63 c1 bd c3 80 1b 3d 31 5f 16 be
       -0.12211435 -0.094427295 0.037964594 -0.1468475
0003b0 0a 3f 9b bd db 17 eb bc 5a 76 f8 bd c6 5e 31 3c
       -0.07580383 -0.028697899 -0.12131949 0.010825818
0003c0 5f 4c 89 bd ab 2d a6 bd ef 46 15 bd 71 19 b7 bd
       -0.0670402 -0.08114179 -0.0364446 -0.089403994
0003d0 86 be 2c be 75 fb 47 3c 61 27 ba bc a8 87 e3 bc
       -0.16869554 0.012205948 -0.022723855 -0.027774647
0003e0 f8 6d ed bd 17 11 c0 3d 1e a7 05 3c d7 f0 68 bd
       -0.115932405 0.0937826 0.00815752 -0.056870308
0003f0 65 1a fb 3d 9c 76 c1 bb 8e 3d 3e 3e f7 41 2f bd
       0.12260894 -0.005904032 0.18578169 -0.04278752

lstm.weight_hh_l1 f4 [200, 50]
000000 70 09 ff 3c d8 6d 6a 3d 54 fc df 3d cc e7 c6 bd
       0.03113243 0.05723366 0.109368 -0.097121805
000010 40 00 10 be f7 b5 f2 3b 4e 1b a8 bd b7 ee 5a 3d
       -0.14062595 0.007406946 -0.08208333 0.053450312
000020 84 ad 83 bd 26 74 be bd 62 c0 92 3d 4d b1 0d be
       -0.0642958 -0.09299497 0.071656 -0.13837166
000030 08 68 d3 3d c3 c4 ea 3d 87 f3 f9 bd 91 eb a3 bd
       0.10322577 0.114633106 -0.12204652 -0.08003915
000040 8c d1 5f bd 57 a2 1d 3d c7 7f 63 bd 3a ad f6 3b
       -0.0546432 0.038484897 -0.05554178 0.0075279744
000050 d4 0d 12 be ae ac 38 bc e9 ec 0e 3d d2 4c bc bd
       -0.14263088 -0.011271639 0.034893904 -0.0919434
000060 77 88 06 3d 96 25 0e 3d 19 96 f1 bd 7a 69 3f bd
       0.032844987 0.034703813 -0.11796207 -0.04673145
000070 0b bf 2f 3d dd d0 3f 3d ba db 10 be ef 23 d4 bd
       0.042906802 0.046830047 -0.14146319 -0.10358416
000080 32 c5 09 be 05 ac 6b bd 52 79 37 bc 62 69 bf 3c
       -0.1345413 -0.057537097 -0.011198359 0.02336568
000090 69 4a 05 3c 65 15 60 bd 2d ee b1 3d df c2 7c bd
       0.008135417 -0.054707903 0.086880066 -0.06170928
0000a0 ef cf 23 3d 19 7d f0 bd e1 25 bb bd 75 7f 65 bd
       0.039993223 -0.117426105 -0.09138084 -0.056029756
0000b0 67 af ed 3b 2f c3 0c be ea 99 d2 3c f0 1d 01 3d
       0.0072535756 -0.13746332 0.025708158 0.03152269
0000c0 f7 b2 77 bd 7c e8 97 3d bc 28 2a 3d 58 ab 44 bd
       -0.06047341 0.0741739 0.041542754 -0.04801497
0000d0 a6 3c cf bd b4 c4 06 bb a4 6e f0 3d 7c f0 07 3e
       -0.1011899 -0.0020564022 0.11739853 0.13275331
0000e0 f0 bf f9 3d 4d da a1 bc 44 f8 8f 3d 1e 90 a9 bd
       0.12194812 -0.019757414 0.07029775 -0.08279441
0000f0 51 c3 c6 bd 96 e5 8e 3d 48 0a 52 3d 3e a3 11 3e
       -0.097052224 0.06977384 0.051279336 0.14222428
000100 77 8d c4 3d 76 99 84 bd b2 c1 cc 3d ce 4a 6c bd
       0.09597295 -0.06474583 0.09997882 -0.057688527
000110 8f e4 b8 bc 08 54 af 3d 21 20 87 3d 1a 11 b4 bb
       -0.022569923 0.085609496 0.06597925 -0.0054952027
000120 f7 5e bb bd 07 6e 07 3d f0 da b6 bd 5b a7 a9 bd
       -0.091489725 0.033063915 -0.08928478 -0.08283874
000130 8d 68 0b 3c 36 d1 8f bd ed f1 bd bd e5 47 da 3d
       0.008508814 -0.07022326 -0.09274659 0.10658244
000140 ab e8 5d 3c e4 39 ee bd 50 42 db bd 9d 0a 1a 3b
       0.013544242 -0.116321355 -0.107060075 0.0023504861
000150 03 7f 92 bd cf 4c 83 bd 2c af 8d 3d f4 ba d2 bd
       -0.07153132 -0.064111345 0.06918177 -0.10289565
000160 88 a7 4c 3d d6 19 9a bc 71 dc 01 3c 74 27 d2 3b
       0.049964458 -0.018811148 0.0079260925 0.0064133946
000170 d5 a7 03 bd 80 28 1a 3e e5 a6 30 3d 36 a3 2e bd
       -0.03214248 0.15054512 0.043127913 -0.04263612
000180 98 5a fb b9 7a 75 cd 3d 53 f9 2b 3c 33 f8 94 bd
       -0.00047941948 0.100321725 0.010496455 -0.07273903
000190 9a f8 da 3d 30 6e f5 bd a2 94 da 3d fd 63 e6 bb
       0.10691948 -0.11983907 0.10672881 -0.0070309625
0001a0 c1 07 57 3b 8a 95 99 bd 40 dd 13 3d 93 bc bb bd
       0.0032811018 -0.074992254 0.036099672 -0.09166827
0001b0 8c d8 ac 3d 20 82 73 bd 9b 5b 97 3b 4c 11 d4 3d
       0.084397405 -0.05945027 0.0046190745 0.103548616
0001c0 15 20 de bd ab 90 0d 3d 0b 12 8f 3d 60 f5 e5 bd
       -0.10845963 0.034561794 0.06985863 -0.11228442
0001d0 f9 75 92 bd 7b d1 47 3e 4d 0e f7 3b c4 8f 54 3d
       -0.07151408 0.19513504 0.0075395466 0.051894918
0001e0 c9 b7 4b 3d f1 b9 16 3e 0c 71 79 3d 80 8a 42 3d
       0.049735818 0.14719369 0.060898826 0.047495365
0001f0 53 55 9f 3d 72 72 cf bd 7d ec f2 bd 29 18 97 bd
       0.07779946 -0.101292506 -0.11861513 -0.07377655
000200 89 f8 ce bd 9d 37 b3 bc c2 89 79 3d 38 51 c0 3d
       -0.10105998 -0.021877104 0.06092239 0.09390491
000210 ee 19 97 3d c1 fe bb 3c dd e6 07 3e af 1f f2 bc
       0.073779926 0.022948625 0.13271661 -0.029556124
000220 13 ce ad bd 35 01 d8 3d db a8 9e 3d c7 a2 b7 bd
       -0.08486571 0.10547105 0.077470504 -0.08966594
000230 4b 2a b5 3d 8a 9f 57 3c 0e ba 8e bd 36 fe 1b be
       0.08845957 0.013160596 -0.06969081 -0.15233693
000240 ed d2 4a 3c 96 19 16 be 3d a9 0c bc d2 f8 51 bd
       0.01237939 -0.14658198 -0.008585271 -0.051262684
000250 fe b3 e7 bd b6 22 4e bb 8c 35 51 3d 83 1e f5 3d
       -0.11313628 -0.0031453795 0.051076457 0.1196871
000260 6d 39 8e 3d ab a3 78 3d 10 ba f6 3d 0a 99 81 bd
       0.06944547 0.06070296 0.12047207 -0.06328018
000270 56 3d c5 3d 9b 16 be bd de 76 9d 3c e1 ed f2 3d
       0.096308395 -0.092816554 0.01922172 0.11861778
000280 78 71 83 bb 71 3f 04 3e 62 f7 45 3d 93 73 ec bd
       -0.0040113293 0.12914826 0.048331626 -0.115454815
000290 40 3c a7 bd 26 b7 c9 bd 52 93 95 3d 92 4f 85 bd
       -0.08165789 -0.09849386 0.0730349 -0.065093175
0002a0 c2 a5 01 bb d3 42 31 3d a4 fe 9f 3b 62 00 ec 3d
       -0.0019782637 0.04327662 0.0048826504 0.115235105
0002b0 b1 de b5 bd 96 0b f7 3d e6 a8 c1 bd dc 7b eb 3d
       -0.08880366 0.12062757 -0.09456043 0.11498234
0002c0 35 28 b4 bd a0 bd ee 3d 5d 83 2f 3d 29 f5 f3 3c
       -0.087967314 0.11657262 0.042849887 0.029779987
0002d0 6f 79 61 bc 36 15 6c 3c c6 69 ce bc 25 14 0e 3e
       -0.013761862 0.014409354 -0.025196921 0.13874872
0002e0 d1 4b b6 bd 89 28 02 bd f3 e3 92 bd 68 e1 98 3d
       -0.089011796 -0.03177694 -0.07172384 0.07464868
0002f0 05 b5 ac bd 05 3b d9 bd 5d 32 b2 bd 4e cf d4 bd
       -0.08432964 -0.1060696 -0.08701012 -0.10391103
000300 30 b0 21 bd 75 7b 1a 3d 70 e8 1d 3e 30 02 9f 3d
       -0.039474666 0.037715394 0.15420699 0.07764089
000310 af 38 3e bd 44 e6 f2 3d 85 c0 3c 3d f5 8d 9f bd
       -0.046440776 0.11860326 0.04608204 -0.07790748
000320 19 d8 70 3c c8 02 c1 3d fb aa 1e 3e b0 35 e6 bd
       0.014699959 0.094243586 0.15494911 -0.11240709
000330 f5 d3 e3 bc be 06 01 3d bd c1 a6 bd 52 b7 8c 3d
       -0.02781103 0.03150057 -0.081424214 0.06870903
000340 0c 28 d4 bd c3 4a 92 3d ca e3 69 bd 95 02 6d bd
       -0.10359201 0.07143166 -0.057102002 -0.05786379
000350 9d 10 96 bc 63 5c 96 3d ef 76 6b 3c f7 58 71 bd
       -0.018318469 0.0734184 0.014371618 -0.058922734
000360 f2 b1 a7 bd fc b4 bc 3d 50 cd dc bd 9a 39 ad bd
       -0.08188237 0.092142075 -0.10781348 -0.08458252
000370 56 5a bb bd c7 87 dd bd bf 9c 30 bd 1b e1 30 bc
       -0.091480896 -0.10816913 -0.043118235 -0.010795857
000380 60 2a bf 3d dd 65 e6 3d f4 d0 9c bd a7 04 d2 3c
       0.09334254 0.11249898 -0.07657042 0.025636984
000390 66 30 51 3d b2 48 63 bd 4f fc 85 bd db 15 97 bd
       0.051071547 -0.05548925 -0.06542265 -0.073772155
0003a0 7f 04 90 bd 64 a9 e7 bd cb 7f 48 3c 14 45 28 bd
       -0.070321076 -0.113116056 0.0122374995 -0.041081503
0003b0 7a 63 d8 3d bc 3a 84 bd de c1 85 3d e4 bb 8a 3c
       0.10565849 -0.06456515 0.06531118 0.016935296
0003c0 55 9b 23 bd de 67 0c 3e cf 17 b8 3d b6 42 61 bd
       -0.039943058 0.13711497 0.08988916 -0.05499526
0003d0 58 b3 19 3e 9c 20 02 3d ec d5 d0 bd 89 1c 66 bd
       0.1500982 0.03176938 -0.10197052 -0.056179557
0003e0 60 61 07 3e db cc a1 bd 27 a2 0d 3e 3c 6d d0 3d
       0.1322074 -0.07900401 0.13831387 0.10177085
0003f0 f9 ba 33 3d a4 07 fa 3d c8 27 ad bd 21 92 fe 3d
       0.043879483 0.122084886 -0.08454853 0.124302156

lstm.bias_ih_l1 f4 [200]
000000 5a 29 53 3d bc 78 df 3d ea 8f 06 3e d8 17 f0 3d
       0.051553108 0.109117 0.13140836 0.11723298
000010 0e 9e 51 3d 4a 57 3c 3c 00 93 78 3b d0 93 7a 3d
       0.051176123 0.011495421 0.0037929416 0.06117612
000020 18 4f 64 3d f3 ef 0b 3e 85 fb db bd 5a a4 bc bb
       0.055739492 0.13665752 -0.10741333 -0.005756897
000030 d0 0a 9d 3d 3b ac 62 3d 61 2b 2b bc 5a dd 01 3b
       0.07668078 0.055340033 -0.010447354 0.0019815774
000040 b5 84 b7 bd ca 4f e9 3d b2 ac 15 3e 8c 80 1c 3e
       -0.08960859 0.11392172 0.1461666 0.15283412
000050 a4 f8 c5 3d 50 35 f9 bd ba c6 1f 3d e4 d9 d0 bd
       0.09666565 -0.12168372 0.03900788 -0.10197809
000060 db 7d d2 3d a2 1e a5 bd 9b 77 bf bc c0 b1 05 3e
       0.10277911 -0.08062483 -0.023372462 0.13056087
000070 77 aa a4 3d 7b 19 75 bd 8f f6 3b bd 9c 9b 6a 3c
       0.08040326 -0.059838753 -0.045889433 0.014319327
000080 46 70 71 bb 05 0b 0b bc 1f ca 4a bd 26 a7 a8 3c
       -0.0036840602 -0.008486514 -0.049509164 0.020587515
000090 25 0f 9e bd 85 a9 f7 bd 17 95 91 3c 91 08 53 3d
       -0.07717732 -0.1209288 0.017771287 0.05152184
0000a0 03 f6 c8 bd 28 59 0c bc ac 04 2b 3c 3f c5 df 3c
       -0.09812548 -0.008566178 0.010438126 0.027315734
0000b0 2b 3c d2 bb a5 11 a6 3d c3 f7 76 bd 73 32 8f 3c
       -0.006415864 0.08108834 -0.060294878 0.01748011
0000c0 1e bc 73 bd 2e bc 08 3e be b1 b8 3d 7f c6 35 3d
       -0.059505574 0.13353035 0.09018277 0.044378754
0000d0 77 6d d7 3d d3 8b aa 3d 00 47 12 be 09 d8 c4 bc
       0.10518926 0.083274506 -0.14284897 -0.024028795
0000e0 5c 90 a9 bc 19 0f d0 bd 58 cd 9c 3d ee 2b fb bd
       -0.020698719 -0.1015913 0.07656354 -0.12264238
0000f0 ee e5 8e bd 49 0f a6 3c 7f 36 d5 ba fa d0 38 3c
       -0.06977449 0.02027096 -0.0016266851 0.011280293
000100 09 41 da bc 75 7d 2f 3d e5 d8 41 3d 9c fd c5 bc
       -0.02664234 0.042844255 0.047325987 -0.024168782
000110 9c 0a d7 3d c6 49 6b 3d 4c 80 bc 3d 6d bc 70 bd
       0.105000705 0.057443403 0.09204158 -0.058773447
000120 d8 1e 12 3d 34 af 56 3d 98 48 fe bd 5b 4d f3 3d
       0.035673946 0.05241318 -0.1241619 0.11879989
000130 e8 d2 94 bd bc 24 af bd e7 91 55 bd fa 7a 82 bb
       -0.0726679 -0.085519284 -0.052141096 -0.003981945
000140 1a 0e b7 bd d2 ab 18 be 4f 72 72 3c b3 58 01 3d
       -0.089382365 -0.14909294 0.014797761 0.03157873
000150 a8 9c 12 bd 72 d6 d0 bd 5f 26 42 bc 62 7c f1 3a
       -0.03579393 -0.10197152 -0.011849969 0.001842391
000160 7e d3 0c 3e 46 a2 07 3e 9d 89 14 3e 37 d7 16 be
       0.13752553 0.13245496 0.1450562 -0.14730535
000170 59 bf ee 3d 29 0b bc bd bc 02 d2 3d 6b 73 e7 3d
       0.116575904 -0.09181816 0.10254428 0.11301311
000180 ec 16 ce 3d 13 39 fd 3d da 89 d2 3d 38 3a 5a 3c
       0.10062966 0.12364402 0.10280199 0.0133195445
000190 a6 a8 00 3e 20 1c e7 3d d1 1a 0d be da 18 06 3e
       0.12564334 0.11284661 -0.13779761 0.13095418
0001a0 78 b3 b8 bd 4b f2 7a 3d a8 aa cd 3d ff 74 9d bd
       -0.09018606 0.061266225 0.10042316 -0.07688331
0001b0 44 f2 c3 bd cd bb 43 bd ae 62 a4 bd d7 37 93 3d
       -0.09567693 -0.047786523 -0.08026634 0.07188385
0001c0 7c a2 c8 bd bd bf f0 3b 84 15 91 3d 4a f6 ef bd
       -0.097966164 0.0073470757 0.07084182 -0.11716898
0001d0 cd 49 88 3d 92 f6 68 3c bc 26 b7 ba ea 04 b5 bc
       0.066547014 0.014218943 -0.0013973336 -0.02209707
0001e0 b9 58 5d 3d dc 0b 12 3c 18 b4 97 3d 0a 44 ec 3d
       0.05403969 0.00891396 0.07407397 0.11536415
0001f0 c7 28 07 be 25 d5 fc 3d cc 74 df bd 7b bd f9 3d
       -0.13199149 0.123453416 -0.10910949 0.12194344
000200 50 8f 93 3d 31 6a 85 bd 48 72 0f 3e 3b 50 b9 bc
       0.07205069 -0.06514395 0.14008439 -0.022621265
000210 80 65 97 bd 7f d5 ab 3d ce 8c b3 3d a3 07 d5 bd
       -0.073924065 0.083903305 0.08767091 -0.10401847
000220 b3 dc 82 3d a0 62 e8 3d 9f ad fc 3d d8 7c b9 bc
       0.06389751 0.11346936 0.12337803 -0.022642538
000230 01 87 9d bd c4 92 00 be 1f 1b 3e bd 05 24 d6 bd
       -0.076917656 -0.12555987 -0.046412583 -0.10456089
000240 44 e6 fb 3c 51 93 03 be 7a 2c 32 bb 37 95 8c 3d
       0.030749448 -0.12849165 -0.0027187155 0.06864398
000250 ff d2 01 be ea 8b 17 3d 71 7d 0f 3e 4c c7 dc bd
       -0.12678145 0.036998667 0.14012696 -0.107802
000260 4b ca fb 3d dc 93 87 bd 71 e8 eb 3d c0 73 b7 3d
       0.12294444 -0.06619999 0.11518944 0.089576244
000270 88 41 21 3c f3 12 f8 bd 09 e4 0e bc 51 f5 f1 bc
       0.009842284 -0.12112989 -0.00872136 -0.029535921
000280 31 28 c5 bd ad e9 8b 3c d6 5c 77 3d c1 71 4b bd
       -0.096268065 0.017079199 0.06039127 -0.04966903
000290 7f 73 34 bd d9 f7 0f bd be 29 34 bd 2c be 20 3e
       -0.04405546 -0.035148475 -0.04398512 0.15697545
0002a0 41 49 11 3e 46 5b 0c bd c6 eb 05 be 80 78 a3 bd
       0.141881 -0.034266733 -0.13078222 -0.07981968
0002b0 5e ce 04 3e 15 64 e8 3c 18 0f 8d 3d 9c 80 08 be
       0.12969348 0.028368035 0.068876445 -0.1333031
0002c0 cf 78 c0 bd 82 25 ab bd b6 d5 15 3e e1 5e be bc
       -0.093980424 -0.083567634 0.14632306 -0.023238601
0002d0 f4 a4 98 3d 7b 56 a1 bd 22 3f 4b bd 6c 15 f4 bd
       0.07453337 -0.07877823 -0.049620755 -0.119181484
0002e0 c5 58 f1 bd 31 09 98 3d be 1f f7 bb 95 6c 74 3d
       -0.117845096 0.07423628 -0.0075416258 0.059673864
0002f0 af 4c b6 bd 92 0a e7 3d 02 28 06 bd 98 5d 8d 3d
       -0.08901345 0.11281313 -0.032753 0.06902617
000300 4d 1b f5 3d 77 44 0b 3e 57 35 04 3d 1b b0 cd 3d
       0.11968098 0.13600336 0.03227743 0.10043355
000310 24 26 1f 3e f0 f2 0e 3e 61 f4 9e bd 55 91 d6 bd
       0.15541893 0.13959861 -0.07761455 -0.10476939

lstm.bias_hh_l1 f4 [200]
000000 a3 5d ac bd 90 5d 39 3d b8 c9 c2 3d ea 58 fe bd
       -0.08416297 0.045255244 0.09511131 -0.12419303
000010 89 3b d4 bd 58 9c d6 bd 53 53 24 3d 80 0d 60 bd
       -0.10362918 -0.10479039 0.040118527 -0.054700375
000020 0f 3f fd bc 0a 80 41 bd 5c b2 e8 3c f9 55 3f bc
       -0.030913858 -0.04724125 0.02840536 -0.011678212
000030 34 85 8b bd 33 76 5a bd fa 0c c0 3d 7e 3c ff 3d
       -0.06812516 -0.05333538 0.09377475 0.1246271
000040 1e 86 af 3c d6 5d e0 3d 88 ed e7 3d d1 ff b7 bc
       0.021426257 0.10955398 0.11324602 -0.02246085
000050 89 86 07 3d c4 49 94 bc ae 14 a1 bc 18 f1 d5 3d
       0.033087287 -0.01810158 -0.019663181 0.104463756
000060 25 48 8c 3d b6 c0 d7 bb 62 be cc 3b 06 ed e5 ba
       0.06849698 -0.006584252 0.0062482813 -0.0017541952
000070 27 87 c9 3d b5 fe d6 3d f6 aa 5f bd f8 e0 ae 3d
       0.098402314 0.104978 -0.0546064 0.08539003
000080 84 29 0d 3c bc 94 f9 3d c8 fe bf 3d b5 4c dd 3c
       0.008615855 0.12186572 0.093747675 0.027014116
000090 42 00 89 3d 31 a1 bf bd a9 f8 f9 bd 86 1e 2c bd
       0.06689502 -0.09356917 -0.12205631 -0.042021297
0000a0 41 23 cd bd 14 02 72 bd b6 8a 9c 3d aa 08 db bd
       -0.1001649 -0.059084013 0.076436445 -0.10695012
0000b0 17 54 e9 3c e7 bd 88 3d bb 97 c7 bc 26 ad 49 bd
       0.02848248 0.06676846 -0.024364343 -0.049237393
0000c0 5b 4d e2 bb 94 d8 e7 3d e6 e8 48 ba 4c f8 b5 bd
       -0.006906194 0.11320606 -0.0007664099 -0.088852495
0000d0 77 e4 45 3d d9 ae f1 bc bc 3b 0a be 3a d9 cf 3d
       0.048313584 -0.02950232 -0.1349935 0.101488546
0000e0 b0 01 97 bd 01 b4 21 bc 37 1c 2a 3d ab b8 00 be
       -0.07373369 -0.009869576 0.041530814 -0.12570445
0000f0 9e bc 7c bd f0 d0 3f bd aa 73 90 3d 2c 15 a6 bd
       -0.061703317 -0.046830118 0.07053311 -0.08109507
000100 76 32 f8 bd 5a 63 b9 3d 87 19 16 3e ac aa 1a 3e
       -0.12119 0.09052153 0.14658175 0.15104169
000110 e5 4f a1 bc 12 0c 0e 3d 9e 18 60 3c 68 7d c2 bd
       -0.019691417 0.03467948 0.013677744 -0.094965756
000120 3e 04 f9 3d 0f 0f 5a 3c a9 1b c5 bd f4 68 e9 3c
       0.12159012 0.013309254 -0.096244164 0.028492428
000130 2d 73 fd 3d df 4d 36 3d c7 46 d2 3d 08 85 6a 3d
       0.12375484 0.044507857 0.10267406 0.057255775
000140 8c ab 9d bd 5d ed e9 bd 8c 0c de 3d 7b e9 4f bd
       -0.076987356 -0.114222266 0.10842237 -0.050759774
000150 2a 60 e6 bd 00 6b ed bd f4 3b ea bd 61 c2 d7 bc
       -0.112488106 -0.11592674 -0.114372164 -0.026337804
000160 49 ca 4a bd ec 48 82 3d 28 a1 07 be fa c4 6a 3d
       -0.04950932 0.06361565 -0.1324507 0.057316758
000170 84 2d 28 bd bc 5d 4f bd 58 64 be 3d fd 16 60 3d
       -0.041059032 -0.0506265 0.09296483 0.054709423
000180 d0 30 cc bd 83 52 95 bd 01 06 12 be c7 cc cc 3d
       -0.09970248 -0.072911285 -0.14260103 0.09999996
000190 02 f0 08 3e f5 7e 4c 3d f9 44 84 bd d8 65 a5 bd
       0.13372806 0.049925763 -0.06458468 -0.08076066
0001a0 6d bd 00 3e 27 e7 3b 38 92 24 e0 bd 47 46 83 3c
       0.1257226 4.479955e-05 -0.10944475 0.016024722
0001b0 37 b1 13 bc 8b 2c 9e bc 98 b6 ef bd 5f 21 75 3d
       -0.009014419 -0.01930835 -0.11704749 0.05984628
0001c0 5d cf 2e 3d f1 29 ff bd 29 8c 6a bc f5 b6 92 3d
       0.042678226 -0.124591716 -0.014315643 0.071638025
0001d0 60 f5 5a bd 04 11 f5 bd 97 fc 80 3c 93 bd 27 3c
       -0.053456664 -0.11966136 0.015745444 0.010238069
0001e0 05 a4 af bd ff 3b fd 3d d4 d0 3e 3c ab a8 5d 3d
       -0.08576206 0.12364959 0.011646468 0.054115932
0001f0 54 5e f0 3c 35 66 f4 3d c3 95 8d 3d a3 31 f1 bd
       0.029341854 0.11933557 0.069133304 -0.117770456
000200 dc f1 4b bd ea b5 0b 3e 38 4d 80 bd 40 55 45 bd
       -0.049791202 0.13643613 -0.06264728 -0.048177004
000210 27 63 80 3d 85 36 23 bc eb 89 5a 3d fd 06 bb 3d
       0.06268912 -0.009961729 0.053354185 0.09132192
000220 e1 8d 80 bd a2 b2 84 3c 07 0d 9d bd 23 a2 2c 3d
       -0.06277061 0.01619846 -0.076685004 0.042146813
000230 c0 23 d0 bc b1 f7 cc 3c b3 2d 23 bc e9 51 e6 3d
       -0.025407672 0.025020452 -0.009959626 0.11246092
000240 b0 f2 f9 bd d3 d9 e9 bd 4f 25 e6 3d 2c fe 81 3d
       -0.12204492 -0.114185 0.11237585 0.063473076
000250 f0 b7 08 3e 5f f7 9a bd 7f 4a 20 3d 71 9c f0 3b
       0.13351417 -0.075667135 0.039133545 0.007342868
000260 7c 36 b7 3d 63 2b 8b 3d 67 42 f9 3d 08 01 ba 3d
       0.08945939 0.06795385 0.12170868 0.09082228
000270 1c 2e 02 3e b3 3a 92 bd dc 16 88 bd 8c e5 05 3e
       0.12712902 -0.07140102 -0.06644985 0.13075846
000280 ed 38 ef 3c 8c 84 e8 bd 86 9a 4b bd a5 ba 48 3d
       0.029201949 -0.11353406 -0.049707912 0.049006123
000290 5e 92 81 bd 15 eb c9 bc 6e bf 41 bd f2 85 0f 3d
       -0.063267455 -0.024648229 -0.047301702 0.03503985
0002a0 bb 47 30 bd 8a a0 ab bd 7c bc 05 be 78 b5 9d 3d
       -0.043037158 -0.0838023 -0.13060182 0.07700628
0002b0 cc 8b f7 3d 15 ed 95 bd 48 e1 f5 3c 06 6b a1 bd
       0.12087211 -0.073206104 0.030014649 -0.07881741
0002c0 b8 e7 b9 bd 1f b7 ec bc a7 d9 51 3d 77 2f 54 3e
       -0.090774 -0.028895913 0.05123296 0.20721231
0002d0 06 7b e5 bc b2 50 dd bd 31 49 3d 3b 10 65 b9 3d
       -0.028012764 -0.10806407 0.0028882737 0.09052479
0002e0 0a a8 5e 3d 67 ff af bd e6 b8 02 3c 4d a9 4b 3d
       0.054359473 -0.08593636 0.007978654 0.049722005
0002f0 09 bd bd bd ca 66 20 3e a9 76 ca bd 68 99 02 3e
       -0.09264571 0.15664211 -0.09885914 0.12753832
000300 17 19 a1 3c 7b 20 9d 3b af 6a 84 3d 66 13 d2 bb
       0.019665284 0.0047951317 0.06465661 -0.006411004
000310 1a 27 26 bd 76 90 05 3e 44 5b 76 3d 41 7e c1 bd
       -0.040564634 0.13043389 0.06014563 -0.09447909

fc.weight f4 [1, 50]
000000 9f bb d3 3d 52 55 c5 bc 67 00 88 bd b9 50 db bd
       0.1033852 -0.024088535 -0.06640702 -0.10708756
000010 8f f2 d8 3b 8b c9 ea 3d 01 23 82 bd 1b 46 f6 bd
       0.006620712 0.114642225 -0.06354333 -0.1202509
000020 e3 f6 5c 3c 95 b1 0b be 03 01 01 be 5a 63 63 bc
       0.013486597 -0.13641961 -0.12598042 -0.013878668
000030 8c fa b1 bd e7 d5 9a 3d 81 ca 01 3d 5b 62 08 be
       -0.08690366 0.0756033 0.031687263 -0.1331877
000040 11 fa 06 3e 1a e8 e9 3d 43 44 bd 3d 2a 1d ca bd
       0.1318133 0.11421223 0.092415355 -0.09868844
000050 7c 0d e8 bb 04 1e 92 3d 72 27 d0 bd f0 95 09 3e
       -0.0070816856 0.07134631 -0.101637736 0.13436103
000060 36 11 77 bd 27 2d 2a bd 21 e6 1b bd eb 61 17 3e
       -0.060319148 -0.041546967 -0.038061265 0.14783446
000070 72 f8 8e 3d bd 30 5a bd 17 8b 03 3e e6 99 db 3d
       0.06980981 -0.053269137 0.12846027 0.10722713
000080 ad 74 03 be 84 25 11 3e ea 88 a4 3d 63 41 15 bb
       -0.12837477 0.14174467 0.08033927 -0.002277457
000090 f9 fe 35 bc a2 75 d3 3d 70 d3 d6 3d b8 99 bb 3d
       -0.0111081535 0.10325171 0.10489547 0.09160179
0000a0 a7 a9 a8 bb 71 8e 40 3d 40 dc b8 bd 16 2f 2c 3c
       -0.0051471773 0.047010843 -0.09026384 0.010509273
0000b0 db 78 b0 3d a6 36 07 bc 4a be 29 3d b5 46 17 be
       0.08616801 -0.008252775 0.04144124 -0.14773066
0000c0 e8 5e e1 3d 42 4a d0 3c
       0.1100443 0.025426034
