models/lstm_stock_model.pth (torch, 128213 bytes, 9 tensors)

lstm.weight_ih_l0 f4 [200, 1]
0	0xbe06daae	-0.13169357
1	0x3e27fc7e	0.16404912
2	0xbcc21a85	-0.023694286
3	0xbd611841	-0.05495477
4	0xbc22f05e	-0.009945003
5	0x3da52565	0.08063773
6	0xbcb58ac9	-0.022160904
7	0x3d987800	0.07444763
8	0x3dd91013	0.10598769
9	0xbdb4fe0a	-0.088375166
10	0x3e1b489c	0.15164417
11	0x3e08f8f0	0.13376212
12	0xbd14f6c0	-0.03636813
13	0xbd138aa2	-0.036020882
14	0xbd90106c	-0.07034382
15	0xbd142f4f	-0.03617793
16	0xbce2553c	-0.027628534
17	0xbda79ad1	-0.08183826
18	0xbd61e1f2	-0.05514712
19	0x3e2d3bd0	0.16917348
20	0xbd6d1db3	-0.05788965
21	0xbd3d2a85	-0.046183128
22	0xbd72f61c	-0.05931674
23	0x3e1a3dcc	0.15062636
24	0x3e12271b	0.1427273
25	0x3dcc5ee6	0.09979038
26	0xbd1afacf	-0.037836846
27	0x3d60de90	0.054899752
28	0x3e4540a7	0.19262944
29	0xbdd7975e	-0.10526918
30	0x3d08d80c	0.033409163
31	0x3de8b815	0.11363236
32	0xbd004cd7	-0.03132328
33	0xbc233543	-0.009961429
34	0x3cd03fc9	0.02542104
35	0x3df4b367	0.11948281
36	0xbbf72e4b	-0.0075433603
37	0x3dc6f456	0.09714572
38	0xbe239dbc	-0.1597814
39	0x3d9c2fc5	0.07626299
40	0x3c8446ea	0.016147096
41	0xbdcfb3f6	-0.10141747
42	0x3dbbee16	0.09176271
43	0x3df9fb71	0.12206162
44	0x3b2099ac	0.0024505658
45	0xbdab587a	-0.08366485
46	0x3d0b5592	0.034017153
47	0x3e01ae65	0.12664182
48	0xbb588375	-0.003303734
49	0xbdde5a5e	-0.1085708
50	0xbdc52689	-0.096264906
51	0x3d9f5527	0.077799134
52	0x3cbffe25	0.023436615
53	0xba3cc375	-0.0007200756
54	0x3d8e31d2	0.06943096
55	0xbe05abd2	-0.13053825
56	0xbde7f97e	-0.11326884
57	0x3b062574	0.00204691
58	0x3d323d6b	0.043515604
59	0xbca2f3c6	-0.01989163
60	0x3d41c347	0.04730537
61	0x3e344af5	0.17606719
62	0x3e403950	0.18771863
63	0x3d97b375	0.074072756
64	0x3c9dab19	0.019246625
65	0x3cfa4317	0.030549569
66	0xbd55acab	-0.052166622
67	0xbe0e73a3	-0.139113
68	0x3cd999ed	0.026562655
69	0x3d34a5c4	0.0441034
70	0xbcabcb1a	-0.02097087
71	0x3dabaf20	0.08383012
72	0x3d11942c	0.0355417
73	0xbd218c4e	-0.039440446
74	0xbd960afb	-0.07326313
75	0x3d097ff0	0.033569276
76	0xbc8df3e8	-0.017328218
77	0xbc592638	-0.013253741
78	0x3e38fd5c	0.18065399
79	0x3c7087d9	0.014680826
80	0x3d677d3c	0.056515917
81	0x3e199037	0.1499642
82	0x3d82954a	0.06376131
83	0x3debc51e	0.115122065
84	0xbdd55b2c	-0.1041778
85	0x3c491093	0.012272018
86	0xbccd854a	-0.025087971
87	0x3e0c2045	0.13684185
88	0xbdd3d43a	-0.103432134
89	0x3e405edd	0.18786187
90	0x3c829484	0.015939958
91	0x3db42187	0.08795457
92	0x3e500d78	0.20317638
93	0x3e5b03dc	0.21388191
94	0x3d7fcbd4	0.062450245
95	0x3ce7bad1	0.028287323
96	0xbc0f443c	-0.008744296
97	0x3d7430f1	0.059616987
98	0x3e14f18b	0.14545266
99	0x3d626e91	0.055281226
100	0xbdfc2430	-0.1231159
101	0xbdf84f0c	-0.12124452
102	0xbe3f8263	-0.18702082
103	0x3c7fe2c2	0.015618028
104	0xbd84e5b6	-0.064891264
105	0x3e05a730	0.13052058
106	0x3e582439	0.21107568
107	0x3d433f9b	0.04766808
108	0xbc7478d1	-0.014921383
109	0xbd29f64a	-0.041494645
110	0xbd90c527	-0.07068854
111	0x3ccb4d1b	0.02481704
112	0xbcc2367e	-0.023707625
113	0xbe65610d	-0.22400303
114	0x3e1bc43b	0.15211575
115	0xbd7741e5	-0.060365576
116	0x3e42e709	0.19033445
117	0xbe0518d7	-0.12997757
118	0xbdaa269e	-0.08308147
119	0x3d22f6f2	0.039786287
120	0xbd35efcf	-0.044418152
121	0x3e2367fe	0.15957639
122	0x3e3ed15d	0.18634553
123	0xbcb432ee	-0.021996941
124	0xbd98a16e	-0.07452665
125	0x3d0e47cc	0.03473644
126	0xbd4449d3	-0.047921967
127	0xbd1e12d0	-0.03859216
128	0xbe2f1d15	-0.17100938
129	0x3d165366	0.03670063
130	0x3c5c8cd8	0.013461314
131	0xbe0a354a	-0.1349689
132	0x3e11d40d	0.14241047
133	0xbe58aeed	-0.21160479
134	0xbb5089d9	-0.0031820445
135	0x3dd21156	0.10257213
136	0x3daad244	0.08340886
137	0xbe24cf02	-0.16094592
138	0xbda079ee	-0.07835756
139	0x3de56f59	0.112028785
140	0x3e4262f2	0.18983057
141	0x3e21572e	0.15755913
142	0x3e3621ba	0.17786303
143	0x3e08987d	0.1333942
144	0xbcb1129f	-0.021615325
145	0xbd06d1c5	-0.032914896
146	0xbc4811a7	-0.01221124
147	0xbd90ed70	-0.070765376
148	0x3d64cbd7	0.05585846
149	0xbdd0abd2	-0.10189022
150	0xbe133b73	-0.14378147
151	0xbccc3f2d	-0.024932468
152	0xbd2aeb79	-0.04172847
153	0x3e0252d5	0.1272691
154	0x3b229f70	0.002481427
155	0x3db77328	0.08957511
156	0xbd71f57a	-0.059071995
157	0x3e0df5c5	0.13863285
158	0x3e05d8f4	0.13071042
159	0x3d93d993	0.07219233
160	0x3e547d64	0.20750958
161	0xbcb32c14	-0.021871604
162	0x3e013882	0.12619212
163	0x3da9ac70	0.08284843
164	0x3de94208	0.113895476
165	0x3e2c1f96	0.16808924
166	0xbc122eb3	-0.008922267
167	0xbe4d4860	-0.2004714
168	0x3e038c22	0.12846425
169	0x3dec2c04	0.11531833
170	0xbd254283	-0.040346634
171	0x3e00968a	0.12557426
172	0x3e4f5233	0.202462
173	0x3d9b298c	0.07576284
174	0x3be8ccd2	0.0071044946
175	0x3d395343	0.04524542
176	0x3d86a558	0.065745056
177	0x3e05a63e	0.13051698
178	0x3e1c307b	0.15252869
179	0x3da534b8	0.08066696
180	0xbc0675c3	-0.0082067875
181	0x3d148882	0.036262996
182	0xbd9a8cee	-0.075464115
183	0x3e3fa3ca	0.18714824
184	0xbd4a9d38	-0.04946634
185	0x3d32284e	0.04349547
186	0xbd56019b	-0.052247625
187	0x3b904a77	0.004403408
188	0xbe093494	-0.13398963
189	0x3e1d3510	0.15352273
190	0x3d883289	0.06650264
191	0x3d45ef14	0.048323706
192	0x3dc8aab6	0.097981855
193	0x3de47853	0.111557625
194	0xbd772574	-0.060338452
195	0xbd8cb9c7	-0.06871372
196	0x3dd399a9	0.10332043
197	0x3df52489	0.11969859
198	0x3d815bdd	0.0631635
199	0xbcf17f05	-0.029479513

lstm.weight_hh_l0 f4 [200, 50]
0	0x3dcd5134	0.10025254
1	0x3db85382	0.09000303
2	0x3e20afac	0.15692014
3	0x3d999f95	0.07501141
4	0x3d55c106	0.052186035
5	0xbc129527	-0.0089466935
6	0xbdf37523	-0.118875764
7	0x3e0a3452	0.13496521
8	0xbd7373ee	-0.05943673
9	0x3d7abb92	0.061214037
10	0x3da31605	0.07963184
11	0x3deff3e5	0.11716441
12	0xbb22b30f	-0.0024825966
13	0x3e255ded	0.16149111
14	0x3d337a17	0.043817606
15	0xbd1e8698	-0.038702577
16	0x3d18fd7c	0.037351117
17	0xbcfc3471	-0.030786725
18	0x3dea90e5	0.11453418
19	0x3dd0656e	0.10175596
20	0xbc1f9957	-0.009741149
21	0xbbe08e0a	-0.00685287
22	0x3d9fecb5	0.0780882
23	0x3c646da2	0.013942154
24	0x3b921929	0.0044585657
25	0x3cd66d02	0.026175026
26	0xbdd5b421	-0.104347475
27	0x3da09c29	0.07842285
28	0x3d172c8a	0.03690771
29	0xbda92cda	-0.08260508
30	0xbe00c4db	-0.12575094
31	0x3d66b42d	0.056324173
32	0xbd66a529	-0.056309853
33	0xbc1c6a30	-0.009546801
34	0x3c4d7c85	0.012541895
35	0xbdd9bbf8	-0.10631555
36	0xbdd0ddf2	-0.10198583
37	0x3d66ec43	0.05637766
38	0xbca91dbe	-0.020644065
39	0x3d8de2bb	0.06928011
40	0xbd06645a	-0.032810546
41	0xbdec8cee	-0.11550318
42	0xbdc2acee	-0.0950564
43	0x3cbe407f	0.023224114
44	0xbe0cfeef	-0.13769124
45	0xbd6f4120	-0.058411717
46	0x3d82fbb2	0.06395663
47	0xbc0a54d8	-0.00844308
48	0xbde453ca	-0.11148794
49	0x3e05104b	0.12994497
50	0xbde9a0f7	-0.11407655
51	0xbdc5c776	-0.09657185
52	0x3cc013c4	0.023446925
53	0xbd2546b4	-0.04035063
54	0x3c19ae68	0.009379961
55	0xbce6c54c	-0.02817025
56	0xbd7030a9	-0.058640156
57	0x3df029eb	0.11726745
58	0x3be95dc3	0.007121773
59	0xbda6e1ac	-0.08148512
60	0xbce2a61b	-0.027667096
61	0x3c815ec1	0.015792252
62	0xbe078d6a	-0.13237539
63	0xbdee873a	-0.11646886
64	0xbd26dda8	-0.04073873
65	0x3cce0e45	0.025153289
66	0xbd97c361	-0.074103124
67	0xbc65fe5c	-0.014037695
68	0xbb607bfc	-0.0034253588
69	0xbe04f716	-0.12984881
70	0xbdbf9175	-0.093539156
71	0x3e2111dc	0.15729469
72	0x3d811ab8	0.06303924
73	0x3d9c3427	0.07627135
74	0xbe05df78	-0.13073528
75	0xbbbaf017	-0.0057048905
76	0x3e0d8183	0.13818936
77	0x3d80d05c	0.062897414
78	0x3db65397	0.08902662
79	0x3e01ae67	0.12664185
80	0x3dcf6cdd	0.10128186
81	0xbdddecf9	-0.108362146
82	0xbd2c5e2c	-0.042081997
83	0x3daa29f0	0.0830878
84	0x3d8cf1fc	0.06882092
85	0xbd73ecb2	-0.059551902
86	0x3e02947a	0.12751952
87	0xbe01eb70	-0.12687469
88	0x3dc3b0fe	0.09555243
89	0x3d1b9664	0.03798522
90	0x3cd29504	0.025705822
91	0xbd1efd80	-0.038815975
92	0xbd7bce22	-0.06147588
93	0xbdc91558	-0.09818524
94	0x3d877b96	0.06615369
95	0x3deb141f	0.11478447
96	0xbe0482ec	-0.12940568
97	0xbc0476e2	-0.0080849845
98	0xbd9972a6	-0.074925706
99	0xbda7c3cd	-0.08191643
100	0x3e310e0b	0.17290513
101	0xbdcaffc3	-0.09912064
102	0xbe154dac	-0.1458041
103	0x3d8f20fe	0.06988715
104	0x3e3dbc8a	0.18528953
105	0x3d6c184d	0.057640363
106	0xbe126a21	-0.14298297
107	0x3e4619c8	0.19345772
108	0x3c913a41	0.017727973
109	0x3de86887	0.11348062
110	0x3c268588	0.010163672
111	0xbdecb6c6	-0.11558299
112	0xbd3eb69b	-0.046560865
113	0x3dc23511	0.09482778
114	0x3b098a91	0.0020987133
115	0xbe39d191	-0.1814635
116	0x3cac1337	0.021005256
117	0x3e30ddbb	0.17272083
118	0xbe159a4f	-0.14609645
119	0xbe2049c6	-0.15653142
120	0x3e0df909	0.1386453
121	0x3e40ce00	0.18828583
122	0x3e2717c3	0.16317658
123	0x3e25c9be	0.1619024
124	0x3d8d8d23	0.06911685
125	0x3c9ec230	0.019379705
126	0xbceecae5	-0.029149482
127	0x3da11a96	0.07866399
128	0xbc8603eb	-0.01635929
129	0xbd921531	-0.07132948
130	0xbd1d1fb2	-0.038360305
131	0x3d7744a5	0.0603682
132	0xbc54d227	-0.012989557
133	0xbd6a3f5c	-0.05718933
134	0x3dd84d97	0.10561674
135	0x3e21a414	0.15785247
136	0x3e17f968	0.14841235
137	0x3d79e3ed	0.061008383
138	0xbcb65357	-0.022256536
139	0x3de2ad95	0.110682644
140	0xbd90f3ee	-0.07077776
141	0x3dc53786	0.09629731
142	0x3dbab767	0.091170125
143	0xbce173df	-0.027521072
144	0xbde66091	-0.11248887
145	0x3e0da9d4	0.13834316
146	0x3e33a22f	0.17542337
147	0xbda3e79e	-0.08003162
148	0xbde0f238	-0.109836996
149	0xbc3198dc	-0.010839667
150	0xbd2b0fd1	-0.04176313
151	0xbc854f2e	-0.016273107
152	0x3c724ae3	0.014788362
153	0xbc31cc2e	-0.010851903
154	0x3d850d7c	0.064967126
155	0xbd9248ab	-0.071427666
156	0x3e11251b	0.14174311
157	0xbd76b952	-0.06023533
158	0x3e056fbe	0.13030908
159	0x3bf8b38b	0.0075897626
160	0x3c91cda8	0.01779826
161	0xbd40398f	-0.046929892
162	0xbde85e85	-0.11346153
163	0xbdcb4b6b	-0.09926494
164	0x3dc40a07	0.09572225
165	0x3e026767	0.12734757
166	0x3da66b31	0.08125914
167	0xbd07ce6f	-0.033155855
168	0xbd166478	-0.03671691
169	0xbcc3119a	-0.023812104
170	0xbd9a1b4c	-0.07524738
171	0x3d881f02	0.06646539
172	0xbd3e070a	-0.04639343
173	0x3b4d3fb8	0.0031318497
174	0xbdae27d1	-0.08503688
175	0x3cb5a599	0.02217369
176	0xbe05ba21	-0.13059284
177	0xbb9fdc90	-0.004878588
178	0xbdd1cde9	-0.10244352
179	0xbbf9873a	-0.007614997
180	0xbdd48948	-0.10377747
181	0x3d860b85	0.06545166
182	0x3d35430e	0.0442534
183	0xbc99fb77	-0.018796666
184	0x3dee6d6b	0.116419636
185	0xbe01da91	-0.12681033
186	0x3e1715af	0.14754365
187	0x3da48c58	0.08034581
188	0xbdbd8e9e	-0.09255718
189	0x3dc9ff42	0.0986314
190	0x3d6c54a8	0.057697922
191	0x3e326f93	0.17425375
192	0x3e17d2ef	0.14826559
193	0xbdd14ed2	-0.10220112
194	0x3dac0bae	0.08400665
195	0xbd4a1ee3	-0.049345862
196	0x3dee9584	0.116496116
197	0x3c8341dd	0.016022617
198	0x3dd0b166	0.10190086
199	0x3d84bd39	0.06481404
200	0xbac4f9d3	-0.0015028067
201	0x3d996e97	0.074917965
202	0x3dea6fba	0.114470914
203	0xbd0b58f0	-0.034020364
204	0xbe06d1b9	-0.1316594
205	0xbdea4a9c	-0.11440012
206	0xbcbf11ad	-0.023323858
207	0x3d1eb710	0.0387488
208	0x3ba97c16	0.005172263
209	0x3d4ffeae	0.05077999
210	0xbc27e269	-0.0102468515
211	0xbc3e8c26	-0.011630094
212	0xbde07b5a	-0.109610274
213	0x3d1ee352	0.03879101
214	0x3da58f16	0.08083932
215	0xbd83a1f8	-0.064273775
216	0xbd809e99	-0.0628025
217	0x3ded487d	0.11586092
218	0xbd0b05e9	-0.033941183
219	0xbdca9600	-0.098918915
220	0x3d6a478e	0.057197146
221	0x3e0ff541	0.140584
222	0xbd03cd33	-0.032178115
223	0x3a5665f2	0.0008178643
224	0xbd55df73	-0.05221505
225	0xbde72ea9	-0.112881966
226	0xbda560f4	-0.08075133
227	0xbdcaf65e	-0.09910272
228	0xbdeb89c7	-0.11500888
229	0x3e15ae26	0.14617214
230	0xbdd6ff3d	-0.104979016
231	0xbdcf66a3	-0.10126998
232	0x3e0f7ac5	0.14011677
233	0xbe012a22	-0.12613729
234	0xbcd089dc	-0.025456361
235	0x3cf39723	0.029735154
236	0x3cdefd51	0.0272204
237	0x3df34395	0.118781246
238	0xbe222be4	-0.15837055
239	0xbd80d8d4	-0.06291357
240	0x3e29ab7b	0.16569321
241	0xbc6fe8f7	-0.0146429455
242	0x3d442260	0.047884345
243	0x3d3554cd	0.044270325
244	0xbde9c3e2	-0.11414315
245	0xb9de4e62	-0.0004240154
246	0xbb83f4a1	-0.004026965
247	0x3da30b60	0.07961154
248	0x3d5f846e	0.054569654
249	0x3d8c8578	0.06861395
250	0xbda32758	-0.079664886
251	0xbd2fd5df	-0.042928573
252	0x3d257655	0.040396053
253	0x3e014045	0.12622173
254	0x3dd0fa55	0.10203997
255	0x3da2f2d7	0.07956474

lstm.bias_ih_l0 f4 [200]
0	0xbda93358	-0.08261746
1	0xbc672bb5	-0.014109542
2	0x3e39058e	0.18068525
3	0x3de37012	0.1110536
4	0xbdbc7af7	-0.09203141
5	0xbd803c6c	-0.062615246
6	0x3d711b47	0.058863904
7	0xbd52b14b	-0.05143861
8	0x3adc99d8	0.0016830517
9	0xbc14b2ed	-0.009075862
10	0xbb7c98d3	-0.0038543239
11	0xbdefe381	-0.11713315
12	0x3c2f9cfb	0.010718579
13	0x3e6be282	0.23035625
14	0xbd6a3a26	-0.05718436
15	0xbda4c8d7	-0.0804612
16	0x3cb26182	0.021775011
17	0xbc459a13	-0.01206066
18	0xbd14cb8c	-0.03632693
19	0xbd90860d	-0.07056818
20	0x3cddbb63	0.027066892
21	0xbcb6982d	-0.02228936
22	0x3ba6b2a1	0.005087212
23	0x3d82fee8	0.06396276
24	0x3d2c7ee8	0.042113215
25	0xbe20882d	-0.15676947
26	0x3dba2246	0.090885684
27	0x3d414d19	0.047192667
28	0x3e204a5c	0.15653366
29	0xbb89f167	-0.0042096856
30	0xbdedd384	-0.11612609
31	0x3dfa2402	0.12213899
32	0x3e4179f3	0.18894176
33	0x3e32cc6c	0.17460793
34	0xbdc6ce7f	-0.09707355
35	0xbdcf5e57	-0.10125416
36	0x3d97cd4d	0.07412205
37	0xbd97d91f	-0.074144594
38	0x3d8d2f8a	0.06893833
39	0x3e0596d8	0.13045824
40	0x3d954433	0.072883986
41	0x3e3e36d1	0.18575598
42	0xbce2704a	-0.027641434
43	0xbdb94365	-0.090460576
44	0x3d161343	0.036639463
45	0x3d52cca1	0.05146468
46	0xbd64ed4a	-0.05589036
47	0xbca538ca	-0.02016868
48	0x3d908b4a	0.07057817
49	0x3cbb2d6f	0.022848813
50	0x3ceb78a3	0.028744048
51	0xbd59d854	-0.053184822
52	0x3c7d34f4	0.01545452
53	0x3e0ca2a2	0.13733914
54	0x3ded4a18	0.11586398
55	0xbd17b8bc	-0.03704141
56	0x3d9ad554	0.0756022
57	0xbcc91489	-0.024545925
58	0x3ca855a0	0.020548642
59	0xbc21b7fd	-0.009870526
60	0x3e06ae30	0.13152385
61	0x3d2811f5	0.04103275
62	0xbdca0a3d	-0.09865234
63	0xbc6fa4f5	-0.014626731
64	0x3e2cbf58	0.16869867
65	0x3e0c779f	0.13717507
66	0xbbb5f694	-0.005553076
67	0xbdbe2d70	-0.0928601
68	0xbd8a4699	-0.06751747
69	0x3db59a3e	0.0886731
70	0x3d98398d	0.07432852
71	0x3e036283	0.12830548
72	0xbd5c7173	-0.05381913
73	0x3d247ae5	0.040156264
74	0xbd81f899	-0.06346244
75	0xbda5f00f	-0.08102428
76	0xbd85f5a6	-0.06540994
77	0x3cd5a951	0.026081713
78	0xbd58b5a7	-0.052907612
79	0x3d388295	0.045046408
80	0x3dd92b2e	0.10603939
81	0xbdb598e2	-0.08867051
82	0x3c4d7685	0.012540464
83	0x3d1523af	0.036410984
84	0xbe204e88	-0.15654957
85	0xbcae787b	-0.021297684
86	0xbdbfe97f	-0.09370708
87	0xbd7cf875	-0.061760385
88	0xbd258fed	-0.04042046
89	0x3e14a34e	0.14515421
90	0xbd68e963	-0.0568632
91	0x3cf8a626	0.030352663
92	0xbdd05231	-0.10171927
93	0x3d4a6f5e	0.049422614
94	0x3d83c91b	0.06434842
95	0x3d9fbc14	0.07799545
96	0x3da792b0	0.08182275
97	0xbdddc743	-0.10829022
98	0x3de41c51	0.111382134
99	0xbd82ea4b	-0.06392344
100	0xbb88b7a6	-0.004172283
101	0xbdd43e6d	-0.10363469
102	0xbd85e8cb	-0.06538542
103	0x3e121db1	0.14269139
104	0x3dbe45eb	0.092906795
105	0x3b12156e	0.0022290605
106	0xbd8b3266	-0.06796722
107	0x3d02bd04	0.03191854
108	0xbdabcfb0	-0.083892226
109	0xbdddf784	-0.108382255
110	0xbda02393	-0.07819285
111	0xbd69f16d	-0.057115007
112	0xbdd4c992	-0.10390009
113	0x3dc1d59b	0.0946457
114	0xbe01ddf4	-0.12682325
115	0x3dba3ee6	0.09094028
116	0x3d3e8b9e	0.046519868
117	0x3d3b7289	0.045763526
118	0x3da4a6fc	0.08039662
119	0xbceab54c	-0.028650902
120	0x3d0fac13	0.035076212
121	0x3da43698	0.080182254
122	0x3e0d2d26	0.13786754
123	0x3d9b2627	0.07575636
124	0xbd9cb2d5	-0.07651297
125	0xbde49298	-0.11160773
126	0x3db10174	0.08642855
127	0x3e057edd	0.13036676
128	0xbe05a8d0	-0.13052678
129	0xbe06fbed	-0.1318204
130	0xbdc7d8b8	-0.09758133
131	0xbd7ce311	-0.061739985
132	0x3d76c56d	0.060246874
133	0x3dcd29ad	0.10017715
134	0xbd844d8f	-0.06460106
135	0xbbf4b864	-0.00746827
136	0x3e07dcfc	0.13267893
137	0xbe12747d	-0.14302249
138	0x3dc8497b	0.0977964
139	0x3c92090a	0.017826576
140	0xbb8ec7d2	-0.0043573165
141	0x3d12d006	0.035842918
142	0x3e080cdc	0.13286155
143	0x3d24670a	0.04013733
144	0xbe0042cb	-0.1252548
145	0x3dbdfae8	0.09276372
146	0x3d12225a	0.03567729
147	0xbddd04f2	-0.10791959
148	0xbdde811f	-0.10864472
149	0x3e133ea6	0.14379367
150	0x3bdaa923	0.0066729947
151	0x3d76ebac	0.060283348
152	0x3e07ae2e	0.13250038
153	0xbdaa7dfb	-0.0832481
154	0x3db76732	0.0895523
155	0x3d1e6990	0.03867489
156	0x3d92e5f0	0.07172763
157	0xbd1e563e	-0.038656466
158	0xbcac6692	-0.021045003
159	0xbd9accb4	-0.07558575
160	0xbda32d72	-0.079676524
161	0xbda4a8dc	-0.0804002
162	0x3d0b5565	0.034016985
163	0x3e47052a	0.19435564
164	0xbd2672d4	-0.040636852
165	0x3d9ffea5	0.078122415
166	0xbbb580a8	-0.0055390187
167	0x3d9df6bb	0.07713076
168	0x37055888	7.9480305e-06
169	0x3dfb86ff	0.12281608
170	0x3dde0c2b	0.108421646
171	0x3e05c33c	0.13062757
172	0x3d90c63b	0.070690595
173	0x3dd2444e	0.10266934
174	0xbdbc5382	-0.09195615
175	0xbd95363a	-0.072857335
176	0xbd9979f7	-0.07493966
177	0x3d7f0116	0.062256895
178	0x3d6f1774	0.058371976
179	0x3b69e247	0.003568785
180	0xbda80629	-0.082043
181	0x3d8ba562	0.06818654
182	0x3da5b423	0.08090999
183	0x3bf9e0a6	0.007625657
184	0xbc8dc0c6	-0.017303836
185	0xbdda5fdc	-0.10662815
186	0x3df880e4	0.12133959
187	0xbd1da7f3	-0.038490247
188	0xbe0cdded	-0.13756533
189	0x3dde08df	0.10841536
190	0xbd7d39d8	-0.061822742
191	0x3dba6ea6	0.09103136
192	0x3ded467d	0.1158571
193	0x3e0ffb89	0.14060797
194	0x3d6c1f3e	0.057646982
195	0xbdc530a4	-0.09628418
196	0x3d90c709	0.07069213
197	0xbe0786b5	-0.1323498
198	0xbdf29fba	-0.11846872
199	0x3cd38317	0.025819344

lstm.bias_hh_l0 f4 [200]
0	0x3e0093a6	0.12556323
1	0x3c1fda9f	0.009756713
2	0xbd2827b4	-0.04105349
3	0x3e064521	0.13112308
4	0x3d4dd6dc	0.050253734
5	0x3de6222f	0.11236989
6	0x3e1d8ae9	0.15385021
7	0xbd24d1b8	-0.040239066
8	0xbdf00034	-0.11718789
9	0x3e11f770	0.14254546
10	0xbd24e742	-0.040259607
11	0x3c088aba	0.008333856
12	0x3d4efe0f	0.050535258
13	0x3deb3c74	0.1148614
14	0xbce6c978	-0.02817224
15	0xbd971a59	-0.07378072
16	0x3e8b191e	0.271676
17	0x3d918f3e	0.071073994
18	0xbde1f1e2	-0.110324636
19	0x3deeb355	0.116552986
20	0xbce184a7	-0.027529074
21	0x3c39377a	0.011304731
22	0x3dc548b7	0.0963301
23	0xbca31d9b	-0.019911578
24	0x3d853399	0.06503982
25	0x3d544889	0.051826987
26	0xbdd1ccf6	-0.10244171
27	0xbb80106a	-0.0039082067
28	0xbdcdcfb7	-0.10049384
29	0x3dc56f1d	0.09640334
30	0x3dd8ddef	0.105892055
31	0xbdb2bc87	-0.08727365
32	0xbcea898f	-0.028630046
33	0x3e214cab	0.15751903
34	0xbdb02285	-0.08600334
35	0xbe017eac	-0.12645978
36	0x3e18b8e6	0.14914283
37	0xbdccf517	-0.10007685
38	0xbdb02a18	-0.08601779
39	0x3c805645	0.015666137
40	0xbd8655d9	-0.06559343
41	0x3dc4b39a	0.09604569
42	0xbd5e5002	-0.05427552
43	0x3dfbddcd	0.122981645
44	0xbe055a8d	-0.13022824
45	0xbdc4ac8f	-0.096032254
46	0x3d911e84	0.070858985
47	0xbdf9e04b	-0.122009836
48	0xbdec28cc	-0.11531219
49	0x3ddc6321	0.10761095
50	0xbd8fb1db	-0.07016345
51	0x3b73c830	0.0037198178
52	0xbc4bd918	-0.012441896
53	0x3e11ecd8	0.14250505
54	0x3a27f9d5	0.00064077723
55	0xbd8a1c44	-0.067436725
56	0xbcc4ccf0	-0.024023503
57	0x3d927689	0.07151515
58	0x3da5b50b	0.08091172
59	0xbdd4db75	-0.103934206
60	0x3d913884	0.070908576
61	0xbbfb407f	-0.0076676006
62	0xbdc1c9fd	-0.09462354
63	0x3e2c1955	0.16806538
64	0x3e37e072	0.17956713
65	0xbdd0fb85	-0.102042235
66	0xbd4dfeba	-0.050291754
67	0x3e0372e0	0.1283679
68	0x3ddb9301	0.10721398
69	0xbd9d2401	-0.07672883
70	0x3d43d039	0.047806
71	0x3d158dea	0.036512293
72	0x3d01fa97	0.03173312
73	0x3e193a32	0.14963606
74	0x3d95456d	0.072886325
75	0x3bd08638	0.0063636564
76	0x3ddef126	0.10885839
77	0x3d58d1ed	0.052934576
78	0x3da189a8	0.07887584
79	0x3dad8a96	0.08473699
80	0x3ccbc72a	0.024875242
81	0x3d6dd81e	0.058067434
82	0x3e17a7b3	0.14810066
83	0xbbfcd2eb	-0.007715573
84	0x3d1100fb	0.035401326
85	0x3d90d1ed	0.0707129
86	0xbd8e2f7a	-0.06942649
87	0x3df6382c	0.12022433
88	0xbc97ff0d	-0.018554235
89	0xbd85d14e	-0.06534062
90	0xbdd5d88b	-0.10441693
91	0xbcd1e7a1	-0.025623145
92	0x3e087315	0.1332515
93	0xbd58cf58	-0.052932113
94	0xbd7f50a6	-0.06233277
95	0xbd26eab3	-0.04075117
96	0x3e02749d	0.12739797
97	0x3c9ef9f9	0.019406306
98	0x3c7c4e19	0.015399479
99	0xbdc4e099	-0.09613151
100	0xbc0f56f3	-0.008748758
101	0x3db743bf	0.089484684
102	0x3c9f6ce3	0.0194611
103	0x3dc8b444	0.09800008
104	0x3d9c04db	0.076181136
105	0xbd737e10	-0.059446394
106	0xbcbfb5b1	-0.023402067
107	0x3d22691a	0.039651014
108	0x3a91fb37	0.001113749
109	0x3e1d42d7	0.15357529
110	0xbcfd1738	-0.03089486
111	0xbd00cbe0	-0.03144443
112	0x3e0a6665	0.13515623
113	0xbba67b5a	-0.0050806226
114	0x3cb09568	0.021555617
115	0xbe1ae680	-0.15126991
116	0xbd948d96	-0.07253568
117	0x3b8323c2	0.0040020654
118	0xbd757291	-0.059923712
119	0xbe0775f1	-0.13228585
120	0x3e002ade	0.12516353
121	0xbd081965	-0.033227343
122	0x3dac2a82	0.08406545
123	0x3db52401	0.08844758
124	0xbd13599e	-0.035974137
125	0x3db4b9f1	0.08824528
126	0x3bd953a9	0.0066322875
127	0x3d8838d2	0.066514626
128	0xbca6a341	-0.020341517
129	0xbd6cefe7	-0.057845976
130	0xbddb0a4a	-0.10695322
131	0xbdf5056e	-0.11963926
132	0xbd7946b3	-0.06085844
133	0xbdf10238	-0.11768001
134	0x3d7604c7	0.06006315
135	0xbd979b56	-0.07402675
136	0xbded52a8	-0.11588031
137	0xbd2ef44a	-0.04271344
138	0xbc670bed	-0.014101964
139	0x3ddbf8dc	0.107408255
140	0xbdfdd885	-0.123948134
141	0xbdc1811a	-0.09448452
142	0x3ce4a81e	0.027912196
143	0x3e024a21	0.1272359
144	0x3d3a5444	0.04549052
145	0xbd897de7	-0.06713467
146	0x3d8a6091	0.067567
147	0xbd804c6f	-0.062645786
148	0xbe0a6e7b	-0.13518707
149	0x3d9b5154	0.075838715
150	0xbc3c7295	-0.011501928
151	0xbd3b9fbb	-0.045806628
152	0xbd2539e3	-0.04033841
153	0xbceffbd6	-0.02929489
154	0xbd47432d	-0.04864805
155	0xbde47112	-0.11154379
156	0x3df7755d	0.12082932
157	0x3de73083	0.1128855
158	0x3e1a77b7	0.1508473
159	0xbdea5579	-0.11442084
160	0xbdb5b31e	-0.088720545
161	0x3e0a96a9	0.13534035
162	0x3d1aeb35	0.037821967
163	0x3d90d6af	0.07072198
164	0x3dc0e7ef	0.09419238
165	0xbbad7c93	-0.0052943914
166	0x3d872e40	0.06600618
167	0xbdcc997b	-0.099902116
168	0xbc81e064	-0.015854068
169	0xbdda3ff7	-0.106567316
170	0x3d005590	0.0313316
171	0x3ca08c0a	0.019598026
172	0x3db0870f	0.086195104
173	0xbdbd1a93	-0.09233584
174	0xbd0df69c	-0.034659013
175	0xbcb2931f	-0.021798668
176	0x3e1b1d27	0.1514784
177	0x3dcb1a87	0.09917169
178	0x3c821276	0.015877943
179	0x3c9421be	0.018082496
180	0x3d9c7411	0.076393254
181	0xbce2a8a6	-0.027668308
182	0xbd727cda	-0.0592011
183	0x3e19cc3d	0.15019317
184	0xba2ef261	-0.00066736905
185	0x3dbcdb3e	0.09221505
186	0xbd7ab827	-0.061210778
187	0x3d8745f2	0.06605138
188	0x3da8ce05	0.0824242
189	0x3cd0af23	0.025474137
190	0xbd866b38	-0.06563419
191	0xbd9ef6e1	-0.07761932
192	0xbc39e6de	-0.011346547
193	0x3dff4c57	0.124657325
194	0x3c20180e	0.00977136
195	0xbcad8ad4	-0.021184362
196	0xbdfac162	-0.12243916
197	0xbdb0871b	-0.08619519
198	0x3e08e702	0.13369372
199	0x3d2b332a	0.04179684

lstm.weight_ih_l1 f4 [200, 50]
0	0x3dc737de	0.09727453
1	0xbd2a71df	-0.041612502
2	0xbdf3144d	-0.118691064
3	0x3db2ae4c	0.08724651
4	0xbdc4ce74	-0.0960969
5	0xbd5783b7	-0.052615847
6	0xbb16d216	-0.0023013405
7	0xbd9a9b23	-0.07549121
8	0xbba336ec	-0.0049809124
9	0x3dfa3ba0	0.12218404
10	0xbcc1333e	-0.023584004
11	0xbd315f30	-0.04330367
12	0xbdf68e33	-0.12038841
13	0x3e2b9eee	0.16759846
14	0xbe009e7d	-0.12560458
15	0xbde069d3	-0.10957684
16	0xbdeccd8a	-0.11562641
17	0xbd80f3ce	-0.06296502
18	0x3d158aa8	0.036509186
19	0x3dc3ef00	0.0956707
20	0xbc1cde86	-0.009574538
21	0xbe096aaa	-0.13419595
22	0xbe05674b	-0.13027684
23	0xbdcc0dcc	-0.09963569
24	0x3c524df8	0.012835972
25	0x3d5a7fb2	0.053344436
26	0xbd8f0f0d	-0.069852926
27	0x3dc1d2de	0.09464048
28	0xbd2fe6b5	-0.04294463
29	0xbca74b6c	-0.020421706
30	0xbdb51063	-0.08841016
31	0x3d27a3e0	0.040927768
32	0xbde5e6da	-0.11225672
33	0x3e0bfc1f	0.13670395
34	0xbd75478c	-0.059882686
35	0xbd304b9c	-0.043040857
36	0xbe0a9b06	-0.13535699
37	0x3d24d704	0.040244117
38	0xbdded35f	-0.108801596
39	0xbdc1de19	-0.0946619
40	0x3c8f2b23	0.017476624
41	0xbe128e06	-0.1431199
42	0xbcf2c8fe	-0.029636856
43	0x3bc8f4b2	0.0061326856
44	0x3dcf7f38	0.10131687
45	0x3db03cf5	0.08605377
46	0xbdb6bfde	-0.089233145
47	0x3e19b650	0.15010953
48	0xbc0aa455	-0.008462031
49	0x3d5eedf2	0.05442614
50	0x3daf69f8	0.08565134
51	0x3cd3188b	0.025768539
52	0xbe2f26fc	-0.17104715
53	0x3d829859	0.06376714
54	0xbe08202f	-0.13293527
55	0xbb61b9c3	-0.0034442998
56	0x3d8b3366	0.06796913
57	0xbddaf3a8	-0.10691005
58	0x3d7996f5	0.06093498
59	0xbdd182f8	-0.102300584
60	0x3d1b2209	0.037874255
61	0xbddf2f3d	-0.10897682
62	0xbdc558e9	-0.09636099
63	0x3cb92673	0.022601342
64	0x3dcaef8b	0.099089704
65	0xbde2a246	-0.110661075
66	0x3e60cad5	0.21952374
67	0x3d8c0480	0.06836796
68	0xba804998	-0.0009787558
69	0xbde4918f	-0.111605756
70	0x3d64b3cf	0.05583554
71	0x3caf0196	0.02136306
72	0xbd5b2789	-0.0535045
73	0x3e056b48	0.13029206
74	0x3c5d5202	0.013508322
75	0x3aac8764	0.0013162908
76	0x3ce5c369	0.02804728
77	0xbd631c5e	-0.055446975
78	0xbc8bc149	-0.017059939
79	0xbca8fd5f	-0.02062863
80	0x3dca5734	0.09879914
81	0xbe125dc0	-0.14293575
82	0x3c412886	0.011789447
83	0xbcfda15d	-0.030960733
84	0x3a5f6bd1	0.0008522841
85	0x3d0fbae2	0.035090335
86	0x3da0c583	0.07850172
87	0x3d8c1870	0.068405986
88	0xbe10f84b	-0.14157216
89	0x3cc3c216	0.023896258
90	0x3da8e341	0.0824647
91	0xbd8529a5	-0.06502084
92	0x3ca8b657	0.020594759
93	0x3d0224d3	0.0317734
94	0x3c384a5b	0.0112481965
95	0x3d4517ac	0.04811828
96	0xbdf6fcf6	-0.12059967
97	0x3d64558f	0.055745658
98	0xbccab982	-0.02474666
99	0x3ca17313	0.019708192
100	0xbd0c4757	-0.034247722
101	0xbd9c37a9	-0.07627804
102	0xbc3a508d	-0.011371744
103	0x3ddc71df	0.10763907
104	0x3d665792	0.056235857
105	0xba1f4ad3	-0.00060765183
106	0x3d8b1f80	0.067931175
107	0x3d9cee33	0.076626204
108	0x3cf4bf1a	0.02987628
109	0x3e09657a	0.13417616
110	0x3df49d69	0.11944086
111	0xbd909c6a	-0.070610836
112	0xbd8c8541	-0.06861354
113	0xbd92fcb5	-0.07177106
114	0xbe0794bb	-0.1324033
115	0xbd6080f1	-0.054810468
116	0xbd97c736	-0.07411043
117	0xbd23ab37	-0.039958205
118	0xbc433be2	-0.011916133
119	0x3c87e1a5	0.016587088
120	0x3db2ef74	0.08737078
121	0xbdf024c3	-0.11725762
122	0xbe1f9ebe	-0.15587899
123	0xbdbfc3f9	-0.09363551
124	0x3be35be4	0.0069384445
125	0x3d8881fc	0.066654176
126	0xbdac70c7	-0.08419948
127	0x3d5fd889	0.054649863
128	0xbdc75652	-0.09733261
129	0xbda23446	-0.079201266
130	0xbdbf85ec	-0.093517154
131	0x3e0ead94	0.13933402
132	0xbbabd434	-0.0052438024
133	0x3de86504	0.11347392
134	0xbde53a9a	-0.11192818
135	0x3ce78d56	0.028265636
136	0xbc1a0234	-0.009399939
137	0x3de214cf	0.11039125
138	0xbdd7ddee	-0.105403766
139	0x3df7d818	0.121017635
140	0x3d8e0a0e	0.069355115
141	0x3d0df298	0.034655184
142	0x3c1105de	0.0088514965
143	0xbdb0c8d7	-0.08632057
144	0x3d027ad5	0.031855423
145	0xbdbe6774	-0.09297076
146	0x3dcaaba8	0.09896022
147	0xbda2b664	-0.079449445
148	0x3a40fb53	0.0007361669
149	0x3da1fabd	0.07909153
150	0xbd3f319d	-0.046678174
151	0x3d7b54d8	0.06136021
152	0xbe1f4270	-0.15552688
153	0x3e2158df	0.15756558
154	0xbd14f4f3	-0.036366414
155	0xbdd642d6	-0.10461967
156	0x3de38f87	0.1111136
157	0x3d6038a6	0.054741524
158	0xbd2d41da	-0.04229913
159	0xbd748cc5	-0.05970456
160	0x3daf5776	0.08561604
161	0xb9810175	-0.00024605883
162	0x3e06be1d	0.1315846
163	0x3d645610	0.055746138
164	0x3d759722	0.059958585
165	0xbda4ffa5	-0.08056573
166	0x3e28c157	0.16480003
167	0xbdccdddb	-0.10003253
168	0xbd935090	-0.071931005
169	0x3c0d5d1a	0.008628154
170	0x3cda88f0	0.026676625
171	0x3d8e8dde	0.06960653
172	0xbd961958	-0.07329053
173	0xbcd22ece	-0.025657084
174	0xbdd81710	-0.10551274
175	0x3caf9873	0.021434998
176	0x3e0b2361	0.13587715
177	0x3c2819e6	0.010260081
178	0xbc826957	-0.01591937
179	0x3d088864	0.033333197
180	0x3cadaeb8	0.021201476
181	0xbdce72d2	-0.10080494
182	0xbdb8d6f8	-0.09025377
183	0xbd31f276	-0.04344412
184	0xbd11258c	-0.035436198
185	0xbc8e65de	-0.017382558
186	0xbd110404	-0.03540422
187	0x3d2a344d	0.041553784
188	0xbb9c3c74	-0.0047679488
189	0xbdd06ba8	-0.10176784
190	0x3cb0939b	0.021554759
191	0x3e2cad9d	0.16863103
192	0xbdb4fba8	-0.08837062
193	0xbd9a7980	-0.075427055
194	0xbddd7a5a	-0.10814352
195	0x3dd31355	0.10306422
196	0x3c0ae4e8	0.008477427
197	0xbd9857b9	-0.07438607
198	0x3beb0627	0.0071723643
199	0x3d9844f1	0.074350245
200	0x3d4f82f8	0.05066201
201	0xbd714c5d	-0.058910716
202	0xbd41561b	-0.047201257
203	0xbd03c7c6	-0.03217294
204	0x3d868c3c	0.06569716
205	0xbc6e02c6	-0.014527028
206	0x3e440a21	0.19144489
207	0xbc80efae	-0.015739288
208	0xbdd853d2	-0.105628625
209	0x3d9b20d6	0.07574622
210	0x3dda61b0	0.10663164
211	0x3df3cda1	0.11904455
212	0x3dd300a2	0.10302855
213	0xbde7cf51	-0.11318839
214	0x3e13c25a	0.14429608
215	0x3d97d99d	0.07414553
216	0x3e6e006a	0.23242345
217	0xbd60ccce	-0.054882817
218	0x3dad7002	0.084686294
219	0xbd3799d9	-0.044824455
220	0x3dd2c736	0.10291903
221	0x3e0e597e	0.13901326
222	0xbde414b1	-0.11136759
223	0x3e027205	0.12738807
224	0xbe015f15	-0.12633927
225	0xbd9c3b79	-0.07628531
226	0xbd3d13ea	-0.04616157
227	0x3d926f96	0.071501896
228	0xbde06f0f	-0.10958683
229	0xbd6653b0	-0.056232154
230	0x3debb4a4	0.11509064
231	0x3ddd7ff6	0.10815422
232	0x3d4b486d	0.049629617
233	0xbd7f50e4	-0.062333003
234	0x3c33a48f	0.010964527
235	0xbd9faecc	-0.07797012
236	0xbd6701ce	-0.056398205
237	0xbdb080ce	-0.086183175
238	0xbdd83f46	-0.105589435
239	0x3ddcc69a	0.10780068
240	0xbb26864b	-0.0025409635
241	0x3e554a9d	0.20829244
242	0x3e015ea5	0.1263376
243	0x3d3da0d9	0.046295974
244	0x3df73414	0.1207048
245	0xbd2987ec	-0.04138939
246	0xbd0b532b	-0.034014862
247	0x3c6e339e	0.014538674
248	0xbd9ace69	-0.07558901
249	0xbddb8545	-0.107187785
250	0xbe1920b8	-0.14953887
251	0x3d12e4d6	0.035862766
252	0xbe2db59a	-0.16963807
253	0xbc4f3283	-0.01264632
254	0x3e12ee02	0.14348605
255	0x3c707b2b	0.014677803

lstm.weight_hh_l1 f4 [200, 50]
0	0x3e1eeb45	0.15519436
1	0xbd12726e	-0.03575366
2	0x3da1a03b	0.0789189
3	0xbd21c596	-0.039495073
4	0x3d9f578d	0.07780371
5	0xbd231ed3	-0.03982432
6	0xbd38967d	-0.04506539
7	0xbd99a4f2	-0.07502164
8	0xbcc738a1	-0.024318995
9	0x3c9c4b83	0.019078976
10	0x3d7dbde3	0.06194867
11	0x3d9b1e3c	0.07574126
12	0xbdd868eb	-0.105668865
13	0x3b36c13d	0.0027886175
14	0x3dab41e2	0.083621755
15	0xbd3376a3	-0.043814313
16	0xbe287162	-0.16449502
17	0x3dfd7b38	0.12377018
18	0xbe0f3aaa	-0.13987222
19	0x3dd225d5	0.10261122
20	0x3df6a766	0.120436475
21	0xbd8a4c07	-0.06752782
22	0xbe184878	-0.14871395
23	0x3d0a0af5	0.033701856
24	0x3c876db1	0.016531797
25	0xbda66507	-0.08124738
26	0x3e00c031	0.12573315
27	0x3c4ddffd	0.01256561
28	0xbdf4f271	-0.119603045
29	0xbc081ba4	-0.008307371
30	0x3d2f254e	0.042760186
31	0x3d9fedaa	0.07809003
32	0xbd0313db	-0.032001358
33	0xbe02596e	-0.12729427
34	0x3dcc8a1f	0.09987282
35	0x3c0ef1ef	0.008724674
36	0x3deda649	0.11603982
37	0x3e11e33b	0.14246838
38	0xbcb92063	-0.022598451
39	0x3d82f27f	0.06393909
40	0x3da9c7d2	0.08290066
41	0xbd94d957	-0.07268017
42	0xbe212a4b	-0.1573879
43	0xbd89cc7c	-0.067284554
44	0x3da0f313	0.07858863
45	0x3da2eee9	0.07955725
46	0xb8cf0937	-9.8722456e-05
47	0x3d8dbb26	0.06920461
48	0xbde94584	-0.11390212
49	0x3df598c2	0.11992027
50	0xbc5a7549	-0.013333627
51	0xbd63273b	-0.055457335
52	0x3dba5f2b	0.09100183
53	0xbdd45805	-0.10368351
54	0x3d7eb66a	0.062185682
55	0xbc58cfb8	-0.013233118
56	0x3de090a0	0.10965085
57	0x3dab6320	0.08368516
58	0x3db25b12	0.087087765
59	0x3dbe1e0b	0.09283074
60	0x3dc3f4bc	0.09568164
61	0x3e1dc259	0.15406169
62	0x3c8ffeff	0.017577646
63	0xbc4bbbd7	-0.012434921
64	0xbdeb69d2	-0.11494793
65	0x3daa6d6c	0.08321652
66	0xbdebc97d	-0.1151304
67	0x3dfa1d9f	0.12212681
68	0xbc9854c4	-0.018595107
69	0xbdc158f8	-0.094407976
70	0x3d8279d1	0.06370891
71	0x3cbc9f02	0.02302504
72	0x3d8330c5	0.064057864
73	0x3d8bcf83	0.06826689
74	0xbe15e818	-0.14639318
75	0x3e0b6417	0.136124
76	0xbdd2db7f	-0.10295772
77	0x3d850491	0.064950116
78	0xbd983deb	-0.07433685
79	0x3bc5b34d	0.006033337
80	0xbc990f17	-0.018683953
81	0x3cadfe3d	0.021239394
82	0x3dbdbbc5	0.0926433
83	0xbdb3d523	-0.08780887
84	0xbd1f7a6d	-0.038935114
85	0x3df91269	0.121617146
86	0xbba483e0	-0.0050206035
87	0xbd83183f	-0.06401109
88	0xbe179438	-0.14802635
89	0x3d6eb3f7	0.058277097
90	0x3d5a7982	0.053338535
91	0xbd1bec53	-0.038067173
92	0x3da349ef	0.07973086
93	0x3e0daf37	0.1383637
94	0xbdbf55e9	-0.09342558
95	0xbbd482c9	-0.0064853174
96	0xba4447d2	-0.00074875087
97	0xbdec5ff0	-0.11541736
98	0x3d9e5e62	0.07732846
99	0xbd9f8e1b	-0.07790776
100	0x3da865a5	0.08222512
101	0x3d88f191	0.066867
102	0xbdb27ee5	-0.087156095
103	0x3d507242	0.050890215
104	0x3c38b94c	0.011274647
105	0xbd078888	-0.03308919
106	0x3a88efd9	0.0010447457
107	0xbdeb3808	-0.114852965
108	0x3c20fc6c	0.009825807
109	0x3de00c50	0.109398484
110	0xbd1227ba	-0.035682417
111	0xbc6c8a85	-0.0144373225
112	0x3d61edb8	0.055158347
113	0x3dce423f	0.10071229
114	0x3df9cd60	0.12197375
115	0x3d72b6b8	0.059256285
116	0xbd4fcec0	-0.05073428
117	0xbd8fcb7a	-0.07021232
118	0x3da72dfb	0.08163067
119	0x3d9388ec	0.0720385
120	0x3d98b8c4	0.07457116
121	0xbd402573	-0.046910714
122	0xbdae44f7	-0.08509248
123	0xbd3e56dc	-0.046469554
124	0xbe02f7c6	-0.1278983
125	0xbdc36706	-0.095411345
126	0x3db21b6c	0.086966366
127	0x3d56d9d1	0.05245382
128	0x378268ee	1.554607e-05
129	0x3d6a681c	0.057228193
130	0xbc55941c	-0.0130358
131	0xbd5439cc	-0.051812932
132	0x3e10f9a8	0.14157736
133	0xbc59f5d1	-0.013303236
134	0x3e014e14	0.1262744
135	0xbc1528ba	-0.009103948
136	0xbe046499	-0.12929
137	0x3a070c6e	0.00051516935
138	0xbd60f972	-0.05492539
139	0x3d43db02	0.047816284
140	0x3c1baf96	0.009502312
141	0x3de644ad	0.112435676
142	0xbdf6f506	-0.12058453
143	0xbda8a218	-0.08234042
144	0x3da048a9	0.07826359
145	0xbbfe937d	-0.007769047
146	0x3dc9837d	0.098395325
147	0xbdac52e8	-0.084142506
148	0x3e042733	0.12905578
149	0xbd9b9174	-0.07596102
150	0xbd5b63da	-0.053562023
151	0x3d8d0605	0.06885914
152	0x3e0ce7db	0.13760321
153	0xbdd626e1	-0.10456634
154	0x3d178ba6	0.036998414
155	0x3a36f3b2	0.00069790625
156	0xbd48a37d	-0.04898404
157	0xbd56e862	-0.05246771
158	0x3d1ca7a5	0.038245816
159	0xbe055e9b	-0.1302437
160	0x3e1904c4	0.14943224
161	0xbd62c16c	-0.055360243
162	0x3d529372	0.051410146
163	0xbd2f3705	-0.04277708
164	0xbdbbc96b	-0.09169277
165	0x3cc4fafa	0.024045456
166	0x3cf572dd	0.029961998
167	0xbd14933d	-0.03627323
168	0x3dc280c4	0.09497216
169	0xbe014132	-0.12622526
170	0xbd6c6e3f	-0.057722326
171	0xbcb5a6dd	-0.022174293
172	0xbd1e9e59	-0.03872523
173	0x3cbcaab7	0.023030622
174	0x3ceaf91e	0.028683241
175	0x3de62eff	0.112394325
176	0x3b979827	0.0046262923
177	0xbbc9a20e	-0.0061533516
178	0x3dbdcee8	0.0926798
179	0xbd96c372	-0.07361497
180	0xbdceb8b5	-0.10093824
181	0xbe114ade	-0.14188716
182	0xbde38c61	-0.111107595
183	0xbe08236c	-0.13294762
184	0xbd956cae	-0.0729612
185	0x3d31ba0e	0.043390326
186	0x3dcad753	0.09904351
187	0xbdc80e66	-0.09768371
188	0xbcec25d1	-0.028826626
189	0xbe0292ab	-0.12751262
190	0x3bbee812	0.005826005
191	0xbca4e0b6	-0.020126682
192	0x3e1295f9	0.14315023
193	0x3d0bbe50	0.034117043
194	0x3dc6c1ee	0.09704958
195	0xbd7b45d4	-0.06134589
196	0x3df24a9f	0.11830639
197	0xbceb0c73	-0.02869246
198	0xbdf85120	-0.12124848
199	0x3cedac9d	0.029012972
200	0x3c4cd47b	0.012501831
201	0x3d42772c	0.047476932
202	0x3dec0fed	0.11526475
203	0x3ccf91b0	0.025338024
204	0xbdbdbdfe	-0.09264754
205	0x3df3749c	0.11887476
206	0x3d38d0b2	0.045120902
207	0xbd0b9496	-0.03407725
208	0x3db75113	0.089510106
209	0x3dc44954	0.09584299
210	0xbce4cc18	-0.02792935
211	0xbd7394da	-0.059468128
212	0x3e1e9ce9	0.15489544
213	0xbd527514	-0.051381186
214	0x3dfe4555	0.12415568
215	0x3df27960	0.11839557
216	0x3d9bc620	0.07606149
217	0x3d9b49c3	0.07582428
218	0xbd63738f	-0.055530127
219	0x3d3a1130	0.045426548
220	0x3e19ce15	0.1502002
221	0x3e04c04c	0.1296398
222	0xbb70f510	-0.0036767162
223	0x3d5b9398	0.053607553
224	0xbd1591ad	-0.03651588
225	0x3cdccf87	0.026954425
226	0xbdc56c9b	-0.096398555
227	0x3cab3ca7	0.020902945
228	0xbcee7a3f	-0.029111026
229	0x3cf5fa0d	0.03002646
230	0x3da0b567	0.078471
231	0x3daa8388	0.08325869
232	0x3d3506ba	0.044195868
233	0x3c7ab2a6	0.015301382
234	0x3d92ed92	0.07174219
235	0xb9fd08d0	-0.00048262486
236	0x3e09cd12	0.13457134
237	0xbd233f2e	-0.039855175
238	0x3d4e1647	0.050314214
239	0x3e1a819d	0.15088506
240	0x3d8792f1	0.06619824
241	0x3de4462d	0.111461975
242	0x3d70c6e5	0.05878343
243	0xbd862ae9	-0.06551153
244	0x3b0e2203	0.0021687753
245	0xbdbfb05c	-0.0935981
246	0x3d21cf94	0.039504603
247	0x3d4bc99f	0.049752828
248	0xbda5e273	-0.080998324
249	0xbcefa4ef	-0.029253451
250	0x3db26a90	0.087117314
251	0x3d85cb83	0.065329574
252	0x3d53e54e	0.051732354
253	0x3c979585	0.018503914
254	0x3e09ed7c	0.134695
255	0x3d0a80d8	0.03381428

lstm.bias_ih_l1 f4 [200]
0	0xbb897337	-0.004194643
1	0x3d2b716a	0.041856207
2	0xbc9f82a6	-0.019471478
3	0x3d9c55bb	0.07633539
4	0x3d40b9c7	0.04705217
5	0x3cc2bfe5	0.023773143
6	0x3d13fff2	0.03613276
7	0xbe0ffaaa	-0.14060465
8	0x3ca3c82f	0.019992916
9	0x3c672c16	0.014109632
10	0xbc945fe0	-0.018112123
11	0x3bd76448	0.0065732338
12	0x3cce05f9	0.025149332
13	0x3d3293c1	0.04359794
14	0x3cecc574	0.028902747
15	0x3e07ba0d	0.13254566
16	0x3df16172	0.11786164
17	0x3e080c2f	0.13285898
18	0xbdea608e	-0.114441976
19	0xbcebd861	-0.028789701
20	0xbcef3b12	-0.029202972
21	0x3e0a67b8	0.13516128
22	0x3c5b578e	0.013387574
23	0x3de7d76b	0.113203846
24	0xbcf7460a	-0.030184764
25	0x3da49d71	0.08037842
26	0x3daed0bc	0.08535907
27	0x3e167368	0.14692461
28	0xbc9faf19	-0.019492673
29	0x3d4809c4	0.04883744
30	0xbdc95104	-0.09829906
31	0x3d823fb5	0.063598074
32	0xbdca41e0	-0.09875846
33	0x3de272be	0.110570416
34	0xbd364740	-0.044501543
35	0x3d4a523a	0.049394824
36	0xbd2cba85	-0.042170066
37	0xbdc78a5b	-0.09743186
38	0xbdc95284	-0.09830192
39	0x3d3050e6	0.0430459
40	0x3de2a429	0.11066467
41	0x3db698ac	0.089158386
42	0xbd4f5d42	-0.050626047
43	0xbe084968	-0.13309252
44	0xbdcc2586	-0.099680945
45	0xbd97e15a	-0.07416029
46	0x3d10e4a9	0.035374317
47	0xbddbbe0a	-0.107296064
48	0xbda6a146	-0.08136229
49	0x3e0aca7b	0.13553803
50	0xbe183b93	-0.14866476
51	0x3e110928	0.14163649
52	0x3db6a301	0.08917809
53	0xbdd2ad2d	-0.10286937
54	0x3cfd1760	0.030894935
55	0x3d49d565	0.049275775
56	0x3ce29c31	0.027662368
57	0xbd2a96ba	-0.04164765
58	0xbd48c632	-0.04901714
59	0x3e0dbda0	0.13841867
60	0xbe0055ae	-0.12532684
61	0x3bf3b14d	0.0074369074
62	0x3de4941e	0.111610636
63	0x3e0a3817	0.13497959
64	0xbe082b01	-0.13297655
65	0xbd4c0fc7	-0.049819734
66	0x3dbf7bf6	0.093498155
67	0xbdf673a5	-0.12033776
68	0x3d2fbcfa	0.04290483
69	0xbdedf51f	-0.11619019
70	0x3ad38380	0.0016137213
71	0xbc7b13f3	-0.0153245805
72	0x3d9b9bde	0.07598089
73	0x3da1e0af	0.07904183
74	0x3d94009e	0.0722668
75	0x3d5f77e3	0.054557692
76	0xbb94623a	-0.004528311
77	0x3dd11373	0.10208788
78	0x3c3b990e	0.011450065
79	0xbdda91fb	-0.10672375
80	0x3defc543	0.117075466
81	0xbd5721ff	-0.052522656
82	0xbd3d5bd7	-0.046230163
83	0x3c35345b	0.011059846
84	0x3e16fea8	0.14745581
85	0x3d58530c	0.052813575
86	0x3d732894	0.05936487
87	0xbc55f8a6	-0.013059771
88	0x3d776c0c	0.060405776
89	0xbdfb50df	-0.12271284
90	0x3dce4260	0.10071254
91	0x3d1f2f37	0.038863387
92	0x3de89c6a	0.113579586
93	0xbdcd3097	-0.100190334
94	0xbe02e9b3	-0.12784462
95	0xbe02b78d	-0.12765332
96	0xbbce0230	-0.006286882
97	0x3db68385	0.08911804
98	0xbc0fa4f9	-0.00876736
99	0x3db04050	0.08606017
100	0xbd9e0f5a	-0.07717772
101	0xbdab4471	-0.083626635
102	0x3dea219c	0.11432192
103	0x3d1de698	0.03854999
104	0x3d89f5e6	0.067363545
105	0x3d40bf5e	0.047057502
106	0x3df1310a	0.117769316
107	0xbd879443	-0.066200756
108	0x3c89a649	0.016802924
109	0xbd6d8993	-0.05799253
110	0x3dd45e82	0.103695884
111	0x3da5f80d	0.081039526
112	0x3e084eb9	0.1331128
113	0xbd77f80e	-0.060539298
114	0x3d7da49b	0.061924558
115	0xbe0450ab	-0.12921397
116	0xbdb035d1	-0.08604015
117	0xbdb7a62a	-0.0896724
118	0x3db2a833	0.08723488
119	0x3cf520bb	0.029922834
120	0x3e01671b	0.12636988
121	0x3c1ea97c	0.009683963
122	0x3df631ea	0.12021239
123	0x3cf99acc	0.03046932
124	0xbdc58d39	-0.09646077
125	0x3e1747bb	0.14773457
126	0xbe18fae3	-0.14939456
127	0xbdbc8756	-0.09205501
128	0xbca8a9ff	-0.020588873
129	0x3d20f9c4	0.039300695
130	0xbe111735	-0.14169009
131	0xbd360bcb	-0.04444484
132	0xbdaf6244	-0.085636646
133	0xbdad09ce	-0.08449136
134	0xbd94ef3d	-0.072721936
135	0xbd151eb5	-0.036406238
136	0x3b2c73d2	0.0026314151
137	0xbdb4f4ca	-0.08835752
138	0xbd295f96	-0.041350923
139	0xbc62a403	-0.013833049
140	0xbc75592f	-0.014974876
141	0x3da8d219	0.08243198
142	0xbc2c6ca4	-0.010523949
143	0x3dda208e	0.106507406
144	0xbdefb5f6	-0.11704628
145	0x3e066815	0.13125642
146	0x3dc20ed0	0.094754815
147	0xbe100205	-0.1406327
148	0x3dc8eee4	0.0981119
149	0x3d849272	0.06473245
150	0x3d127e6c	0.035765097
151	0xbd39bbf9	-0.04534528
152	0xbd91bcd5	-0.07116095
153	0x3d90ba09	0.070667334
154	0x3d68ae20	0.056806684
155	0xbd9bcaf0	-0.07607067
156	0x3c26f17c	0.01018941
157	0xbe12357e	-0.14278218
158	0x3c0ce8b1	0.0086004
159	0xbd82c6e2	-0.0638559
160	0x3d9c108e	0.07620345
161	0xbdad0193	-0.08447566
162	0x3d9880f5	0.074464716
163	0xbcefbba5	-0.02926428
164	0xbe0d3048	-0.13787949
165	0xbd6368cc	-0.055519864
166	0xbd9b59cf	-0.07585489
167	0xbdf061de	-0.11737417
168	0x3e00f7f7	0.12594591
169	0x3c8a4a0f	0.016881017
170	0xbd02199d	-0.031762708
171	0x3e02b875	0.12765677
172	0xbda5b547	-0.080912165
173	0xbca3709b	-0.019951155
174	0xbce3175e	-0.027721103
175	0x3daecf28	0.08535606
176	0x3dbeb509	0.093118735
177	0x3cf9fdf1	0.030516597
178	0xbd8fd2ec	-0.07022652
179	0xbc2314fd	-0.009953734
180	0x3de15031	0.110016234
181	0x3dc47d24	0.09594181
182	0xbc9ad4de	-0.018900331
183	0x3de72131	0.11285628
184	0x3c551750	0.013006046
185	0x3d35fe63	0.044432055
186	0x3dc15bb9	0.09441323
187	0x3dc02fdc	0.093841285
188	0x3e1055bb	0.14095204
189	0xbd1b5402	-0.037921913
190	0x3e075c3b	0.13218777
191	0x3dec208b	0.115296446
192	0x3cb226f2	0.021747086
193	0xbd2b78df	-0.04186332
194	0x3c32112c	0.010868352
195	0xbdea417d	-0.11438272
196	0x3db23760	0.08701968
197	0x3c07138c	0.008244406
198	0xbd2271c8	-0.03965929
199	0x3d96032d	0.073248245

lstm.bias_hh_l1 f4 [200]
0	0x3dd041f1	0.10168827
1	0x3d83b7be	0.064315304
2	0x3da9a945	0.08284239
3	0xbde712e5	-0.11282901
4	0xbc9021b1	-0.01759419
5	0xbc8edcdc	-0.017439298
6	0xbdb5f462	-0.08884503
7	0x3a86c41a	0.0010281831
8	0x3dbdd4ea	0.09269126
9	0xbd20c59f	-0.039250966
10	0xbd7f704e	-0.06236296
11	0x3d2d0e4f	0.042249974
12	0x3e068e9f	0.13140343
13	0x3e226847	0.15860091
14	0xbb79361b	-0.0038026634
15	0x3d85bc19	0.065300174
16	0xbd4f5b8a	-0.050624408
17	0x3d267a57	0.040644016
18	0xbd49bf5e	-0.049254768
19	0x3d97d834	0.07414284
20	0xbde4939d	-0.111609675
21	0x3d7d7f2a	0.06188885
22	0xbddc780c	-0.107650846
23	0xbdeebce1	-0.116571195
24	0xbdccfbe5	-0.100089826
25	0x3daad719	0.08341808
26	0xbde9a934	-0.11409226
27	0xbdd32db1	-0.10311449
28	0x3d3078f7	0.04308411
29	0x3cee1efe	0.029067513
30	0x3de864fe	0.11347388
31	0x3ced3045	0.02895368
32	0x3d57f97e	0.05272817
33	0xbd2569e4	-0.04038419
34	0x3e120fca	0.14263836
35	0xbd7f267c	-0.06229256
36	0x3e07f5ae	0.13277313
37	0x3de4e01a	0.111755565
38	0x3dc16b05	0.094442405
39	0xbd41d582	-0.047322758
40	0xbd9afc83	-0.07567694
41	0x3de5fa02	0.11229326
42	0x3da9dcd6	0.08294074
43	0x3de3dcc7	0.11126094
44	0x3dbdf790	0.092757344
45	0x3d032a33	0.032022666
46	0xbdef26df	-0.11677336
47	0xbd585032	-0.052810855
48	0x3da666c8	0.08125073
49	0x3d2941fc	0.041322693
50	0xbbf233e7	-0.007391441
51	0x3dc604c2	0.09668876
52	0xbdf44837	-0.119278364
53	0x3e16629d	0.14686055
54	0xbdc6d4ef	-0.097085826
55	0x3e0ef775	0.13961585
56	0xbdaaa71c	-0.08332655
57	0xbd46efc4	-0.048568502
58	0xbd421864	-0.047386542
59	0x3df23dd5	0.118282
60	0xbe1c2c05	-0.15251167
61	0xbd73463d	-0.059393156
62	0xbd0881ba	-0.033326842
63	0xbb709b69	-0.0036713725
64	0x3d21f9ad	0.03954475
65	0xbd2d8f49	-0.042372975
66	0x3e0065e0	0.12538862
67	0xbdcc0c81	-0.099633224
68	0xbd886fed	-0.06661973
69	0xbdce96f7	-0.10087388
70	0xbdd50bc7	-0.10402637
71	0x3df88f66	0.12136726
72	0xbcd213f0	-0.025644273
73	0x3db9f845	0.09080557
74	0x3dcf072b	0.10108789
75	0xbd8778df	-0.06614851
76	0x3d2e6eeb	0.04258625
77	0x3c8d46c8	0.017245665
78	0xbd9e1846	-0.077194735
79	0x3d327135	0.043564994
80	0xbdd265eb	-0.102733456
81	0x3dc2bd2d	0.09508739
82	0x3cf543aa	0.029939491
83	0xbe138bff	-0.14408873
84	0x3e037868	0.128389
85	0x3dedfe5f	0.11620783
86	0x3d95a4b9	0.07306809
87	0x3e161c68	0.14659274
88	0x3d9cfcbd	0.076653935
89	0xbd7ae5bb	-0.061254244
90	0xbe174f06	-0.14776239
91	0x3ba9547d	0.0051675425
92	0xb920a06d	-0.00015318552
93	0xbe028aa5	-0.12748201
94	0x3dbf6830	0.09346044
95	0x3ded5ebe	0.11590336
96	0x3dc2cd1c	0.09511778
97	0xbc4bcba4	-0.012438688
98	0xbd02b675	-0.031912286
99	0xbd6eeb15	-0.05832966
100	0xbd94357e	-0.07236765
101	0xbd683302	-0.05668927
102	0xbd100e2c	-0.035169765
103	0xbe091442	-0.13386634
104	0x3de9eda2	0.11422278
105	0xbd9637c9	-0.07334859
106	0xbc96fa74	-0.018429972
107	0xbdf4f931	-0.11961592
108	0xbd8fdde1	-0.07024742
109	0xbe04746e	-0.1293504
110	0xbd9c2292	-0.07623781
111	0x3ac7b72b	0.0015237083
112	0x3dd73839	0.105087705
113	0x3de78680	0.11304951
114	0x3d394e4d	0.04524069
115	0x3cc00f96	0.023444932
116	0x3e0fa5d5	0.14028104
117	0x3dd1e8ee	0.10249506
118	0x3b7915b6	0.0038007325
119	0xbd5ac47d	-0.053410042
120	0x3d44eed0	0.04807931
121	0x3dbb672d	0.091505386
122	0xbdd8d77c	-0.105879754
123	0xbd369dbd	-0.044584025
124	0xbdc1cd1d	-0.094629504
125	0xbd913237	-0.07089656
126	0x3d31115c	0.043229446
127	0xbda2ea16	-0.079548046
128	0x3d452fda	0.048141338
129	0x3d904902	0.07045175
130	0xbd69227b	-0.05691765
131	0xbdaab96b	-0.08336147
132	0x3d850b96	0.064963505
133	0xbd36df4b	-0.044646543
134	0x3de4f419	0.111793704
135	0x3ddc4789	0.10755832
136	0x3d0c1b8f	0.03420597
137	0xbd55f489	-0.05223516
138	0xbdea5abd	-0.11443088
139	0xbc87b84b	-0.01656737
140	0xbce32c74	-0.027731158
141	0x3dc79829	0.09745819
142	0x3deee094	0.11663929
143	0xbd8aba6b	-0.06773838
144	0x3d957917	0.07298487
145	0xbd3d01a4	-0.046144143
146	0xbd029513	-0.03188045
147	0x3ca32416	0.019914668
148	0xbd0ecae9	-0.03486148
149	0xbd45e52d	-0.048314262
150	0x3de5c234	0.11218682
151	0xbcd4a54c	-0.025957726
152	0xbc8563c4	-0.016282924
153	0xbd82e504	-0.063913375
154	0xbcec1336	-0.028817754
155	0xbda4b4f4	-0.080423266
156	0x3dc13b9c	0.09435198
157	0x3c5dd055	0.01353844
158	0x3d04bb75	0.032405335
159	0x3d8369f0	0.0641669
160	0xbd946f46	-0.07247786
161	0xbda4d3aa	-0.08048184
162	0xbbde5634	-0.0067851786
163	0x3d9919e1	0.07475639
164	0x3d548c5e	0.051891677
165	0x3d8ed82f	0.069748275
166	0x3d670964	0.05640544
167	0xbc357bb8	-0.01107686
168	0xbddd8b84	-0.10817626
169	0xbc9fd1f9	-0.019509302
170	0xbd2cf623	-0.04222692
171	0xbd2df0d8	-0.042466015
172	0xbaf2fb0e	-0.0018537955
173	0xbd4b5135	-0.049637992
174	0x3e082c04	0.1329804
175	0xbc8e7ed5	-0.017394463
176	0x3d730abc	0.05933641
177	0xbdfa9b5f	-0.12236666
178	0xbdd2fa0a	-0.103015974
179	0xbda952be	-0.08267735
180	0x3d3b274c	0.045691773
181	0x3dd52294	0.10406986
182	0x3dcd11e4	0.10013178
183	0x3d45c637	0.048284736
184	0x3d399016	0.045303427
185	0xbc642953	-0.013925868
186	0x3d552a8c	0.05204253
187	0x3b32d372	0.0027286676
188	0xbcd09186	-0.025460016
189	0x3e1b2c5c	0.1515364
190	0xbd94ff3a	-0.07275243
191	0x3cbf4fb9	0.023353444
192	0x3db997d2	0.090621606
193	0x3caaff1f	0.020873604
194	0xbd63e31b	-0.055636507
195	0xbdf8acd1	-0.12142337
196	0xbdc7b6dc	-0.097516745
197	0xbc474568	-0.012162544
198	0x3d360834	0.044441417
199	0x3e3dfe95	0.18554147

fc.weight f4 [1, 50]
0	0x3d7fab46	0.0624192
1	0xbdfb32ab	-0.122655235
2	0xbd29f83b	-0.041496497
3	0xbd6d2e33	-0.057905387
4	0x3dddc1fa	0.10828014
5	0xbd208a5b	-0.039194446
6	0x3de32642	0.110912815
7	0x3d8abbf6	0.06774132
8	0xbddd3c5b	-0.108025275
9	0xbddb7ce6	-0.10717182
10	0xbd2bc150	-0.041932404
11	0x3ddc8b85	0.10768799
12	0x3d5bc8b4	0.053658202
13	0x3dcd9e1e	0.10039924
14	0xbdf5b795	-0.11997906
15	0xbd919701	-0.0710888
16	0x3d8c2a81	0.068440445
17	0xbd81184b	-0.06303462
18	0x3c9562c1	0.018235566
19	0xbce887f9	-0.02838515
20	0x3d3bfe73	0.04589696
21	0x3df24453	0.11829438
22	0xbdad1c48	-0.0845266
23	0xbe11588e	-0.14193937
24	0xbe192877	-0.14956842
25	0x3dc56790	0.096388936
26	0xbd4d0c6b	-0.05006067
27	0xbc1afd4c	-0.009459805
28	0x3d36aae2	0.04459656
29	0x3d40868e	0.04700332
30	0xbde7b224	-0.113132745
31	0xbdbebc3c	-0.093132466
32	0xbd0fe3f5	-0.035129506
33	0x3cd40963	0.025883382
34	0x3deee197	0.116641216
35	0x3c6ba5db	0.014382805
36	0xbe0e835a	-0.13917294
37	0xbdf81e83	-0.12115195
38	0xbe0679f5	-0.1313246
39	0x3d3f0ee2	0.046645053
40	0x3db0f8d3	0.086412095
41	0x3d7453af	0.05965012
42	0x3d940b39	0.07228703
43	0xbcae1a58	-0.021252796
44	0xbdc164fb	-0.094430886
45	0x3cc4073a	0.023929227
46	0x3e064e4e	0.13115808
47	0xbd78a50f	-0.060704287
48	0x3e0cc3da	0.13746586
49	0xbe150bd0	-0.14555287
