models/lstm_stock_model.pth (torch, 128213 bytes, 9 tensors)

lstm.weight_ih_l0 f4 [200, 1]
00000000: 6356 503d 605b 5abd 6aa1 8e3d d5d1 633d
00000010: 5849 a3bd 2a34 c73c 60d1 263e d44a 50bd
00000020: 83e9 15ba cdd7 38bc fb14 91bc 7443 4d3d
00000030: fc3b 613e d891 2b3e fb05 6dbd 6c7e 0a3e
00000040: 2cee 3b3e 9f1e 453e 172a 043d d189 5d3e
00000050: acee 94bd 0843 9fbd 0f39 39bd 2c0d 69bd
00000060: ac93 213e bf16 3c3e 19d1 a1bc 2e8d 0dbc
00000070: e018 3e3e 9e23 223d 835a 063b 8dd0 98bd
00000080: c9fb bbbd 0974 403e b9e7 ecbd 0e14 233e
00000090: 6c49 ab3d 61e9 9cbd 09dc 36bd 9b04 913d
000000a0: c115 d73a 7e7b 7abd 031a 7fbd 963c 8e3d
000000b0: 4f3a 41bb 3567 3fbd 90b6 383e f0aa e93d
000000c0: 7df2 f13d a638 223d 76fc 9d3d 1dca 053e
000000d0: 1282 423e 20b8 e9bd 2a24 573d 086c 59bd
000000e0: ba6d f4bc 15df 353e dc72 283e 60ce 313d
000000f0: f460 0cbd 0052 3fbd d7e1 bc3d cb07 0e3e
00000100: 0657 c33d 24fd 073d bf7b 243e be23 db3d
00000110: 7c6a 57bd 9179 093e 89df 2f3e e885 303e
00000120: 68dc 263e 1dfa 9dbd 0c3c 9d3d 792a 18bc
00000130: 8266 b93d 3968 b3bc 203e 023e d3d1 44be
00000140: ff33 abbd cf29 bd3d ed2b 2d3b 32d1 a83d
00000150: d2eb 52bd c06e 2f3e 790e 763b 2953 373e
00000160: 5a65 293d 6a79 133c 31b2 91bc 905c 063e
00000170: 2f98 803d 840f 8ebd 5766 9cbd fea2 173d
00000180: 73e2 8b3d 1d61 323e 4978 36bd 8e68 283d
00000190: 3b5f ae3b 2fe5 d93c 909a fd3d 2cc2 f93c
000001a0: 221d 183d 7b6a 2bbe 68e3 293e 81f5 edbd
000001b0: 22e0 9b3d 8e37 1fbe 3734 d43d c9ab fb3d
000001c0: aad6 72be 9884 bcbd 984f 5abd a430 17be
000001d0: 6ce1 3f3d 421e e8bd 07bf 8d3d d38f 34be
000001e0: 366d 663d b8d7 623d 3649 3f3e 4a5b febd
000001f0: 8c42 643d aac2 8b3d e220 26bd 480c 8bbd
00000200: 536c 39be 3558 053e c4a3 dbbd b394 403e
00000210: 6ab7 e0bd c0a5 22be 8ba7 b8bd c856 bbbd
00000220: 07b7 e23d e7e1 40bd cac7 22be 47db 59bb
00000230: 1039 0e3d 0ca3 4fbd 4b15 1bbe a0ea eb3d
00000240: 348c 36be 0b3f 0abe ff55 633e fe92 dcbd
00000250: 6688 22bd 58ad 803d 2bef 7a3d 004b 3b3e
00000260: 9b0a 693d 3365 503b 30de 403e e456 2fbd
00000270: 3abc 153e 7b5a 033e 05c2 d93d f48a 1d3e
00000280: d721 433d 1967 19bd a12a e33d 1e93 c03c
00000290: 374a 133e da1f 2dbc e526 5abd ab54 87bc
000002a0: fdc9 d0bd 24e4 e73d d183 c3bc 4a57 9bbd
000002b0: 2bd8 f93d b82d 483d 55bc ee3d d696 00bd
000002c0: bdb0 823d 1491 933d ca09 f53d 5f3f 1bbe
000002d0: 636c 21bd 2ff5 373e fc5b afbd 82ee 18bd
000002e0: cc9c 12be 6409 393e 6bbc c8bc ec2c cb3d
000002f0: bdbd 4bbd 6c2e 183d 6391 1c3e f6af 29bd
00000300: 3ce2 c73d d246 50bd a08d b63d 7489 c93b
00000310: 0fac 86bd 5851 e23c 2898 42bd 0537 b33d
0.050863635 -0.0533098 0.06964381 0.055620033 -0.079729736 0.024316866 0.16290808 -0.05085261
-0.0005718695 -0.01128192 -0.0177102 0.050113156 0.21995538 0.16754854 -0.05786703 0.13524789
0.18352574 0.19249962 0.032266703 0.21634604 -0.072720855 -0.07776457 -0.04522043 -0.056897327
0.15778989 0.18368052 -0.019753026 -0.008639617 0.18564177 0.03958475 0.0020500727 -0.07461653
-0.091788836 0.18794264 -0.11567635 0.15925619 0.083636135 -0.07661701 -0.044643436 0.070809565
0.0016409681 -0.061152928 -0.062280666 0.069451496 -0.0029484218 -0.046729285 0.18038392 0.11409557
0.11813829 0.039604805 0.07714169 0.13065381 0.1899493 -0.11412072 0.052524723 -0.053081542
-0.029837478 0.1776088 0.16450065 0.043409705 -0.03427215 -0.04670906 0.09222763 0.1387016
0.09538083 0.033200398 0.1606283 0.10700177 -0.052591786 0.1342528 0.17175116 0.17238581
0.16295016 -0.07713721 0.07677469 -0.00928747 0.09052755 -0.021900283 0.12719011 -0.19220667
-0.08359527 0.0923649 0.0026423887 0.08243026 -0.051494427 0.17132092 0.0037545247 0.17902817
0.041356422 0.009001115 -0.017785164 0.13121247 0.06279027 -0.06936553 -0.07636707 0.037020676
0.06830301 0.17419858 -0.044548307 0.041115336 0.005321411 0.026598541 0.12382996 0.030488096
0.03713716 -0.16739838 0.16590655 -0.11619092 0.07611109 -0.15548536 0.10361522 0.12288625
-0.237147 -0.09204978 -0.053298563 -0.14764649 0.04684584 -0.11333896 0.06921201 -0.1763299
0.056256495 0.055381507 0.18680272 -0.12419756 0.055727527 0.068242386 -0.040558703 -0.06789452
-0.18107729 0.1302193 -0.10724595 0.18806724 -0.109724835 -0.15883541 -0.09016331 -0.091474116
0.11070066 -0.047090437 -0.15896526 -0.0033242272 0.034722388 -0.050692603 -0.15144841 0.115193605
-0.17826921 -0.13500611 0.22200774 -0.10770224 -0.03968086 0.06283063 0.061263245 0.18290329
0.05689488 0.00317986 0.18834758 -0.042807475 0.14622584 0.12827484 0.106327094 0.15385038
0.047639694 -0.037451837 0.11092115 0.023507651 0.1438378 -0.010566676 -0.05325975 -0.016519865
-0.10194776 0.11322811 -0.023866566 -0.075850084 0.12199434 0.048871726 0.11657015 -0.03139385
0.063813664 0.07205406 0.11964758 -0.15160893 -0.039410006 0.17964624 -0.085624665 -0.037336834
-0.14317626 0.18069988 -0.024503907 0.099206775 -0.049741495 0.037153646 0.15289836 -0.041427575
0.09759948 -0.05084879 0.089137316 0.006150419 -0.06575786 0.027626678 -0.04750839 0.087507285

lstm.weight_hh_l0 f4 [200, 50]
00000000: d6e3 cfbd dd12 093e 052b 433d 8a7b 383d
00000010: 8145 2bbd 6050 b73d ee19 413d 1eb1 0c3d
00000020: f707 a13b aeff 163d ac22 d73d 0401 973d
00000030: 1910 31bc 96d7 f63d 6882 0b3e 1a6d abbc
00000040: 2c4a 9d3d e787 833d 68bd c23c acbe e83d
00000050: cd7f f93d ec7c 93bc a5af 073e dba2 af3d
00000060: fa88 82bd 9608 79bd 7816 84bc 5136 a23d
00000070: 170f 773c 0206 003e 7c64 2fbd 20d6 d53b
00000080: 93d9 d6bd ce33 aabd 1109 e7bd c55f eabd
00000090: 6c7a 8c3c fd3c b33d c42f b73d adfc 00be
000000a0: 6a5d 01be 1a3b c8bd 8edb 313d adde 513c
000000b0: e18d 15be d6b9 f03d 1f84 0dbd f824 ca3c
000000c0: dd00 1fbd 0844 85bc 90fa 1fbe b9f2 fe3d
000000d0: f9a1 0e3e 4e39 d33d bd63 94bb e9a5 393d
000000e0: 492d 0f3d 0841 0bbe a1ba ba3d e12b a4bd
000000f0: 1c6c 7c3c 80c6 ccbd 8f0b 50bd 8d2d 56bd
00000100: 2b46 01be 5dbe 85bd 3e4f 4c3d 4598 b03d
00000110: 311c cebd 13d0 183c e6a7 ee3d b12b e53d
00000120: 489b 0d3e 49b7 78bd 4bee 393d 017d 203d
00000130: 310a ac3d c421 fa3c 15d8 23bd a168 0b3e
00000140: f640 8b3d 0d2a 133d 2f56 11be 4579 d5bd
00000150: 9c6c 2dbe f6e7 583d 8493 65bd 7d82 bc3d
00000160: 5559 82bd 6213 c8bd e13d 01be e0d9 a6bd
00000170: dfb7 2e3d 9770 213e 2bd7 0bbd 3b2a b7bd
00000180: 0ece 4ebd fff0 37bd f956 24bd f165 72bd
00000190: ead5 a83c 4c67 0a3d 4b28 d93d 3ff6 803d
000001a0: 1d12 ddbd 54cb d43d 2db3 3c3c 4690 47bd
000001b0: 3fd8 d0bd 828b df3d a949 343d ccc0 3ebc
000001c0: f874 7bbd ccbf cc3d 616f 363d 2586 a5bc
000001d0: 3bc2 c33d 811b a8bd f216 b5bd 60b9 1ebe
000001e0: 589a d03d 5585 fdbd 9769 48bd ef25 dbbd
000001f0: a454 e23d ac9a 47bc dd53 a93d 384e 353d
00000200: e01a 353d 92d9 103e 1a8d c5bd e21c 143e
00000210: 867b 01be a21e 8c3d 32b2 19bc e062 153d
00000220: 4b39 60bd 68a7 ef3d 0df6 f5bc fb16 853c
00000230: c76a f43d 81b1 31bd 391a 8d3c d95d 443d
00000240: e6e6 30be 08d6 02be b52a 8b3d 1af2 a4bd
00000250: d744 c1bd 1541 64bd dd0e 40bd 7fb5 a2bd
00000260: 2663 35bd e231 aabd f38c 253c 011c d1bc
00000270: bb30 113e 767b 513d b1e0 a9bd 52be fdbd
00000280: 75bd ccbd 3c87 e1bd a957 a0bd 17a8 913b
00000290: f493 4abd 1590 e2bc 507e 16bd 42fc eabd
000002a0: 4cfa 023d bfea 703d 20c2 aa3d 020c 8fbb
000002b0: 69a3 f4bd f5fc b1bd a2be 07be 34b8 09bd
000002c0: dfee bd3d 8bb4 d6bd d3a0 d63c a53b 7e3c
000002d0: 859c a9ba 8e34 8dbc 38cd 5bbd f2f4 d63d
000002e0: b26d bbbc dc53 ae3d 2837 b03d 315e e83d
000002f0: ccfd 2a3d 82f4 a6bd 4d64 fc3d dcec f3bc
00000300: e4b3 11bd 6da5 073e f1d5 13be 20f6 1a3d
00000310: 3121 a93d 9fce b0bd be66 c2bd da09 d2b8
00000320: 469c 45bd 6f53 45bd 1093 81bc b1d8 b23c
00000330: e95b aabd caca d23d d933 323e 945c ed3b
00000340: 38b3 e13d 0e87 ddbd e03a f33d 9d24 e93d
00000350: 0fc4 4bbe 9746 8ebd 56d1 ddbd 4cac e13c
00000360: 9078 91bd fe4a acbd 3827 cd3d 6c86 6c3d
00000370: 316d 9b3c d494 b5bd 0265 623c 1221 08be
00000380: 69a1 a33d 4ada acbb 98ee 993d 339a 18bd
00000390: 72f9 07be f41a c43d 3240 b9bd 80d9 6c3d
000003a0: 29f3 d1bd f9e5 ebbc b42f 79be d591 43bd
000003b0: 22f3 093e 004d a3bb 0ce2 1abe 5aa9 3c3d
000003c0: 1dec 20be 2cbe a33d 4d68 2c3c 333c 223e
000003d0: 2125 fcbd 3657 c1bd 7b98 933d eb45 25bd
000003e0: 98ab 983c 5818 29be 5eab 953d b2c4 013e
000003f0: c0cc 0b3e 561b 21be 5299 d33d bda2 2bbe
-0.10150878 0.13386102 0.04764845 0.04503969 -0.04181433 0.08950877 0.04714387 0.0343486
0.0049142796 0.03686493 0.1050466 0.073732406 -0.010807061 0.120528385 0.13623965 -0.020926047
0.07680163 0.06422406 0.023771957 0.11364493 0.12182579 -0.018003903 0.13250597 0.08575984
-0.063737825 -0.060799204 -0.016123995 0.07920516 0.015079281 0.12502292 -0.04282044 0.00652577
-0.10490718 -0.08310662 -0.11281026 -0.11444048 0.017148219 0.08751867 0.089446574 -0.12596388
-0.12633291 -0.09776898 0.043422274 0.012809438 -0.14604904 0.117541954 -0.03454983 0.024675831
-0.038819183 -0.016267791 -0.15622926 0.124486394 0.13928975 0.103136644 -0.0045284913 0.04532424
0.034955297 -0.13599026 0.09117628 -0.08016182 0.015406635 -0.09998798 -0.050792273 -0.052289534
-0.12624423 -0.065304495 0.04988026 0.08622793 -0.10063971 0.0093269525 0.11653118 0.11189974
0.13828766 -0.06072167 0.04539327 0.039181713 0.08400381 0.030533679 -0.040000994 0.13614132
0.067995 0.035928775 -0.14193033 -0.10423521 -0.16935962 0.05295559 -0.056048885 0.09204576
-0.06364695 -0.09769322 -0.12621261 -0.08147025 0.042655822 0.15765606 -0.034140747 -0.08943602
-0.050489478 -0.044907566 -0.040122006 -0.05917925 0.020609815 0.033789918 0.106033884 0.06296968
-0.107944705 0.10390344 0.011517328 -0.048721574 -0.10197496 0.10915281 0.04401556 -0.011642646
-0.061390847 0.0999752 0.044539813 -0.020205567 0.09558531 -0.08208371 -0.08842267 -0.15500402
0.10185689 -0.12378947 -0.048928823 -0.10700595 0.110513 -0.012182873 0.08267949 0.04426405
0.044215083 0.14145496 -0.096460536 0.14464143 -0.12644777 0.0684178 -0.009380864 0.036471248
-0.05474214 0.11701852 -0.030024553 0.01624631 0.11934429 -0.04338217 0.017224418 0.047941063
-0.17275581 -0.12776959 0.06795255 -0.0805399 -0.09436958 -0.05572613 -0.046889175 -0.07944774
-0.04428401 -0.08310296 0.010104406 -0.025526049 0.14178745 0.051143132 -0.082948096 -0.12389816
-0.099970736 -0.11012122 -0.0782922 0.0044450867 -0.049457505 -0.027656594 -0.036741555 -0.114738956
0.031976983 0.05881762 0.08337808 -0.004365445 -0.119452305 -0.08690826 -0.13256314 -0.033622935
0.09274077 -0.104836546 0.026199734 0.01551715 -0.0012940323 -0.017236974 -0.05366251 0.10495938
-0.022879455 0.08512089 0.0860427 0.113460906 0.041745946 -0.08152105 0.12323818 -0.02977603
-0.035571948 0.13246699 -0.14437081 0.03783238 0.08258284 -0.0863316 -0.09492253 -0.00010015415
-0.048244737 -0.04817527 -0.015817195 0.021831842 -0.08318312 0.10292585 0.17402591 0.007243702
0.110205114 -0.10816775 0.11876464 0.113839366 -0.19899009 -0.06947058 -0.10830943 0.027547978
-0.071030736 -0.08412741 0.10017246 0.057745382 0.018972965 -0.08866277 0.013818027 -0.13293865
0.07989771 -0.0052750455 0.07516211 -0.03725643 -0.1327875 0.095754534 -0.090454474 0.05782461
-0.10251457 -0.028796183 -0.24334604 -0.0477465 0.13471654 -0.0049835443 -0.15125293 0.046059944
-0.1571507 0.07995257 0.010522914 0.15843277 -0.12311769 -0.09440462 0.07206818 -0.040349882
0.01863651 -0.16513193 0.07308076 0.1267269 0.13652325 -0.15733084 0.10331978 -0.16761298

lstm.bias_ih_l0 f4 [200]
00000000: 3e7a cabc d0fa b43d fed4 963d 4a8e 8bbd
00000010: 8fdc 1e3e c0b6 c0bd d57a a43d 808b a13d
00000020: 33db 16bd 9ebd fd3c 69cc c03d c507 1e3c
00000030: 2ecd 273e 249d 96bd e55c 0e3e d9f4 54bc
00000040: 8bc9 9ebd 6cb7 3bbc 5843 203d 96cf e03d
00000050: 2900 c13d 17ee e6bd 6ffa 2c3e 258f 893d
00000060: c664 8b3d 6a0f f63c 24ef 103d f5e0 cf3d
00000070: fb0b 91bd 9f1d 393d 295f 093e 7987 4a3e
00000080: 2dbd a63d fc2f cfbd 8733 8fbd 105b e53d
00000090: 108c 793d c43f 86bd 3dea 88bd 430d f9bd
000000a0: 2200 ee3d 37f4 503d 7561 3cbd 9797 ef3d
000000b0: 8b24 20bc 4893 053e 0b72 983d db28 f53d
000000c0: 6e4a 143d 9a85 9f3a 3358 c73d 833c 1c3e
000000d0: 4ada b3bd 8db8 1bbd 13d7 6e3d 62c7 d93b
000000e0: 3e60 383d 83dd 213b 2e28 03bd 70ec 51bd
000000f0: 32aa a1bb 2b3f a03d e6a3 303d a48d ea3d
00000100: 9c20 463d 195d 0b3e 19d6 a03d 6237 0b3e
00000110: 7a48 d53d 6796 46bd 8bc3 a3bd 77fe ee3d
00000120: 4202 883d 00f8 0a3e 152b 06be e285 483d
00000130: 2dba e03d fb1b 38bd 8071 22bd 202f ab3d
00000140: d776 15bc f28a 9fbd 4e2d 96bd 8763 6bbd
00000150: 74a0 24bd 9376 e1bd 242d 7abd 7c2e 963d
00000160: e89e a93d fcd5 f7bd 26aa 63bd 92e0 8fbd
00000170: eedc bf3d eeac 073e cfdb 733c 5f95 e13c
00000180: e831 323e a90a bbbd d03d e1bd 4cb7 ce3d
00000190: 002d 07be feee f33c 3df0 27bd 2a8a 77bd
000001a0: 55a6 f13d c4d8 78bd 2c1f 0e3c caa0 323d
000001b0: 643c d03d 16f5 a4bb 4acc 023e f5af 7abd
000001c0: bf89 a93d 9abf c43d 0103 a3bd 6f40 d73d
000001d0: ccf5 a3bc 7f56 6a3d 269d dfbd a740 cf3d
000001e0: 53f8 c4bb ec3d 11bd b059 b7bd 3b4e 2cbd
000001f0: 9999 fd3d 445a b43d 77ba 11be f15f 1d3d
00000200: 39f2 f6bd 7690 d73d 5899 0d3e 6c19 14be
00000210: a9e2 0a3e b7c1 30bd ac70 273c 5368 71bd
00000220: 4c2d 163c 22c1 5f3d ff5b e6bd 8dda 133d
00000230: 3d97 49bd 81a1 06be 5b25 77bd 3464 14bd
00000240: 7cec 353d a70d 2cbd e7be d3bd 8f5c 8f3c
00000250: 0ad4 5dbd b1fb 11be 6eef d5bd 63be 913d
00000260: c3b8 873d bf2f 0abe dc00 8d3d bab7 8cbd
00000270: 85ed 903c 873b d2bd ffbf 5dbd 5b2b a43b
00000280: d0db 1e3e e976 17bb ed20 863d ae86 e8bd
00000290: bd69 34bd 827f bfbd 9923 9e3d ff8a 90bd
000002a0: 7b7e 34bd 52bc 683d bb36 4d3c 8062 02be
000002b0: 3c1e 2b3c 2a59 c73d 762f 0fbe 23ec 09be
000002c0: 4b4a 1dbd 38e6 123b b979 0dbd dd05 163e
000002d0: 3d52 063e a6dc 2e3e 4c6f f1bd 1011 df3d
000002e0: d10e 45bd 700b 23bd b5c8 45bd c210 eabd
000002f0: c478 db3d aadd 38bd 73d3 97bd d39a 00be
00000300: 39bb a4bd fb60 6fbd aa7a 003e 2bfd 99bd
00000310: c575 993d bbe2 96bd 12b6 e0bd ef4b 503d
-0.024716493 0.08836901 0.07364844 -0.06814249 0.15513824 -0.09409857 0.08031241 0.07887936
-0.03683014 0.030974206 0.09413988 0.009645407 0.16386864 -0.07354191 0.13902624 -0.012997829
-0.07753285 -0.011457305 0.039126724 0.10977094 0.09423859 -0.11275881 0.16892408 0.06716756
0.068063304 0.030036647 0.035384312 0.10150329 -0.07082363 0.045194265 0.13415207 0.19778241
0.08141551 -0.10116574 -0.0699225 0.111990094 0.06092459 -0.06555131 -0.066853024 -0.121607326
0.11621119 0.05101415 -0.04599138 0.11698835 -0.0097743375 0.13044465 0.07443627 0.11970683
0.036203794 0.0012170554 0.097336195 0.15257458 -0.0878187 -0.0380178 0.05831058 0.0066460827
0.04501366 0.0024698682 -0.03202074 -0.051250875 -0.004933619 0.07824548 0.043125056 0.11452797
0.048370942 0.13609733 0.07853336 0.13595346 0.104142144 -0.04848328 -0.07996281 0.11669629
0.06641056 0.13571167 -0.13102372 0.048955806 0.1097301 -0.04494856 -0.039659023 0.08358598
-0.009122572 -0.077901736 -0.0733286 -0.057467964 -0.040192083 -0.11008944 -0.061078206 0.07333085
0.08282262 -0.12101361 -0.055582188 -0.07025255 0.09368311 0.13249561 0.014883949 0.027537046
0.1740185 -0.09132893 -0.10998118 0.10093555 -0.1320076 0.029777046 -0.041000593 -0.060434498
0.117993034 -0.0607536 0.008674424 0.04361037 0.101677686 -0.0050340993 0.12773243 -0.061202962
0.08278226 0.096068576 -0.07959557 0.105103366 -0.020014666 0.057211395 -0.109186456 0.10119753
-0.006011048 -0.035459444 -0.089526534 -0.042066794 0.12382812 0.08806279 -0.14231287 0.038421575
-0.12057919 0.105256006 0.13828027 -0.14462823 0.13563026 -0.04315349 0.010219734 -0.058937382
0.009166073 0.054627545 -0.112480156 0.0360971 -0.049216498 -0.13147546 -0.06033836 -0.036228374
0.044414982 -0.042005207 -0.10339146 0.01750019 -0.054157294 -0.14256169 -0.10446058 0.071163915
0.066270374 -0.13494776 0.068849295 -0.068709806 0.017691383 -0.1026526 -0.05413818 0.005010051
0.1551354 -0.0023111647 0.06549249 -0.11353813 -0.044046152 -0.09350492 0.077216335 -0.070577614
-0.044065934 0.05682022 0.012525256 -0.12732887 0.01044422 0.097338036 -0.13982949 -0.13468985
-0.03840093 0.0022415053 -0.034539912 0.14650674 0.13117309 0.17076358 -0.11788806 0.10891926
-0.048109833 -0.03980583 -0.048287112 -0.114289775 0.107163936 -0.04513327 -0.074133776 -0.12559061
-0.080435224 -0.058442097 0.12546793 -0.07518991 0.07493166 -0.07367464 -0.10972227 0.050853666

lstm.bias_hh_l0 f4 [200]
00000000: 5ddb b63d b8d9 f63d 2209 283e 213e babd
00000010: ddd2 d53d 11ea 1e3e 7cf7 883c 46dd ebbd
00000020: 0934 a4bc 18d7 c6bd 7a9f 9bbc 0fa3 d7bd
00000030: 92bb 003e fc79 06be c986 fe3c 2447 3d3d
00000040: ec0e 173e 1645 9e3d 028a b9bd c221 973b
00000050: 56fe 1abd f33d 013e ce8d 943d 611f a3bd
00000060: 8ecd eebd 17fb 9bbd 6bb7 fcbb b794 0e3e
00000070: 7380 17bb 9393 0e3e 76f8 87bd 2f87 9f3d
00000080: e8e8 89bd ec0c 873d 33fc 68bd cac3 80bc
00000090: e8e0 2b3a 799b 253d 1ee9 093e a099 3abc
000000a0: 7354 983b cc89 003e 4ac6 023e 01c8 8d3d
000000b0: 35fb 903d 187a 273e d750 8e3d dd6b a2bc
000000c0: cb5b 9a3d d8d2 a2bd 640e 703d 6009 d2bd
000000d0: e406 9dbd b28f 0abc d8f8 d9bd c3e1 823c
000000e0: 6378 b03c cf50 fbbd 09e6 f13b 92d7 e5bd
000000f0: b2b7 123e 88c5 55bd f630 7bbc cc20 863d
00000100: ac3b 93bd 5415 a73d e37f e8bd d30f c83c
00000110: d62c d4bc a7c2 d1bc 64d9 06bd ec44 263d
00000120: 6de7 cc3d f920 db3b 6ab6 38bc 635d ce3c
00000130: 743f dbbd de25 c73d e273 563d c062 93bd
00000140: 92e3 09bd 1100 333e 144d b6bd 2b58 323d
00000150: 4647 123e 7336 67bc 606a 863d 31c2 f93c
00000160: 5e69 ad3d 38a6 473d 21c6 e9bd e274 40bd
00000170: aa80 923c 03fb 8cbc 6c0e cfbc 2dbc ea3c
00000180: b0c2 0b3e 7a0a 0a3e fac8 b73d d05c 9b3d
00000190: 83b4 463d 0beb 023e 402a c33d ed72 babd
000001a0: c3ca d8bd 627a cebc e24c 4dbd 6e01 17be
000001b0: 775d 0b3d ce50 9fbd ca42 893d f155 043e
000001c0: 4b20 443d d82a a8bd 957d 073e 5e30 563d
000001d0: 6b2d 163e ac6f a2bd f806 ba3d f1bd e8bd
000001e0: 76f3 f03d db41 5cbd a4fd c73d 99fe 39bd
000001f0: 15dd 8e3c 6e8d a03d e37e 16be 826b e2bd
00000200: 96c6 063e 1207 ecbd b6f9 ca3c 6358 da3d
00000210: 0946 853d 1313 f4bd f0ea 173d 2957 0cbd
00000220: c015 25bc faf3 18be 73a5 a3bd 7b80 8c3d
00000230: 98d2 8abb d8a3 b13d 9b09 073d 4ae7 db3d
00000240: bea9 12bd 3473 99bd dc4d 3cbb 9111 0cbe
00000250: 219f f53d 68d6 dabd 051a ce3d cff4 1d3e
00000260: 5f87 e4bd cbbf ed3d a227 b93d f4bf 86bd
00000270: 895d b4bd 866e 3abd 856a b53c 7443 a93c
00000280: ae8a c2bc 0627 0dbd 2d9b 2dbd 3051 37bd
00000290: a5a2 debd 44fa 023e 0a65 24bd d725 b0bd
000002a0: c46b f7bb 764c 333e 4b2b dcbc eb1e 03bc
000002b0: d894 903c ce04 b93b 8082 0ebe 5bbc 3ebc
000002c0: 25fb 2ebd 3405 b5bd 048a 2a3e 0c93 e53d
000002d0: 9ed4 123c 840c 77bc c238 b6bd e62b f93c
000002e0: 2cc9 33bc 0cc4 a3bd 33dd 453d b45d a63d
000002f0: dec3 8dbd c659 bdbd 2e6a 193d 6c0a 0e3d
00000300: c4e3 2d3d 2e1d b4bd b3d0 07bc f54b 2f3d
00000310: e0dc 093e 7570 9d3d 3b49 003d 4d18 bd3d
0.08928559 0.12053245 0.16409734 -0.090938814 0.104406096 0.15518977 0.016719572 -0.11516814
-0.020044344 -0.097089946 -0.018996943 -0.10529148 0.12571552 -0.13132471 0.03107013 0.046210423
0.14751786 0.07728021 -0.09059526 0.0046121785 -0.03784021 0.12621288 0.072536096 -0.079649694
-0.116603 -0.07616251 -0.007712295 0.13923918 -0.0023117333 0.13923483 -0.06639187 0.07789456
-0.067338765 0.065942615 -0.05688114 -0.01571836 0.0006556646 0.040431473 0.13467833 -0.011389166
0.004648739 0.12552565 0.12770954 0.06922913 0.07079164 0.16355169 0.06949013 -0.019826824
0.07537039 -0.079503715 0.058607474 -0.102556944 -0.0766733 -0.008457111 -0.10643166 0.015976792
0.02154178 -0.122712724 0.0073821587 -0.112227574 0.14327887 -0.052190334 -0.015331497 0.06549224
-0.07189116 0.08158365 -0.113525175 0.024421608 -0.025900286 -0.025605513 -0.032922164 0.040593073
0.100050785 0.0066872803 -0.01127396 0.025191015 -0.10705462 0.097240195 0.05235661 -0.071965694
-0.033664294 0.17480494 -0.0890142 0.043541115 0.14285001 -0.014112103 0.06563258 0.030488105
0.08467363 0.048742503 -0.11414743 -0.046986468 0.017883617 -0.017209535 -0.025275432 0.028654182
0.13648486 0.13480559 0.0897388 0.07586062 0.048511993 0.12784974 0.09529543 -0.091039516
-0.10585549 -0.025204841 -0.05012215 -0.14746639 0.034024682 -0.07779084 0.06702192 0.12923409
0.04788236 -0.08211297 0.132315 0.05229222 0.14665763 -0.07931456 0.090833604 -0.113643534
0.117651865 -0.053773742 0.09765175 -0.04540882 0.017439405 0.078394756 -0.14696841 -0.11055662
0.13161692 -0.11524786 0.024777275 0.1066139 0.06507499 -0.119177006 0.03708929 -0.03426281
-0.010075986 -0.1493682 -0.07990541 0.06860443 -0.0042365305 0.08673829 0.032968145 0.10737474
-0.03580641 -0.074926764 -0.0028732931 -0.13678576 0.11993242 -0.10685426 0.100635566 0.15425418
-0.111586325 0.11608847 0.090407625 -0.06579581 -0.08806903 -0.04551556 0.022145519 0.020662047
-0.023747768 -0.034461044 -0.042384315 -0.04475516 -0.10870866 0.12790781 -0.04013542 -0.086009674
-0.0075506885 0.17509636 -0.026876112 -0.008002977 0.0176491 0.0056463247 -0.1391697 -0.011641587
-0.04271998 -0.08838883 0.16654211 0.112096876 0.008961825 -0.015078668 -0.088975444 0.03041644
-0.010973256 -0.07996377 0.048306655 0.08123341 -0.06922124 -0.092456385 0.037454776 0.034677908
0.042453542 -0.08794628 -0.008289504 0.042797048 0.13463163 0.07687465 0.031319838 0.09233151

lstm.weight_ih_l1 f4 [200, 50]
00000000: ac34 8bbc 5b51 973d cc61 f6bd e250 0ebe
00000010: 695b 9d3d a6d6 b13d 7a8f 96bd b9fa d7bc
00000020: 5a45 973d 3d8e 0cbe d8c9 2abc fb0d 29bd
00000030: ffc9 4a3d 7a78 0c3d 8037 1c3e dc32 303d
00000040: 78b8 c63d 0df9 4c3d 6a78 82bc a699 483c
00000050: 03c9 7c3d df72 10be badb 093c 1126 88bc
00000060: b13a 7bbd eaea d7bc 95aa ab3d d7a9 a9bd
00000070: b822 f4ba 5c44 b43d fe55 c2bd 4e6b 2cbd
00000080: bf43 233d 069a 923d 30cc d63c 14a2 c2b8
00000090: afe2 aebc 20f0 853d 7a26 da3c bd96 c33d
000000a0: 2d03 ef3c 39f0 da3d 7f9d b13d 6985 b8bc
000000b0: 3d29 153e 754b 0e3d d90e 043e 066a 0abe
000000c0: 481d fb3d c4d6 ef3d 1be9 9e3c 4d1c 923d
000000d0: 1423 9ebc 2718 b4bc 77d9 96bd 8a53 9d3d
000000e0: 47ac 183e caad c73d b07a bb3d 9325 713d
000000f0: 0a65 3f3d 00f9 ff3a 3017 85bc a35b 24be
00000100: eaca 82bd a78e 32be 11c4 83bd 2108 cb3d
00000110: 9551 183d d570 ab3d 7125 53bc 1cf9 dc3d
00000120: 489c 163c ac4b 623d c977 dfbd 355d 80bc
00000130: 3217 e13d 88d1 843d de4f 9dbb 03f3 843d
00000140: aeea 93bb 90f5 c83c bd5c abbd de64 393d
00000150: cd85 2d3d e2d2 853d 0a13 193d 8569 013d
00000160: ae5b b4bd 6006 043e 8dc3 673b 1c48 a13d
00000170: 9898 873d d354 5fbd 3dd4 ebbd 2281 25bd
00000180: ec86 a8bd 6943 4ebd 8ee9 4c3d f4ac 913d
00000190: 2e43 963d 6c2d 863b faa3 a03c bfe2 a5bc
000001a0: b02a 88bd 9ff8 c2bd dc54 33bd b71b c83d
000001b0: 7cfe 20bd fea3 133e 1f20 afbd de35 083c
000001c0: 7b31 b73c c409 b73b 978a 86bd ba3f a43d
000001d0: 7959 b7bb 4289 93bc 08a2 6f3d 07ee 8ebd
000001e0: fd29 09bd 9499 963d 7035 bfbd 4bfb bcbd
000001f0: 062e ed3d 2201 e93c 08dc 093e a32a bdbd
00000200: 5f60 e73b b96e eb3c d185 ecbd 6c11 953d
00000210: c595 54bd 1407 bdbd 6795 5bbc 1f58 99bd
00000220: 3e6e 0b3d 2ea8 8e3c 3ec3 153e d3c3 4cbd
00000230: dcad 873d fdfe 563d 12d1 da3d 2e7f d43c
00000240: 9365 9a3d 04a4 033e 2f95 abbd 9345 75bd
00000250: aa7f 9dbd b4ce db3c d693 b73d 487b 00bd
00000260: 921b 653c 337b b9bd d385 babd 7244 d03d
00000270: 5707 5b3d 8a67 bfbd 83bf e33d 05f6 413c
00000280: efc3 eebd e729 1e3d f46a c43c 02f1 b73d
00000290: 018d 753c f323 18be 0c26 603d 044f f33b
000002a0: 0ef9 90bd ef08 ec3d 0171 94bd cb24 b7bd
000002b0: f650 c03d 45e4 913d 39f6 923d dcde 983d
000002c0: 5fae 9dbd 8ebc 583d c1c5 253c 37d9 143d
000002d0: af01 09be befd d73d 9f6a 103e c7bc c3bd
000002e0: d40f 87bd 334a 243d 6d1f 85bd f406 24bd
000002f0: 3598 893d ec16 81bd 3700 93bd 52a1 92bd
00000300: cf69 9bbd 11c4 bf3d 8efa c03c becc 99bd
00000310: db6e 9c3d 8e3a 03be 0271 a8bd dcf3 54bd
00000320: a652 0cbe 1b49 28bd c5bd b5bc d2f2 e5bd
00000330: 58c6 00be a343 48bd 8197 c4bc e222 00be
00000340: 6c1d 3c3e eaca 913d 4834 d0bd 3dd3 ad3d
00000350: 5557 5cbc 5ee3 25bc f592 953d eaf0 2fbe
00000360: d73e 0d3e 7297 a4bd 7d5a 083c 9405 0dbe
00000370: 8eda 153e c9e2 233d 73e0 9fbd 7adb 223c
00000380: 58fc 72ba 1518 103e 5555 4c3d 94a9 80bd
00000390: e368 993d bcc9 f53c e587 ddbd 9e08 61bc
000003a0: 8d74 afbd 068b 1bbe 2275 38be 947b 27bd
000003b0: 74fc adbd 5e90 0b3c 1697 d3bd bf42 e8bc
000003c0: 8809 c5bd db06 e63d 0319 b73d 4b4d e53c
000003d0: 51d7 ebbd a79e b9bd 8699 973d f0ec 6dbc
000003e0: fc68 153e 9220 d53a 1cdb c83d 71e3 a9bd
000003f0: 0d2a f6bd 2344 cb3d 5003 06be d974 563c
-0.01699289 0.07388564 -0.12030372 -0.13898042 0.07683451 0.08683519 -0.07351585 -0.026364671
0.07386275 -0.13726135 -0.0104241 -0.0412731 0.049509045 0.034294583 0.15255547 0.043017253
0.09703153 0.0500422 -0.015926559 0.012243664 0.061715137 -0.1410632 0.008414203 -0.016619714
-0.06133527 -0.026357133 0.08382145 -0.082843475 -0.001862607 0.08802101 -0.09489058 -0.04209452
0.03985953 0.07158284 0.026220411 -9.28083e-05 -0.021348326 0.06539941 0.026629675 0.095502354
0.029176319 0.1069035 0.08672618 -0.022524552 0.14566512 0.03473993 0.12896289 -0.13517007
0.12261444 0.11710885 0.019398263 0.07134304 -0.019303836 -0.021984173 -0.07365697 0.076819494
0.14909469 0.097499445 0.0915426 0.058873724 0.046727218 0.0019529164 -0.016246408 -0.16050582
-0.06386359 -0.1743723 -0.06433881 0.0991366 0.037187178 0.083711304 -0.012887345 0.10789701
0.009192534 0.055247948 -0.10911519 -0.015669445 0.10990752 0.064852774 -0.0048007807 0.06491663
-0.00451406 0.024531156 -0.08367298 0.04526221 0.04236393 0.06534363 0.037371673 0.031594772
-0.08806549 0.12893057 0.003536436 0.07875082 0.06620902 -0.054524254 -0.115150906 -0.040406354
-0.08228859 -0.050357256 0.050027423 0.07113066 0.07337032 0.00409477 0.01960944 -0.020249723
-0.06648767 -0.09520077 -0.0437821 0.09770911 -0.039305195 0.14418027 -0.085510485 0.008313624
0.022362461 0.005585881 -0.06569403 0.080199674 -0.005595383 -0.018009786 0.058504134 -0.06978994
-0.03348731 0.073535115 -0.09336364 -0.09227618 0.11581044 0.028442923 0.13462842 -0.09236648
0.007061049 0.02873932 -0.11548961 0.072787136 -0.051900644 -0.09229866 -0.0134023195 -0.07487511
0.034040682 0.017414179 0.1462526 -0.04999144 0.06624958 0.05248927 0.10684408 0.02593955
0.07538905 0.12855536 -0.08378064 -0.059880804 -0.076903656 0.026831962 0.08963744 -0.03136757
0.013983624 -0.090567015 -0.09107556 0.10169305 0.053473797 -0.093459204 0.11120512 0.011838441
-0.11658465 0.03861418 0.02397678 0.089815155 0.014987231 -0.14857464 0.054723784 0.007425191
-0.070787534 0.115251414 -0.07248116 -0.089425646 0.09390442 0.07123617 0.071758695 0.07464382
-0.07699274 0.052914195 0.010117949 0.036339965 -0.13379548 0.10546444 0.14103173 -0.09557491
-0.06594816 0.040109824 -0.065001346 -0.040045694 0.06718484 -0.063032 -0.07177775 -0.07159676
-0.07588541 0.093635686 0.023556974 -0.075097546 0.076383315 -0.12815306 -0.082246795 -0.051990375
-0.13703403 -0.041085344 -0.022185216 -0.11227955 -0.12575662 -0.04889263 -0.023998024 -0.12513307
0.18370599 0.07118781 -0.10166222 0.08487556 -0.013448556 -0.010125009 0.073034205 -0.17181745
0.13793503 -0.080366984 0.008322355 -0.13771659 0.14634153 0.0400112 -0.07806482 0.009940023
-0.00092691695 0.14071687 0.049886066 -0.062823445 0.07490709 0.030003421 -0.108169354 -0.013734965
-0.08567152 -0.15189752 -0.18013433 -0.040889338 -0.08495417 0.008518307 -0.10331552 -0.02835214
-0.096209586 0.11231776 0.089403175 0.027990958 -0.11515678 -0.09063464 0.07402329 -0.014521822
0.1459083 0.0016260317 0.09807417 -0.08295334 -0.12019739 0.099251054 -0.13087201 0.013089382

lstm.weight_hh_l1 f4 [200, 50]
00000000: cbb2 83bd 3f59 113d a427 9fbd c481 403e
00000010: 553f a53d 9716 1f3e a271 163e 43cb 94bd
00000020: 3e05 0a3e a041 e7bd 4612 133e 36c1 c73b
00000030: be9e 073e bc2a d73d 7565 a53d 00c8 d93d
00000040: 1bad 0dbd 0f4c 483e fa4e 2c3e c805 c63c
00000050: 20c0 6ebd 472c 0ebe d28b 9b3d 447f 593d
00000060: 67d5 0fbd cecf 463e bb5f 2e3e 4100 f5bd
00000070: e755 90bc 4568 cdbc 7811 18be e7c5 d4bd
00000080: ccd6 ba3d 064f 143e ddea 3a3c 3809 14bd
00000090: 25fa e33c 9676 3a39 653e f03d d29a 3e3d
000000a0: 20fb 5a3d bd8c a9bd 9504 0fba cf3d 23be
000000b0: cbfd d33d 2e1f 203d bbf4 fbbd 4ab0 4dbd
000000c0: bc02 38bd 77a1 f7bc 0b71 c7bd 5958 733d
000000d0: 8a82 893d 328a d93c 4af6 22be 8af1 eabd
000000e0: 6a54 c83c f798 d73d 8848 ce3c cda8 043e
000000f0: 7060 3ebd 62b7 963d de9d 4a3d b1a8 283d
00000100: 0a6c 103e eead aebd 82b4 a63d 102a 013e
00000110: 957b a13d d146 433d 8bec c5bb b0ec 53bd
00000120: b894 c83c 6e8f 83bd d8b8 1f3e f208 9b3d
00000130: 9786 bf3b 13e0 ddbc 6e90 1dbb 00ee 58bd
00000140: 67e1 03bd adb2 09be 6a30 bf3d 392e 5f3d
00000150: cec8 19bd 87d3 1bbd d252 9bbd d7e2 9abd
00000160: e78d 9fbd 01f6 0cbe c8fe 353c 2dd3 6b3d
00000170: e3a8 a03d 922c 05bd 1d38 f3bd 95ca a63d
00000180: 40ab 9b3c fe0d dabd ccb1 5fbd 3634 f13c
00000190: b15b 1bbe c280 c23d dc09 16bd 14fb 80bd
000001a0: 2d4e 80bb 2519 36bd 356e 923d 8749 0cbe
000001b0: 1321 d0bd 5590 053d 7a14 b3bd 5455 5b3c
000001c0: 5b9a af3d 2180 ecbd c013 043e a7d0 bbbc
000001d0: f657 8cbc 571c 8cbd 105b db3d 1e5a 20be
000001e0: d0e2 24bc 62a5 49bd aa3d 17be fcfc 84bd
000001f0: ec84 85bd e7b1 963d 84f7 d13d 01cf 8f3d
00000200: 805e c23d c379 b93d 9b96 26bd 6f36 f6bd
00000210: 6346 20be 333f adbd 1998 c5bd b5e7 9c3d
00000220: ea2b a0bd a574 b83d 85a3 f0bd 8a5e 04be
00000230: 7093 003e 9d97 31bb ef5d f1bc b5e8 b23d
00000240: 2b42 923d 976e 15bd 0ee9 34bd e0f2 2a3e
00000250: 6cef 26bd 046c 823c 74a5 17be 7ac2 67bd
00000260: 9a99 8a3c db5b 283e 0267 aebd 37ef 1c3d
00000270: 69ac 9cbd 71ca 2c3d cc4f ec3c 0b66 0bbe
00000280: 592c 1d3e 7bb7 22be 7faa c5bd 5d72 0f3e
00000290: 85d9 d4bd c920 c5bc 2bd6 c8bd 9ee6 bd3d
000002a0: 0593 1e3e 6243 e2bd 0849 2cbb 2441 14bb
000002b0: 6c04 96bd 2b74 0e3e dfa5 e2bd 7a65 bfbd
000002c0: 20a9 353e b3fb f5bc 757a e4bd 780b 2cbd
000002d0: d7ad 6a3d 5afe c2bd e4e6 993d 17ef ea3d
000002e0: a677 923d e195 003d 2c95 c7bd 9abf bbbd
000002f0: 3b4e 9c3d fe04 403d d221 fbbc 9c63 233d
00000300: 8d04 7a3d 635f 26be 66fd ba3d a4f8 a93d
00000310: 6379 e53c a13f 413e 0ce3 da3c 6e8e b5bd
00000320: 27f6 a7bc 1ba6 c83d d103 ea3d bda4 03be
00000330: 78f5 48bd 5bae debd 0284 8f3d 3241 c93d
00000340: 4a7c 003e e6ec c73d f6c5 84bd 502d 15bd
00000350: 946a c93d 8454 f43d cdfc 1b3e 884e 8c3d
00000360: 96f1 a03d 9dfd 283e 748d ca3d 6518 a73d
00000370: f447 96bc d59e f9bd 83db ad3b 2ff5 87bd
00000380: dbed 8f3d c303 34bd 7b5e 123d af67 2c3d
00000390: bd49 dc3d 4e3b 6a3d 6a36 913d 1ae9 093d
000003a0: 69cf 523d 4445 95bd f4df f73d 5c95 143e
000003b0: 5f94 8ebc 6da5 253e 70a6 3abd c4a2 7d3c
000003c0: 190a 2a3c 069c aa3b 7f78 60bd b153 043e
000003d0: fc67 813d b702 18bd d71b a83d dba1 f7bd
000003e0: 9b53 08bd b983 8abd a1af c4bb cff1 163e
000003f0: 45d8 aa3d d211 a8b8 3169 edbd e9a8 ca3d
-0.064305864 0.035485502 -0.07771233 0.18799502 0.0806872 0.15535961 0.14691785 -0.072653316
0.13478562 -0.11291814 0.1436244 0.0060960306 0.13244149 0.10506198 0.08075992 0.1063385
-0.034588914 0.19560264 0.16827002 0.024172679 -0.058288693 -0.13884078 0.07595028 0.053099886
-0.035115626 0.19415209 0.17028706 -0.11962939 -0.017619086 -0.025074134 -0.14850414 -0.103893094
0.091230005 0.1448327 0.011408535 -0.036141604 0.02782924 0.00017782519 0.11730651 0.046534367
0.053462148 -0.08278797 -0.00054557 -0.15941547 0.103511415 0.039092235 -0.12302538 -0.05021695
-0.044924483 -0.03022836 -0.09738358 0.059410427 0.067143515 0.026555154 -0.15914264 -0.11471851
0.024454314 0.105272226 0.02518107 0.12955017 -0.04647869 0.07359196 0.04946696 0.0411765
0.14103714 -0.08529268 0.08139898 0.12613702 0.078848995 0.047674958 -0.006040161 -0.051739395
0.024484977 -0.064238414 0.15597856 0.075700656 0.005844902 -0.027084386 -0.0024042386 -0.05296135
-0.032197382 -0.13447066 0.09335406 0.05448744 -0.037545018 -0.038043525 -0.07584156 -0.075627975
-0.077907376 -0.13765718 0.011108108 0.05757444 0.078447126 -0.03251321 -0.11875937 0.08144108
0.019002557 -0.106472 -0.05461292 0.029443841 -0.15171696 0.09497215 -0.036630496 -0.06297889
-0.0039155693 -0.044457573 0.071499266 -0.13699923 -0.101625584 0.03260835 -0.0874414 0.013387043
0.08574363 -0.11547876 0.12898159 -0.022926642 -0.017131787 -0.06841343 0.10710728 -0.15659377
-0.010063842 -0.049229987 -0.14769617 -0.064935654 -0.065194935 0.07358151 0.10252288 0.07021905
0.09490681 0.09056427 -0.040670972 -0.12022101 -0.1565185 -0.0845932 -0.09648151 0.07661382
-0.07820876 0.09006623 -0.11749939 -0.12926689 0.12556243 -0.0027098425 -0.029463736 0.087357916
0.07141527 -0.03648242 -0.04416757 0.16694212 -0.040755674 0.015920646 -0.14809209 -0.05658195
0.016918946 0.1644129 -0.08515741 0.03831407 -0.07650072 0.04218525 0.028846644 -0.13613145
0.15348949 -0.15890305 -0.0965166 0.1400847 -0.10393051 -0.024063485 -0.09806474 0.09272502
0.15485771 -0.110480085 -0.0026288647 -0.0022621835 -0.07325062 0.13911502 -0.11066794 -0.09345527
0.17740297 -0.030027246 -0.11156169 -0.042003125 0.057294693 -0.0952117 0.07514742 0.11471384
0.071517274 0.031392936 -0.09745249 -0.091674045 0.07632109 0.04687976 -0.030655775 0.039889917
0.061039496 -0.16247325 0.09130363 0.082993776 0.028011983 0.18871929 0.026719593 -0.08865057
-0.020503117 0.09797307 0.11426509 -0.12855811 -0.049062222 -0.108730994 0.070076 0.09826888
0.12547413 0.09761982 -0.064830706 -0.036420166 0.09834781 0.119301826 0.15233155 0.06850916
0.07858579 0.16502996 0.09890261 0.0815895 -0.018344857 -0.12188498 0.005305709 -0.06638562
0.07027789 -0.0439489 0.035734635 0.042091068 0.10756252 0.057185464 0.07090457 0.03366957
0.051467333 -0.07288602 0.121032625 0.14510101 -0.017404733 0.16176386 -0.045568883 0.015480701
0.010378384 0.0052065877 -0.054802414 0.1292255 0.063186616 -0.037111964 0.08208435 -0.12091418
-0.033282857 -0.06763405 -0.006002382 0.1474068 0.083420314 -8.0141835e-05 -0.11592329 0.09895498

lstm.bias_ih_l1 f4 [200]
00000000: 3c77 07be 242b 843d de1c 9abd 9bf1 5abd
00000010: dd4b d2bd ab64 1abd 005d c23d a788 1c3e
00000020: 3ec4 0e3e 5d1a e4bd 3c66 f1ba 0bbe 98bd
00000030: aeaf ac3d e75b 903d c739 b23c ccf8 07be
00000040: de57 dfba 9609 c23d 0227 dbbd ad13 b23d
00000050: 28aa 69bd 0f59 593c 6114 0bbe f9c9 e43d
00000060: 4e82 e83d 096a c93d 9a81 453a 5758 fc3c
00000070: 02fd edbd 69a8 1a3e 1c9f a93d 06d6 073e
00000080: dbc7 643c 58d7 09be 3158 ab3d 4161 303c
00000090: 4f3d 0f3e 406a acbd c13d f5bd 0efa 553d
000000a0: 0744 a23d 4dcf 8b3d 41b4 7c3d 5b0a 82bc
000000b0: 8c23 c13d e3cb ed3d 5ab7 d33d 819c 2d3d
000000c0: fdf2 fc3d 587a 0dbd fff1 d4bb 851c 73bd
000000d0: 8d46 debc 8f14 f4bc 2e26 c7bd 936a 053d
000000e0: 11bd af3d 4023 dcbd 156e 063e 9d18 a7bd
000000f0: 5faa 79bd 21d7 e1bd 0aa2 b6bd 37e8 a2bd
00000100: 2601 333b 8c0e 08bd c70b f33d a4a8 e33d
00000110: 391a 2c3d 8d91 b03b a4dc 47bd fae4 cfbd
00000120: ff81 c2bd f565 ea3d 3ab9 46bd e118 cc3d
00000130: 833b e7bc 7053 343d 4e16 d03d c09f 03be
00000140: e613 013e b641 9d3d 52d5 0e3e 2d1d d73d
00000150: 4d2a c93d 6a48 1b3e 1a4d ddbd 2f7f b73d
00000160: 63b2 4abd 4344 acbd 74a5 27bd 0248 f83d
00000170: 0e34 b8bd c6ab 19bd c362 ad3b 0252 a13d
00000180: 8245 ed3d dd58 013e 0d34 41bc a988 9d3d
00000190: a357 973d 1353 b3bd 2643 da3d 69d9 29bd
000001a0: 2ecd efbd 786d 63bd 3272 54bd 5dd5 b7bd
000001b0: fbdd d9bd 4e38 fcbd 418b 92bd a126 00be
000001c0: 81c0 ee3c 63fd 13bd 7489 c83d abf1 84bd
000001d0: d048 223d 0faf 9abd fa3b 983c d5b6 be3c
000001e0: dfce 90bd 48b5 853d 80c4 d33d a29b 783d
000001f0: 49a7 943d 4276 6dbd 3eba dabd 3784 ee3d
00000200: 105e cb3d 305b 0b3e f6c6 973c 65e4 c6bd
00000210: 3961 e53d 59b0 80bd 3ef2 023e ffca be3a
00000220: c769 5c3c ecd8 ee3d 9b51 bb3c 8555 08bd
00000230: a05f 073e a54b c3bd ebc7 e1bb 39e9 95bd
00000240: b516 1e3a 97f8 35bd 2db3 47bd 5499 b53c
00000250: 7026 7b3d 0afc db3d f890 e4bd 18bd ce3d
00000260: 4075 cdbd b9b6 8e3d 893a 8e3d 3046 0dbe
00000270: 4a77 af3d 09e8 ff3d 69dc e5bd 9d2e b9bd
00000280: c36e aabd 6c34 2ebd bd62 20bd cb05 02bd
00000290: 08a8 b5bd 489e 06be 785c 843d 7c43 0e3d
000002a0: 3710 f53d 7418 f63d d940 853a a9fa a43d
000002b0: 1e91 a93d fe02 2a3d 0ed3 1abe 6c80 bc3d
000002c0: dca8 8ebb 5446 9a3b 3a06 c4bc 6681 bb3d
000002d0: 54fc 183e 9c5b 253d 3af2 b5bb 85f5 9a3d
000002e0: 1207 843d 7b91 bcbd 4e7b 99bd 6dc3 023e
000002f0: 71b4 49bd 54cc 333d e287 d73d 7d60 2ebd
00000300: 3d38 f1bd 3aa6 953c 16b1 633d 17b6 17bd
00000310: d395 143d 9fb2 443c ca61 3b3b 2af6 153e
-0.13229078 0.06453541 -0.07525037 -0.05345307 -0.10268376 -0.03769366 0.094903946 0.15286504
0.13942048 -0.11137841 -0.0018417309 -0.07458123 0.08431946 0.07048779 0.021756066 -0.13278502
-0.0017039736 0.094744846 -0.107007995 0.08695159 -0.05704704 0.013265862 -0.13581993 0.11171336
0.11352979 0.09834678 0.0007534266 0.030803842 -0.11620523 0.15103306 0.08282301 0.13265237
0.013963665 -0.13461053 0.083664306 0.010765375 0.13988231 -0.08418703 -0.11974669 0.052240424
0.079231314 0.06826649 0.06169534 -0.015874078 0.09430608 0.11611154 0.10337706 0.042385582
0.12351034 -0.034540504 -0.0064985747 -0.05935337 -0.02713325 -0.02979496 -0.09724079 0.03257234
0.085809834 -0.10748911 0.1312793 -0.081589915 -0.060953494 -0.11027361 -0.08917625 -0.07954448
0.0027313917 -0.033216998 0.11867481 0.1111615 0.042017195 0.0053884448 -0.048794404 -0.10151096
-0.09497451 0.11445228 -0.04851649 0.09965683 -0.02822662 0.044024885 0.10160504 -0.12853909
0.12605247 0.07678549 0.13948563 0.10503612 0.09822521 0.15164343 -0.108057216 0.08959805
-0.04948653 -0.084114574 -0.040929273 0.121231094 -0.08994304 -0.03751733 0.0052913143 0.0787697
0.11585523 0.12631555 -0.011792195 0.076920815 0.07389762 -0.087560795 0.10657339 -0.041467104
-0.11709057 -0.05552432 -0.051866718 -0.08976243 -0.106380425 -0.12315427 -0.07155467 -0.12514736
0.029144527 -0.03613032 0.09791842 -0.06491407 0.03962022 -0.07552921 0.018583287 0.02328054
-0.070707075 0.06528717 0.10340214 0.060695298 0.072584696 -0.057974108 -0.10680054 0.11646312
0.099300504 0.13609004 0.01852749 -0.097115315 0.112001844 -0.06283636 0.1278772 0.0014556347
0.013452954 0.11662468 0.022866061 -0.033284683 0.13220072 -0.095359124 -0.006890287 -0.07319874
0.0006030605 -0.044426527 -0.04875486 0.02216784 0.061315954 0.10741432 -0.11160463 0.100946605
-0.10032129 0.06968445 0.069447584 -0.13796306 0.085676745 0.12495429 -0.112236805 -0.09042094
-0.08321907 -0.042530462 -0.039156664 -0.031743806 -0.0886994 -0.13146317 0.064629495 0.034732327
0.11965983 0.12016383 0.0010166421 0.08055622 0.08279632 0.04150676 -0.15119573 0.09204182
-0.0043536257 0.004708091 -0.02392875 0.0915554 0.14940006 0.04037057 -0.0055525573 0.075663604
0.06446661 -0.09207436 -0.07494222 0.12769862 -0.049244348 0.043896034 0.105239645 -0.042572487
-0.11778305 0.01826774 0.055588804 -0.03703889 0.036275696 0.012005477 0.0028592222 0.14644685

lstm.bias_hh_l1 f4 [200]
00000000: de0a 7dbd 0a7b bebd 3eb9 e83d 0a62 033e
00000010: ad37 233e b8cb a3bd e7dd 38bd 46c2 0c3e
00000020: 4f25 343d ec42 4bbc ed63 93bd 419f a4bd
00000030: c08a ba3d 095e af3c c7a9 dfbc 36be b0bd
00000040: 858f d53c 9825 88bd eb08 68bd 0907 c0bd
00000050: dc6b 6bbd 7ffe 72bd d996 d8bd 9783 ad3d
00000060: b377 3dbd 1f92 133e ba3d b93d ddd4 173c
00000070: 6357 813b 2ba7 cabd 6fe3 463d ed04 ffbc
00000080: 9a6d acbc b260 083d 09a0 273d ad71 fc3d
00000090: e290 953d 6a33 b53d bd34 38bd 98cf b4bd
000000a0: 9c4a 163d 1d62 6bbd fcb7 c7bd 3c84 66bc
000000b0: c924 09be 9f5f 633c 53a5 45bd 87ed 043e
000000c0: 8b04 293d 0e99 ddbd 6a78 0d3e 3fcf bcbd
000000d0: 3fe2 cd3b 5fbd 9f3d 9327 0fbd 6820 c5bd
000000e0: 1860 ae3c 2248 b93d 8731 453d ca50 e4bc
000000f0: fd2b 44bc 42bf 97bd 06a7 98bd 8939 843d
00000100: 4975 5abd 070b b2bb 88f1 1dbc b08b 2a3d
00000110: 93ce 44bd 3661 183d a4ad 473d 12a6 f0bd
00000120: 1557 ce3d 9c59 9e3c fab6 ebbd 4fe8 e7bd
00000130: 5149 cb3b 6640 593c 0a21 07be 76d4 abbd
00000140: 0782 dd3d 329a dc3d 6879 91bd 4678 143d
00000150: ceac d8bd c123 043d aa09 df3c f5cb 383d
00000160: fc3f cbbd e132 c3bc b295 19bd 81d5 18bd
00000170: 1570 34bd 54c3 44bc 1c1f 90bc 20ee aebd
00000180: c46c dc3c 17f4 b43d aeb2 49bd 543f 523c
00000190: 841d a23c a115 983d 0221 d43d e23c 92bd
000001a0: fa20 ea3d d8c7 893b bc55 97bd 2955 01be
000001b0: ecb2 143e 072f a63d 1c2b 0e3e 2379 4b3d
000001c0: fa25 d43d 3097 d13d 5b58 a6bd e139 a2bd
000001d0: 7889 7fbd e769 b43d b17b 843c 03be 743d
000001e0: 7e5e 693d 0400 cc3d 7b86 983c df78 a13d
000001f0: 07c3 e93d e988 cb3d ad8a d73d 3e4e d53b
00000200: 6ea6 ef3d cfce 75bd bf68 06be d147 dbbd
00000210: 9b52 09be 4d06 3dbd 6922 1dbd d50b d53d
00000220: 8456 ff3d 86a3 ca3d f659 dbbd 1d84 06bd
00000230: d2bd b5bc 9e48 173e 47dd 5abc 8386 0f3e
00000240: 036c c0bc 15a9 05be 229a 9a3c 8022 96bd
00000250: d106 d5bd a1fe 1a3e 7968 8fbd c3a4 043e
00000260: 24f2 ebbd 6823 503b c97b ff3c 8ce7 35b9
00000270: c4b6 733d 4171 aabd 0b8d bf3c e000 a6bd
00000280: e728 55bd 4f7d 943c 82e6 e53c 9984 8f3d
00000290: 352b 26bd 4b37 07be 8526 343d ee5e bbbd
000002a0: fa05 90bd afb7 f8bc b4f8 033d c7d9 d13d
000002b0: f087 9d3d 0d30 953d fe03 b03d 7049 913d
000002c0: 13ff ad3d 8f9e d8bd 20d9 113d 3869 8b3d
000002d0: 2b29 cabd b907 a93c 5f81 fbbc 57ac f7bd
000002e0: 97a9 e6ba 71e9 dbbd 6c61 1d3e 3621 45bd
000002f0: e069 c7bd 14a1 183e 324d 8ebd a643 e63d
00000300: 1d54 18bd db83 2d3e 2366 2d3d 5928 223d
00000310: 2795 19be 1ea5 bb3d 7781 213d 8264 03bd
-0.061777942 -0.093008116 0.11363457 0.12830368 0.15939207 -0.07997841 -0.045133498 0.13745984
0.043980893 -0.012406092 -0.07196794 -0.08038188 0.09108496 0.021407144 -0.027302636 -0.0863003
0.026069412 -0.066477954 -0.05664913 -0.09376342 -0.05747591 -0.059324738 -0.10575647 0.084723644
-0.046256732 0.1441121 0.090449765 0.009267059 0.003947185 -0.09895166 0.04855674 -0.031130278
-0.021048356 0.03329534 0.040924106 0.123263694 0.07303025 0.08847697 -0.04497217 -0.08828658
0.036692247 -0.057466615 -0.09751889 -0.014069613 -0.13392939 0.013877778 -0.04825337 0.12981234
0.0412641 -0.108202085 0.13815466 -0.092192166 0.006283074 0.077997915 -0.03494985 -0.096253216
0.021286055 0.09046961 0.048142936 -0.027870554 -0.011973378 -0.074095264 -0.07453732 0.064562865
-0.053334508 -0.0054334435 -0.009640105 0.041637123 -0.048048567 0.037202083 0.04874958 -0.117504254
0.10075203 0.019329838 -0.115095094 -0.11323606 0.0062038084 0.013259983 -0.13196197 -0.08390133
0.108158164 0.10771598 -0.071032345 0.036247514 -0.10579835 0.03226066 0.027226288 0.045116384
-0.099243134 -0.023827972 -0.037496276 -0.03731299 -0.044052202 -0.0120094605 -0.01759296 -0.085415125
0.026907332 0.08835619 -0.049242668 0.012832481 0.019789465 0.074260004 0.10357858 -0.07140519
0.11432071 0.0042047314 -0.073893994 -0.12630142 0.14521378 0.081144385 0.13883632 0.04967607
0.10358806 0.10233915 -0.08122321 -0.07921196 -0.06238696 0.08809262 0.016172262 0.05975152
0.05697488 0.099609405 0.018618813 0.078843825 0.11414152 0.09938223 0.10524497 0.0065095713
0.11701666 -0.06001168 -0.13125895 -0.10707057 -0.13410418 -0.046148587 -0.038362894 0.104026474
0.124676734 0.09894471 -0.10710518 -0.032840837 -0.02218524 0.14773795 -0.013358421 0.14016156
-0.023489004 -0.13052781 0.018872324 -0.07330799 -0.10401691 0.15136196 -0.070023485 0.12953477
-0.11520794 0.0031759385 0.031186955 -0.00017347763 0.05950047 -0.08322383 0.023382684 -0.08105636
-0.05204096 0.018126158 0.028064016 0.07007713 -0.04056855 -0.13204686 0.043982048 -0.09148966
-0.0703239 -0.030361025 0.032219604 0.10246616 0.07691944 0.072845556 0.085945114 0.07094085
0.08495917 -0.10577118 0.035607457 0.06807178 -0.098711334 0.020633565 -0.030701337 -0.12093418
-0.0017598149 -0.10737885 0.15369195 -0.048127376 -0.09736991 0.14905196 -0.069483176 0.11243372
-0.03718959 0.1694483 0.042333733 0.03958926 -0.14998303 0.09162353 0.039430108 -0.032078274

fc.weight f4 [1, 50]
00000000: 2a35 b9bd 64ad 13be cb76 eabd bd35 823d
00000010: 9f49 f5bd a31f 5f3d 62c3 6a3d 94a7 0bbe
00000020: 90ee d83d 3010 98bd c08c e83d f0e7 90bd
00000030: 9994 043e c138 f13d a622 8b3d 34db 913d
00000040: c1c8 fcbd a3c6 293e d064 f63c bad4 b4b8
00000050: 6a06 933d 9aa0 143d 44d3 09bc 1889 393c
00000060: 84bd cabd ea9e 843d 992e 133d 8b22 45bd
00000070: 66d0 323a d60e 153e 131c 9fbd 6385 88bc
00000080: 4552 1abe 32c7 c33d f4c1 1d3e 8d54 013e
00000090: 5ea0 9e3d 6e24 c13d 8d19 41bc 9a8c d8bd
000000a0: eeca 093e 6a4d 0d3e 64d6 a3bd db4e 77bd
000000b0: 5af7 963d 9684 f7bc 41c2 043d 06a9 b73d
000000c0: c5ab e3bd 9b2f 213e
-0.09043343 -0.14421612 -0.11448439 0.06357906 -0.11976933 0.05447353 0.057315238 -0.13638145
0.10592377 -0.074249625 0.11354971 -0.070754886 0.1294731 0.11778403 0.06793718 0.07121888
-0.12342978 0.1657968 0.030077368 -8.622692e-05 0.07178958 0.036285974 -0.008412186 0.01132419
-0.098994285 0.06475623 0.03593311 -0.048128646 0.0006821215 0.1455644 -0.077690266 -0.016665166
-0.15070446 0.09559478 0.15406018 0.1262991 0.07745431 0.094307765 -0.011785877 -0.105736926
0.13456318 0.13799062 -0.07999876 -0.060377937 0.07371397 -0.03021459 0.032411817 0.089677855
-0.11116747 0.15740816
